AI/ml-agents-release_20/results-force/bird/FlappyBird/FlappyBird-499949.onnx (onnx, 58113 bytes, 4 tensors)

action_model._discrete_distribution.branches.0.bias f4 [2]
0	0x3c77f3f1	0.015133844
1	0xbc77f3ef	-0.015133842

action_model._discrete_distribution.branches.0.weight f4 [2, 256]
0	0x3d6c6595	0.057714064
1	0x3d642e1d	0.05570804
2	0x3c5a8fac	0.013339918
3	0xbda36bf2	-0.07979573
4	0xbc09766e	-0.008390052
5	0xbd28c788	-0.041205913
6	0xbd7a8d2a	-0.06116978
7	0xbdbe40f1	-0.0928973
8	0x3d6859e9	0.05672637
9	0x3c96240a	0.018327732
10	0x3cf9a50a	0.030474205
11	0x3d5960e3	0.053070914
12	0xbdebc1a6	-0.11511545
13	0x3d826916	0.063677
14	0xbde12188	-0.10992724
15	0xbd820071	-0.063477404
16	0x3cb5e27a	0.022202719
17	0x3d4df351	0.050280873
18	0x3de6bfef	0.11267077
19	0xbd2c977c	-0.042136654
20	0xbd72e903	-0.05930425
21	0x3ca9cad8	0.020726606
22	0xbdce0fc1	-0.100615986
23	0xbc915dcc	-0.017744921
24	0x3d46edb2	0.048566528
25	0x3d65bdf9	0.056089375
26	0xbde90335	-0.11377565
27	0x3cbcb788	0.023036733
28	0x3c41060b	0.011781226
29	0xbd74cda9	-0.059766445
30	0x3d2e1670	0.042501867
31	0x3dab3bdc	0.08361027
32	0x3d1b8ad3	0.03797419
33	0x3b779a24	0.0037781084
34	0xbd66cb73	-0.056346368
35	0xbda77de2	-0.08178307
36	0x3d60f8d6	0.05492481
37	0xbd435cab	-0.047695797
38	0x3da4e363	0.08051183
39	0xbc8fc996	-0.017552178
40	0x3c8b9a6f	0.017041413
41	0xbe0834a7	-0.13301335
42	0xbd5b9901	-0.053612713
43	0xbd28e452	-0.04123337
44	0xbdb9c623	-0.09070995
45	0x3de5a5cf	0.11213266
46	0x3d7668c1	0.060158495
47	0x3d938ed8	0.0720498
48	0x3da8b861	0.082382925
49	0x3d7beadb	0.061503273
50	0x3cd251f8	0.025673851
51	0xbbe39f45	-0.0069464766
52	0x3d52adfd	0.05143546
53	0x3cb4d762	0.022075359
54	0x3d00d1ea	0.03145019
55	0x3d6f55c0	0.058431387
56	0x3cee554c	0.029093407
57	0xbde9f29f	-0.114232294
58	0xbd81c4cb	-0.063363634
59	0xbdbb5a18	-0.091480434
60	0x3d5045fc	0.050847992
61	0x3bacea4d	0.0052769543
62	0xbc39351b	-0.011304165
63	0xbd3e76c1	-0.04649997
64	0x3d7c2d7c	0.061566815
65	0xbd2bb9f9	-0.041925404
66	0xbd8d04f6	-0.06885712
67	0xbdb09977	-0.08623021
68	0xbd7a1cee	-0.061062746
69	0x3d78988f	0.060692366
70	0x3b3fd9ae	0.0029274034
71	0xbdf3ad44	-0.11898282
72	0xbd15f9d7	-0.03661522
73	0xbdc7a751	-0.0974871
74	0x3d3cb55c	0.046071395
75	0x3d759ae7	0.05996218
76	0x3d9a01ef	0.075199
77	0xbe169fd8	-0.14709413
78	0x3d094497	0.033512678
79	0x3c9eca45	0.019383559
80	0xbcc03d60	-0.023466766
81	0x3d3d735a	0.046252586
82	0x3d01e088	0.03170827
83	0xbd2975ac	-0.041371986
84	0x3c1ca2db	0.009560312
85	0xbd5167bc	-0.05112432
86	0xbd088e92	-0.03333909
87	0xbd39ee5c	-0.045393333
88	0xbddccd08	-0.10781294
89	0xbdf17f8a	-0.11791904
90	0x3da43e47	0.08019691
91	0x3ccf28a6	0.025287937
92	0xbd79c813	-0.06098182
93	0x3c16a814	0.009195346
94	0x3dd8f95d	0.10594437
95	0xbd9fa273	-0.077946566
96	0x3d1eeacf	0.03879815
97	0x3ce405c8	0.027834788
98	0xbc9191a1	-0.017769637
99	0xbd8ef2a4	-0.06979874
100	0xbdb0002f	-0.08593785
101	0xbd1fe035	-0.03903218
102	0xbcbb5c48	-0.022871152
103	0x3d5bdae4	0.053675547
104	0x3daf139c	0.08548662
105	0xbd235064	-0.03987159
106	0x3cf30e4e	0.029669907
107	0x3d98b8c5	0.07457117
108	0xbe04f988	-0.12985814
109	0xbd571c26	-0.05251708
110	0x3ce8dd02	0.028425697
111	0x3c97f1de	0.018547948
112	0x3d808f0e	0.062772855
113	0x3d82555f	0.063639395
114	0xbcf1a704	-0.029498585
115	0x3dd1f8a1	0.102525
116	0x3bfd3f12	0.007728466
117	0x3d110300	0.03540325
118	0xbb0b7f7e	-0.0021285708
119	0xbc1f2a78	-0.009714715
120	0xbd77e9ef	-0.06052583
121	0xbd691ded	-0.056913305
122	0x3c29c6fa	0.010362381
123	0xbd3f8ac3	-0.046763193
124	0x3d6085d8	0.054815143
125	0x3dd77748	0.10520798
126	0xbcefd9c5	-0.029278645
127	0x3da9fb9f	0.08299946
128	0xbdaad37e	-0.0834112
129	0xbcfac69e	-0.030612286
130	0x3cae81cf	0.021302132
131	0x3d646efe	0.055769913
132	0x3d72cd2e	0.059277706
133	0xbdac0665	-0.08399657
134	0xbd5a2217	-0.053255167
135	0xbd09734e	-0.03355723
136	0xbd91ca75	-0.07118694
137	0xbd185729	-0.037192497
138	0xbd048963	-0.032357585
139	0x3d82ab18	0.0638029
140	0x3d86fc8f	0.065911405
141	0xbd1e938c	-0.03871493
142	0xbd40b6d3	-0.047049355
143	0xbde7aebb	-0.11312624
144	0xbd43c57b	-0.047795754
145	0x3da9b89b	0.08287164
146	0x3d5fcb4a	0.05463723
147	0xbc4fbac7	-0.0126788085
148	0x3d3d5493	0.046223234
149	0x3d137b9f	0.036006566
150	0xbc92f794	-0.01794032
151	0xbdd16cbb	-0.10225817
152	0x3cd88ff7	0.026435835
153	0xbd9bb796	-0.076033756
154	0xbd920f5e	-0.07131837
155	0x3cd044b8	0.025423393
156	0xbdaaeb82	-0.08345701
157	0xbdf23044	-0.11825612
158	0xbcedda9f	-0.02903491
159	0x3c711670	0.014714822
160	0xbd333610	-0.04375273
161	0x3d92485d	0.071427085
162	0x3d880cf4	0.066430956
163	0xbd57225a	-0.052522995
164	0x3da18555	0.07886759
165	0x3da70777	0.08155721
166	0x3d116ffe	0.035507195
167	0x3d93ea91	0.07222474
168	0xbdbec4a8	-0.09314853
169	0xbd650be8	-0.055919558
170	0xbdb5d76e	-0.088789806
171	0xbd53453d	-0.051579703
172	0x3d23bd11	0.03997523
173	0xbdda8733	-0.106703185
174	0x3d9e8572	0.077402964
175	0xbd1e7e5d	-0.03869473
176	0x3d091822	0.03347028
177	0xbda0adec	-0.07845673
178	0xbd851e56	-0.06499927
179	0x3ce205c6	0.027590644
180	0xbd29701a	-0.041366674
181	0x3cc040f6	0.023468476
182	0xbc9b5b8a	-0.018964548
183	0xbdcba2ce	-0.09943162
184	0xbcde3423	-0.02712447
185	0x3d074f6a	0.03303472
186	0x3d8106fd	0.06300161
187	0x3d3117d3	0.04323561
188	0xbda11d87	-0.0786696
189	0xbc251713	-0.010076302
190	0xbd1a9df4	-0.037748292
191	0xbda7e586	-0.08198075
192	0xbd8e67dd	-0.06953404
193	0x3d474022	0.048645146
194	0xbd5e65de	-0.054296367
195	0xbddbd4bb	-0.107339345
196	0xbd65feb3	-0.056151103
197	0xbdbb4372	-0.091437235
198	0xbd0dc383	-0.034610283
199	0x3d8b7e4a	0.06811197
200	0x3d5ea6fd	0.05435847
201	0x3d5a6602	0.05331994
202	0x3c7981ae	0.015228672
203	0x3d7e64d3	0.062107872
204	0xbddd44fa	-0.10804172
205	0x3dd002e9	0.10156805
206	0x3d048cab	0.032360714
207	0xbdd31d74	-0.10308352
208	0x3cd45910	0.025921375
209	0xbd119cb7	-0.035549846
210	0xbd96916f	-0.07351958
211	0xbcbbc330	-0.022920221
212	0xbc991b9b	-0.018689921
213	0xbd82b001	-0.06381226
214	0xbd9f831c	-0.07788679
215	0xbda0ed14	-0.07857719
216	0x3d8d3ea2	0.06896712
217	0xbdaa71f8	-0.08322519
218	0x3c86adf1	0.016440364
219	0xbda2b878	-0.07945341
220	0xbdeaa6c0	-0.11457586
221	0x3cf8a4f9	0.030352103
222	0xbdff1741	-0.12455607
223	0x3c601f22	0.013679298
224	0xbd82daf8	-0.06389421
225	0x3d5a949a	0.053364374
226	0xbd1c8ff3	-0.03822322
227	0x3ccab433	0.024744129
228	0x3d25cefa	0.04048059
229	0xbd84e596	-0.064891025
230	0x3ce9d15c	0.028542213
231	0x3d436ade	0.04770934
232	0xbcc30b7c	-0.023809187
233	0x3dabca5c	0.08388206
234	0x3d9a8165	0.07544211
235	0x3d3e5c2d	0.046474624
236	0xbcf33f2d	-0.02969321
237	0x3c861a7c	0.01637005
238	0x3d03fb6b	0.032222193
239	0xbe116048	-0.14196885
240	0xbd16002e	-0.036621265
241	0x3c2f149f	0.010686069
242	0xbbe016c2	-0.0068386504
243	0x3d6fa7a9	0.058509503
244	0xbdb94afd	-0.09047506
245	0x3cec72ea	0.028863389
246	0xbd2012b3	-0.039080333
247	0x3d00d126	0.03144946
248	0xbd01c913	-0.0316859
249	0x3d059c95	0.03262003
250	0xbd095cb0	-0.03353566
251	0xbd8d413e	-0.068972096
252	0xbd653c99	-0.055965994
253	0xbd143d06	-0.03619101
254	0x3d29430d	0.04132371
255	0x3d2a5672	0.041586347

network_body._body_endoder.seq_layers.0.bias f4 [256]
0	0x3d26e2ea	0.040743746
1	0x3d11f865	0.035637278
2	0x3c074c5f	0.008257954
3	0x3d5acf3f	0.0534203
4	0xbc0ba655	-0.008523543
5	0xbb22d312	-0.0024845046
6	0x3cb323e4	0.0218677
7	0x3c9f9cad	0.019483889
8	0x3d3ee939	0.046609137
9	0x3c8972bb	0.01677834
10	0x3cbd9d26	0.023146223
11	0x3d28c9fb	0.04120825
12	0x3d4855d9	0.048909996
13	0x3d247727	0.040152695
14	0x3d012202	0.031526573
15	0x3cd61c11	0.02613643
16	0x3c949954	0.018139519
17	0x3d1b1bed	0.03786843
18	0x3d8d5bc9	0.06902272
19	0x3bbc2d6e	0.0057427203
20	0x3cfe5983	0.031048542
21	0x3ca05b00	0.019574642
22	0x3cd7a6f3	0.026324725
23	0xbc19d1e3	-0.00938842
24	0x3cfdfe46	0.031005036
25	0x3d2e48c7	0.042549875
26	0x3dda8fce	0.1067196
27	0x3c829de5	0.01594443
28	0x3c8045a9	0.015658217
29	0x3cb3a0b3	0.021927213
30	0x3d00b0ca	0.0314186
31	0x3d1d6dbd	0.038434733
32	0x3d125397	0.03572425
33	0xbc02db0c	-0.007986795
34	0x3d7d652b	0.06186406
35	0x3c8510a7	0.016243292
36	0x3cdae7cb	0.026721856
37	0x36c7222b	5.93464e-06
38	0x3d397e24	0.045286313
39	0xbb945933	-0.004527235
40	0x3ba66d3d	0.00507894
41	0x3cec6de6	0.028860997
42	0x3cee6add	0.02910369
43	0xbbdb77e5	-0.006697642
44	0x3d1f825c	0.03894268
45	0x3d8573d9	0.06516237
46	0x3d4632eb	0.048388403
47	0x3d305870	0.04305309
48	0x3d41dbfe	0.04732894
49	0x3d2c1ee4	0.042021647
50	0x3d023746	0.031790994
51	0xbbb8b0ea	-0.005636324
52	0x3d8dad15	0.069177784
53	0x3c9b450e	0.018953826
54	0x3cb26618	0.021777198
55	0x3d2b9070	0.041885793
56	0x3d4d41b6	0.050111495
57	0x3d7323d2	0.059360333
58	0x3c7a8c16	0.015292188
59	0x3cbc5ee1	0.02299446
60	0x3ce9422d	0.028473938
61	0xbcc0b36c	-0.023523055
62	0xbbcac4da	-0.0061880173
63	0x3c05fba8	0.008177675
64	0x3d2a1d3f	0.041531797
65	0xbba8de5c	-0.0051534604
66	0x3aa820e9	0.0012827191
67	0x3d78c795	0.06073721
68	0x3cf1d6f1	0.029521437
69	0x3ce66426	0.028123926
70	0xbc4c0cf3	-0.012454259
71	0x3d4f3258	0.05058512
72	0xbc726ab7	-0.014795951
73	0x3d8c65b5	0.068553366
74	0x3d0b55c9	0.034017358
75	0x3d056d0d	0.032574702
76	0x3d3a6db6	0.045514785
77	0x3c9015fc	0.017588608
78	0x3cbe3a97	0.023221297
79	0x3be4be12	0.006980666
80	0xbd0329bd	-0.032022227
81	0x3d036d59	0.032086704
82	0x3cc2f6bd	0.023799295
83	0x3c346ac0	0.011011779
84	0x3c6c42f0	0.014420256
85	0x3d4dab64	0.05021228
86	0x3ba8159a	0.005129528
87	0x3d00c8fd	0.031441677
88	0x3d3839b1	0.044976894
89	0x3d5a3d4c	0.053281114
90	0x3d2d93f2	0.04237742
91	0x3c3009de	0.01074454
92	0x3d483d2e	0.04888647
93	0x3baefd99	0.00534029
94	0x3d73d957	0.059533443
95	0x3d873609	0.06602103
96	0x3ccb73bd	0.024835462
97	0x3cc009dd	0.023442203
98	0xbbbea3c2	-0.0058178613
99	0x3d45000f	0.04809576
100	0x3c20c888	0.009813435
101	0xbc25aa36	-0.010111382
102	0xbd21da98	-0.039515108
103	0x3d245b5d	0.040126193
104	0x3d4af3e8	0.049549013
105	0xbbafb98e	-0.005362696
106	0x3c8c3338	0.017114267
107	0x3d3ab3d4	0.045581654
108	0x3d1fcd81	0.039014343
109	0x3c9d213f	0.019180892
110	0x3cd869a4	0.02641756
111	0x3c330730	0.010927007
112	0x3d0e9632	0.034811206
113	0x3d43a8b2	0.047768302
114	0x3ad6398b	0.0016344053
115	0x3d56119e	0.052262895
116	0x3c734f62	0.014850469
117	0x3ca40225	0.020020554
118	0xbc029b6f	-0.007971629
119	0xbc508ab1	-0.012728379
120	0xba82c14a	-0.0009975818
121	0x3c9199a2	0.017773453
122	0x3c9d0129	0.019165592
123	0xbc816112	-0.015793357
124	0x3d171422	0.036884435
125	0x3d82bf26	0.06384115
126	0x3cf5718d	0.029961372
127	0x3d74f87a	0.05980728
128	0x3d1b34c1	0.037892107
129	0x3d18d8c7	0.03731611
130	0x3cab5f3e	0.020919438
131	0x3d0d4331	0.034487907
132	0x3d350477	0.04419371
133	0x3cbbcffb	0.022926321
134	0x3c8c71d8	0.017144129
135	0x3d71d1a9	0.059037838
136	0x3d9132ea	0.07089789
137	0x3ccaeb66	0.02477045
138	0x3d149a45	0.036279935
139	0x3d1adb06	0.037806533
140	0x3d21b687	0.039480712
141	0x3d0eb3b6	0.034839354
142	0x3c81c273	0.01583979
143	0x3d10376a	0.035209097
144	0x3b236764	0.0024933452
145	0x3d40b7cc	0.047050282
146	0x3d525b0a	0.051356353
147	0xbca046ef	-0.019565074
148	0x3d2068bf	0.039162394
149	0x3cb6d996	0.02232055
150	0xbb88defc	-0.0041769724
151	0x3d3cb690	0.046072543
152	0x3ca30638	0.019900426
153	0x3d2251b6	0.039628707
154	0x3c721023	0.014774355
155	0x3c9710a3	0.01844055
156	0x3d346635	0.044042785
157	0x3d71f697	0.059073057
158	0x3c02e4d3	0.007989126
159	0x3c829ef0	0.015944928
160	0x3c809716	0.015697043
161	0x3d33ddd7	0.043912735
162	0x3d513eaf	0.05108517
163	0x3d425e00	0.047452927
164	0x3d462bca	0.048381604
165	0x3d8426db	0.064527236
166	0x3c8286e8	0.015933469
167	0x3d8198a8	0.06327945
168	0x3cd10db5	0.025519231
169	0x3d91aa80	0.071125984
170	0x3d1ae6e5	0.037817854
171	0x3af01c9c	0.0018319073
172	0x3c9f43b1	0.019441457
173	0x3c3c4c5e	0.011492817
174	0x3d5ed934	0.05440636
175	0x3d2101af	0.039308246
176	0x3d06e65d	0.032934535
177	0x3cf4fd43	0.02990592
178	0x3d65d612	0.056112356
179	0x3ca2787d	0.019832844
180	0x3d0b52b6	0.034014426
181	0x3c8a873c	0.016910188
182	0xbc69bb35	-0.014265825
183	0x3d0bd937	0.0341427
184	0xbbd61001	-0.0065326695
185	0x3c9a2d21	0.018820347
186	0x3da4a179	0.08038611
187	0x3d09b55b	0.03362022
188	0x3ccb237c	0.024797194
189	0xbcf1fcce	-0.029539492
190	0x3c32b486	0.010907298
191	0x3ccadf87	0.02476479
192	0x3ceea3fe	0.029130932
193	0x3ca01680	0.019541979
194	0x3c026b2d	0.007960123
195	0x3cea367a	0.02859043
196	0x3d39b8ad	0.045342136
197	0x3cd37c5a	0.025816131
198	0x3c64625b	0.013939465
199	0x3d559d89	0.05215219
200	0x3d21138d	0.039325286
201	0x3cae2fca	0.021263022
202	0x3c4ec492	0.012620108
203	0x3d50237f	0.0508151
204	0x3d519a2f	0.05117243
205	0x3db6715c	0.0890834
206	0x3cb5c1d0	0.022187144
207	0x3d6b1d32	0.05740089
208	0x3cc460e4	0.023971982
209	0xbc84c1fb	-0.016205778
210	0x3b7a156e	0.0038159746
211	0xbd21b4c1	-0.03947902
212	0xbc750b98	-0.014956377
213	0x3d6a72cc	0.057238385
214	0x3c94e5c6	0.01817597
215	0x3d147581	0.036244873
216	0x3d1cda87	0.03829434
217	0x3d19d8d5	0.037560303
218	0x3ca5d796	0.020244401
219	0x3de5082f	0.111832015
220	0x3c591602	0.013249876
221	0x3d128a5a	0.035776474
222	0x3d655180	0.055985928
223	0x3bb7d440	0.005610019
224	0x3d371a6c	0.044702932
225	0x3cffa3f5	0.03120611
226	0x3d324758	0.04352507
227	0x3c8ddf1f	0.017318306
228	0x3cea98b4	0.028637268
229	0x3ce6ff74	0.028197981
230	0x3ccdb593	0.025110995
231	0x3d01cc96	0.03168925
232	0x3cc25311	0.02372125
233	0x3d2c816a	0.042115606
234	0x3d39dbf6	0.045375787
235	0x3cef783f	0.029232142
236	0x3b5833be	0.0032989825
237	0x3c36b236	0.011150887
238	0x3cc7e120	0.02439934
239	0x3d40ebef	0.047100004
240	0x3c661f9a	0.01404562
241	0x3c892ebc	0.016745917
242	0xbd283ed8	-0.041075557
243	0x3d1651ce	0.03669911
244	0x3c5645c8	0.013078161
245	0x3c965af5	0.018353919
246	0x3c4ac343	0.012375656
247	0x3d1c0f01	0.038100246
248	0xba403deb	-0.0007333445
249	0x3cff020d	0.031128908
250	0x3bf6a2a4	0.0075267125
251	0x3ccd7dca	0.025084395
252	0x3c930134	0.01794491
253	0x3b8979d3	0.004195431
254	0x3cec6d38	0.028860673
255	0x3d00cacb	0.0314434

network_body._body_endoder.seq_layers.0.weight f4 [256, 52]
0	0x3d6df1dd	0.058091987
1	0xbdfc91db	-0.12332507
2	0xbe22b35c	-0.15888733
3	0x3d5e25ac	0.054235145
4	0x3d9c7873	0.07640161
5	0xbe5caeee	-0.21551105
6	0xbe81fc39	-0.25387743
7	0xbdb38e05	-0.087673225
8	0x3d11f6ca	0.035635747
9	0xbe8a35d7	-0.26994202
10	0x3db04a77	0.08607953
11	0xbe956c82	-0.29184347
12	0x3e290b63	0.1650825
13	0xbed5bf22	-0.41747385
14	0x3e4dfc81	0.20115854
15	0x3e1ba979	0.15201367
16	0x3d2a23f2	0.041538186
17	0x3d593bb6	0.05303546
18	0x3e9f2b00	0.31087494
19	0x3d13e5d8	0.036107868
20	0xbe71158e	-0.23543379
21	0x3eceac3b	0.40365776
22	0x3de3191a	0.11088772
23	0x3d097497	0.033558454
24	0x3e4c1ee3	0.19933657
25	0xbdb32b22	-0.08748461
26	0x3dfce029	0.12347443
27	0xbe088b02	-0.13334277
28	0x3cc5b7fe	0.024135586
29	0x3c9107d9	0.017703937
30	0x3cc44dca	0.023962874
31	0x3d70a20f	0.0587483
32	0x3e0bf87d	0.1366901
33	0xbe0b8978	-0.13626659
34	0x3937b4b6	0.0001751956
35	0x3d151aa9	0.03640238
36	0x3e80a87c	0.25128543
37	0x3e52e7ca	0.20596233
38	0x3e1dae51	0.15398528
39	0x3e945b0c	0.28975713
40	0x3e4a6311	0.19764353
41	0x3e05a521	0.13051273
42	0x3e484189	0.1955625
43	0xbd81e52e	-0.06342541
44	0xbeb24a22	-0.34822184
45	0x3df3c6cc	0.11903152
46	0xbcefd742	-0.029277448
47	0xbd9a7266	-0.07541351
48	0x3ec917d3	0.3927599
49	0xbbfc7831	-0.0077047576
50	0xbe235eee	-0.15954182
51	0xbd72c307	-0.059268024
52	0x3e23adf5	0.15984328
53	0xbe6fc098	-0.23413312
54	0x3db5a875	0.08870021
55	0x3da17e92	0.078854695
56	0x3d9c993e	0.07646416
57	0xbeabdd10	-0.33567095
58	0xbe1b6f8e	-0.15179273
59	0xbc0f6bfc	-0.008753773
60	0x3e3144da	0.17311421
61	0xbdc8bcb3	-0.098016165
62	0xbe6228bd	-0.22085853
63	0xbcc66686	-0.024218809
64	0xbdfa954d	-0.12235508
65	0x3db356d4	0.087567955
66	0x3e0e5a2b	0.13901584
67	0x3e3f591b	0.18686335
68	0x3e4fc107	0.20288478
69	0x3d582693	0.052771162
70	0xbdb649e6	-0.08900814
71	0x3da17444	0.07883504
72	0xbe287178	-0.16449535
73	0x3d1760c5	0.03695752
74	0xbde9bcc1	-0.11412955
75	0x3cd71b42	0.026258115
76	0xbddf6380	-0.1090765
77	0x3e57dcc3	0.21080308
78	0x3dab56bd	0.083661534
79	0xbe06d4f7	-0.13167177
80	0x3dbca988	0.09212023
81	0xbdc8d3ed	-0.09806047
82	0xbccea8f3	-0.025227046
83	0xbe518d15	-0.20463975
84	0xbe3653c5	-0.17805393
85	0x3dea6cbf	0.11446523
86	0x3e86c329	0.2632077
87	0x3d9b814f	0.07593023
88	0x3d451c0a	0.048122443
89	0x3e46afb7	0.19402967
90	0x3dd3550a	0.10318954
91	0x3d830666	0.06397705
92	0x3da0ad9e	0.07845615
93	0xbbcc11df	-0.0062277163
94	0x3e30c981	0.17264368
95	0xbd1d297c	-0.03836964
96	0x3e2987f2	0.16555765
97	0x3e5c4837	0.21511923
98	0x3dc21a32	0.094776526
99	0xbd040740	-0.032233477
100	0xbd442542	-0.047887094
101	0x3e0cc0ce	0.13745424
102	0xbd5ae772	-0.05344338
103	0x3e0c2455	0.13685735
104	0x3da204e8	0.07911092
105	0xbe00aa9a	-0.1256508
106	0x3cfc8402	0.030824665
107	0x3dcba391	0.09943307
108	0x3d89e5ff	0.067333214
109	0x3d424ed0	0.047438443
110	0x3bf20269	0.007385541
111	0x3e05f7cc	0.13082808
112	0x3e04fb7f	0.12986563
113	0xbe6ca4fd	-0.23109813
114	0x3df78fa9	0.12087948
115	0xbda40dd3	-0.08010449
116	0x3ccb14c5	0.024790177
117	0x3d2d5dd1	0.0423258
118	0x3c53a931	0.012918756
119	0x3e23680c	0.1595766
120	0xbe994d32	-0.29941708
121	0xbe8f9da7	-0.28049967
122	0xbca73f2b	-0.020415863
123	0x3e6e11bf	0.23248957
124	0xbeb1d964	-0.34736168
125	0x3d7e5a0f	0.062097605
126	0x3e04ed7d	0.1298122
127	0x3d89b091	0.067231305
128	0xbe6d2504	-0.23158652
129	0xbe1076a4	-0.14107758
130	0x3d8b8d38	0.06814045
131	0x3cb32939	0.021870242
132	0x3e9895ba	0.29801732
133	0x3e2f73f6	0.1713408
134	0x3de544c2	0.11194755
135	0x3dfa6470	0.12226188
136	0x3d174294	0.03692873
137	0x3e683b91	0.22678973
138	0x3c926c85	0.017874012
139	0x3df678fe	0.12034796
140	0x3d08c20c	0.033388183
141	0x3da90560	0.08252978
142	0x3e0fb6f4	0.14034635
143	0x3e090bca	0.13383403
144	0x3e57fc30	0.21092296
145	0x3dfefaf0	0.12450206
146	0xbd1763ef	-0.03696054
147	0x3cb4fab3	0.022092199
148	0xbd2e368f	-0.0425325
149	0x3e92422b	0.28566107
150	0x3e03d6eb	0.12874953
151	0xbc27c9e7	-0.010241008
152	0xbd136801	-0.035987858
153	0x3c9d1def	0.019179313
154	0x3eceb281	0.40370563
155	0x3d30123e	0.042986147
156	0xbeac7ae4	-0.33687508
157	0x3ebc2674	0.36748087
158	0x3e34a1e0	0.17639875
159	0x3ea0bdda	0.31394845
160	0xbc04c8ba	-0.008104498
161	0x3e301edc	0.17199272
162	0x3d0b144a	0.033954896
163	0x3e51071c	0.20412868
164	0x3de52ca5	0.11190156
165	0x3d217ebe	0.03942751
166	0x3c33acb5	0.0109664695
167	0xbc326f38	-0.010890774
168	0x3d08e350	0.033419907
169	0xbe64c1b7	-0.22339521
170	0x3ddd068a	0.10792263
171	0x3bcfa7e6	0.0063371537
172	0x3d3f4442	0.046695955
173	0x3e8de3b4	0.27712786
174	0x3c362d1c	0.011119153
175	0x3de97e84	0.11401084
176	0xbd599df8	-0.053129166
177	0xbe2116e1	-0.15731384
178	0xbe2dfbe9	-0.16990627
179	0xbe7a184c	-0.24423331
180	0x3da1f54c	0.07908115
181	0xbdf812ad	-0.12112937
182	0x3de1f72b	0.11033472
183	0x3bb8af91	0.0056361635
184	0x3d4f9862	0.050682433
185	0xbb830f33	-0.0039996146
186	0xbd61a02d	-0.055084396
187	0xbcbc318a	-0.02297284
188	0xbe06158e	-0.1309416
189	0xbdf22d5c	-0.11825058
190	0xbd0a1a5b	-0.03371654
191	0xbd48b951	-0.049004856
192	0x3e38b04f	0.18036006
193	0xbec576de	-0.3856725
194	0x3d7659ac	0.06014411
195	0xbd8f90e1	-0.07010055
196	0x3eab67b8	0.3347757
197	0x3c745479	0.014912718
198	0x3de05d72	0.10955323
199	0xbd5c431e	-0.053774945
200	0xbd7c3f42	-0.061583765
201	0xbe42c9ec	-0.1902234
202	0x3ba5e78e	0.005063004
203	0x3e7bea87	0.24601184
204	0xbe264e60	-0.16240835
205	0x3e2b284c	0.16714591
206	0x3d7b2fae	0.061324768
207	0xbda8e074	-0.08245936
208	0xbd8bf858	-0.06834477
209	0x3e01f99c	0.12692875
210	0x3e9be96a	0.30451518
211	0xbe9bc025	-0.30420032
212	0x3e52cdc4	0.20586306
213	0xbd437582	-0.047719486
214	0x3d67d338	0.05659792
215	0xbdc0be11	-0.09411252
216	0xbe6a4eed	-0.2288167
217	0x3c13bfd3	0.009017902
218	0x3e80e2be	0.2517299
219	0xbd24bbf8	-0.040218323
220	0x3da65d32	0.08123244
221	0xbdc6ad8c	-0.0970107
222	0x3d79ca22	0.060983784
223	0xbd743561	-0.05962122
224	0x3d9adfc7	0.075622134
225	0x3dbd2d0d	0.092371084
226	0xbe427c69	-0.18992771
227	0xbcd22768	-0.025653556
228	0xbdb5e15f	-0.08880877
229	0xbe962f22	-0.29332834
230	0xbd5bf904	-0.053704277
231	0xbe55ff71	-0.20898224
232	0x3c830a24	0.015996046
233	0x3d3dc4bc	0.0463302
234	0xbd847577	-0.06467717
235	0x3c9fe45a	0.019518066
236	0x3e80bb29	0.25142792
237	0xbeaf95c7	-0.3429396
238	0xbcbc9496	-0.02302007
239	0x3e0a73d4	0.13520747
240	0x3e2c773e	0.16842362
241	0x3d09ba2f	0.033624824
242	0x3cdb6389	0.02678086
243	0x3d3f8e02	0.04676629
244	0xbe5d9c1b	-0.21641581
245	0xbce38f03	-0.027778154
246	0x3e735ff8	0.23767078
247	0x3e2eaebb	0.17058842
248	0xbc006550	-0.007836655
249	0xbe298767	-0.16555558
250	0x3d503bc1	0.050838236
251	0x3e42ff56	0.19042715
252	0xbe2d94f9	-0.1695136
253	0xbdbe9be8	-0.093070805
254	0x3dcf7390	0.10129464
255	0xbe16476a	-0.1467568
