AI/ml-agents-release_20/results-force/bird/FlappyBird/FlappyBird-499949.pt (torch, 346663 bytes, 21 tensors)

network_body._body_endoder.seq_layers.0.weight f4 [256, 52]
0	0x3d6df1dd	0.058091987
1	0xbdfc91db	-0.12332507
2	0xbe22b35c	-0.15888733
3	0x3d5e25ac	0.054235145
4	0x3d9c7873	0.07640161
5	0xbe5caeee	-0.21551105
6	0xbe81fc39	-0.25387743
7	0xbdb38e05	-0.087673225
8	0x3d11f6ca	0.035635747
9	0xbe8a35d7	-0.26994202
10	0x3db04a77	0.08607953
11	0xbe956c82	-0.29184347
12	0x3e290b63	0.1650825
13	0xbed5bf22	-0.41747385
14	0x3e4dfc81	0.20115854
15	0x3e1ba979	0.15201367
16	0x3d2a23f2	0.041538186
17	0x3d593bb6	0.05303546
18	0x3e9f2b00	0.31087494
19	0x3d13e5d8	0.036107868
20	0xbe71158e	-0.23543379
21	0x3eceac3b	0.40365776
22	0x3de3191a	0.11088772
23	0x3d097497	0.033558454
24	0x3e4c1ee3	0.19933657
25	0xbdb32b22	-0.08748461
26	0x3dfce029	0.12347443
27	0xbe088b02	-0.13334277
28	0x3cc5b7fe	0.024135586
29	0x3c9107d9	0.017703937
30	0x3cc44dca	0.023962874
31	0x3d70a20f	0.0587483
32	0x3e0bf87d	0.1366901
33	0xbe0b8978	-0.13626659
34	0x3937b4b6	0.0001751956
35	0x3d151aa9	0.03640238
36	0x3e80a87c	0.25128543
37	0x3e52e7ca	0.20596233
38	0x3e1dae51	0.15398528
39	0x3e945b0c	0.28975713
40	0x3e4a6311	0.19764353
41	0x3e05a521	0.13051273
42	0x3e484189	0.1955625
43	0xbd81e52e	-0.06342541
44	0xbeb24a22	-0.34822184
45	0x3df3c6cc	0.11903152
46	0xbcefd742	-0.029277448
47	0xbd9a7266	-0.07541351
48	0x3ec917d3	0.3927599
49	0xbbfc7831	-0.0077047576
50	0xbe235eee	-0.15954182
51	0xbd72c307	-0.059268024
52	0x3e23adf5	0.15984328
53	0xbe6fc098	-0.23413312
54	0x3db5a875	0.08870021
55	0x3da17e92	0.078854695
56	0x3d9c993e	0.07646416
57	0xbeabdd10	-0.33567095
58	0xbe1b6f8e	-0.15179273
59	0xbc0f6bfc	-0.008753773
60	0x3e3144da	0.17311421
61	0xbdc8bcb3	-0.098016165
62	0xbe6228bd	-0.22085853
63	0xbcc66686	-0.024218809
64	0xbdfa954d	-0.12235508
65	0x3db356d4	0.087567955
66	0x3e0e5a2b	0.13901584
67	0x3e3f591b	0.18686335
68	0x3e4fc107	0.20288478
69	0x3d582693	0.052771162
70	0xbdb649e6	-0.08900814
71	0x3da17444	0.07883504
72	0xbe287178	-0.16449535
73	0x3d1760c5	0.03695752
74	0xbde9bcc1	-0.11412955
75	0x3cd71b42	0.026258115
76	0xbddf6380	-0.1090765
77	0x3e57dcc3	0.21080308
78	0x3dab56bd	0.083661534
79	0xbe06d4f7	-0.13167177
80	0x3dbca988	0.09212023
81	0xbdc8d3ed	-0.09806047
82	0xbccea8f3	-0.025227046
83	0xbe518d15	-0.20463975
84	0xbe3653c5	-0.17805393
85	0x3dea6cbf	0.11446523
86	0x3e86c329	0.2632077
87	0x3d9b814f	0.07593023
88	0x3d451c0a	0.048122443
89	0x3e46afb7	0.19402967
90	0x3dd3550a	0.10318954
91	0x3d830666	0.06397705
92	0x3da0ad9e	0.07845615
93	0xbbcc11df	-0.0062277163
94	0x3e30c981	0.17264368
95	0xbd1d297c	-0.03836964
96	0x3e2987f2	0.16555765
97	0x3e5c4837	0.21511923
98	0x3dc21a32	0.094776526
99	0xbd040740	-0.032233477
100	0xbd442542	-0.047887094
101	0x3e0cc0ce	0.13745424
102	0xbd5ae772	-0.05344338
103	0x3e0c2455	0.13685735
104	0x3da204e8	0.07911092
105	0xbe00aa9a	-0.1256508
106	0x3cfc8402	0.030824665
107	0x3dcba391	0.09943307
108	0x3d89e5ff	0.067333214
109	0x3d424ed0	0.047438443
110	0x3bf20269	0.007385541
111	0x3e05f7cc	0.13082808
112	0x3e04fb7f	0.12986563
113	0xbe6ca4fd	-0.23109813
114	0x3df78fa9	0.12087948
115	0xbda40dd3	-0.08010449
116	0x3ccb14c5	0.024790177
117	0x3d2d5dd1	0.0423258
118	0x3c53a931	0.012918756
119	0x3e23680c	0.1595766
120	0xbe994d32	-0.29941708
121	0xbe8f9da7	-0.28049967
122	0xbca73f2b	-0.020415863
123	0x3e6e11bf	0.23248957
124	0xbeb1d964	-0.34736168
125	0x3d7e5a0f	0.062097605
126	0x3e04ed7d	0.1298122
127	0x3d89b091	0.067231305
128	0xbe6d2504	-0.23158652
129	0xbe1076a4	-0.14107758
130	0x3d8b8d38	0.06814045
131	0x3cb32939	0.021870242
132	0x3e9895ba	0.29801732
133	0x3e2f73f6	0.1713408
134	0x3de544c2	0.11194755
135	0x3dfa6470	0.12226188
136	0x3d174294	0.03692873
137	0x3e683b91	0.22678973
138	0x3c926c85	0.017874012
139	0x3df678fe	0.12034796
140	0x3d08c20c	0.033388183
141	0x3da90560	0.08252978
142	0x3e0fb6f4	0.14034635
143	0x3e090bca	0.13383403
144	0x3e57fc30	0.21092296
145	0x3dfefaf0	0.12450206
146	0xbd1763ef	-0.03696054
147	0x3cb4fab3	0.022092199
148	0xbd2e368f	-0.0425325
149	0x3e92422b	0.28566107
150	0x3e03d6eb	0.12874953
151	0xbc27c9e7	-0.010241008
152	0xbd136801	-0.035987858
153	0x3c9d1def	0.019179313
154	0x3eceb281	0.40370563
155	0x3d30123e	0.042986147
156	0xbeac7ae4	-0.33687508
157	0x3ebc2674	0.36748087
158	0x3e34a1e0	0.17639875
159	0x3ea0bdda	0.31394845
160	0xbc04c8ba	-0.008104498
161	0x3e301edc	0.17199272
162	0x3d0b144a	0.033954896
163	0x3e51071c	0.20412868
164	0x3de52ca5	0.11190156
165	0x3d217ebe	0.03942751
166	0x3c33acb5	0.0109664695
167	0xbc326f38	-0.010890774
168	0x3d08e350	0.033419907
169	0xbe64c1b7	-0.22339521
170	0x3ddd068a	0.10792263
171	0x3bcfa7e6	0.0063371537
172	0x3d3f4442	0.046695955
173	0x3e8de3b4	0.27712786
174	0x3c362d1c	0.011119153
175	0x3de97e84	0.11401084
176	0xbd599df8	-0.053129166
177	0xbe2116e1	-0.15731384
178	0xbe2dfbe9	-0.16990627
179	0xbe7a184c	-0.24423331
180	0x3da1f54c	0.07908115
181	0xbdf812ad	-0.12112937
182	0x3de1f72b	0.11033472
183	0x3bb8af91	0.0056361635
184	0x3d4f9862	0.050682433
185	0xbb830f33	-0.0039996146
186	0xbd61a02d	-0.055084396
187	0xbcbc318a	-0.02297284
188	0xbe06158e	-0.1309416
189	0xbdf22d5c	-0.11825058
190	0xbd0a1a5b	-0.03371654
191	0xbd48b951	-0.049004856
192	0x3e38b04f	0.18036006
193	0xbec576de	-0.3856725
194	0x3d7659ac	0.06014411
195	0xbd8f90e1	-0.07010055
196	0x3eab67b8	0.3347757
197	0x3c745479	0.014912718
198	0x3de05d72	0.10955323
199	0xbd5c431e	-0.053774945
200	0xbd7c3f42	-0.061583765
201	0xbe42c9ec	-0.1902234
202	0x3ba5e78e	0.005063004
203	0x3e7bea87	0.24601184
204	0xbe264e60	-0.16240835
205	0x3e2b284c	0.16714591
206	0x3d7b2fae	0.061324768
207	0xbda8e074	-0.08245936
208	0xbd8bf858	-0.06834477
209	0x3e01f99c	0.12692875
210	0x3e9be96a	0.30451518
211	0xbe9bc025	-0.30420032
212	0x3e52cdc4	0.20586306
213	0xbd437582	-0.047719486
214	0x3d67d338	0.05659792
215	0xbdc0be11	-0.09411252
216	0xbe6a4eed	-0.2288167
217	0x3c13bfd3	0.009017902
218	0x3e80e2be	0.2517299
219	0xbd24bbf8	-0.040218323
220	0x3da65d32	0.08123244
221	0xbdc6ad8c	-0.0970107
222	0x3d79ca22	0.060983784
223	0xbd743561	-0.05962122
224	0x3d9adfc7	0.075622134
225	0x3dbd2d0d	0.092371084
226	0xbe427c69	-0.18992771
227	0xbcd22768	-0.025653556
228	0xbdb5e15f	-0.08880877
229	0xbe962f22	-0.29332834
230	0xbd5bf904	-0.053704277
231	0xbe55ff71	-0.20898224
232	0x3c830a24	0.015996046
233	0x3d3dc4bc	0.0463302
234	0xbd847577	-0.06467717
235	0x3c9fe45a	0.019518066
236	0x3e80bb29	0.25142792
237	0xbeaf95c7	-0.3429396
238	0xbcbc9496	-0.02302007
239	0x3e0a73d4	0.13520747
240	0x3e2c773e	0.16842362
241	0x3d09ba2f	0.033624824
242	0x3cdb6389	0.02678086
243	0x3d3f8e02	0.04676629
244	0xbe5d9c1b	-0.21641581
245	0xbce38f03	-0.027778154
246	0x3e735ff8	0.23767078
247	0x3e2eaebb	0.17058842
248	0xbc006550	-0.007836655
249	0xbe298767	-0.16555558
250	0x3d503bc1	0.050838236
251	0x3e42ff56	0.19042715
252	0xbe2d94f9	-0.1695136
253	0xbdbe9be8	-0.093070805
254	0x3dcf7390	0.10129464
255	0xbe16476a	-0.1467568

network_body._body_endoder.seq_layers.0.bias f4 [256]
0	0x3d26e2ea	0.040743746
1	0x3d11f865	0.035637278
2	0x3c074c5f	0.008257954
3	0x3d5acf3f	0.0534203
4	0xbc0ba655	-0.008523543
5	0xbb22d312	-0.0024845046
6	0x3cb323e4	0.0218677
7	0x3c9f9cad	0.019483889
8	0x3d3ee939	0.046609137
9	0x3c8972bb	0.01677834
10	0x3cbd9d26	0.023146223
11	0x3d28c9fb	0.04120825
12	0x3d4855d9	0.048909996
13	0x3d247727	0.040152695
14	0x3d012202	0.031526573
15	0x3cd61c11	0.02613643
16	0x3c949954	0.018139519
17	0x3d1b1bed	0.03786843
18	0x3d8d5bc9	0.06902272
19	0x3bbc2d6e	0.0057427203
20	0x3cfe5983	0.031048542
21	0x3ca05b00	0.019574642
22	0x3cd7a6f3	0.026324725
23	0xbc19d1e3	-0.00938842
24	0x3cfdfe46	0.031005036
25	0x3d2e48c7	0.042549875
26	0x3dda8fce	0.1067196
27	0x3c829de5	0.01594443
28	0x3c8045a9	0.015658217
29	0x3cb3a0b3	0.021927213
30	0x3d00b0ca	0.0314186
31	0x3d1d6dbd	0.038434733
32	0x3d125397	0.03572425
33	0xbc02db0c	-0.007986795
34	0x3d7d652b	0.06186406
35	0x3c8510a7	0.016243292
36	0x3cdae7cb	0.026721856
37	0x36c7222b	5.93464e-06
38	0x3d397e24	0.045286313
39	0xbb945933	-0.004527235
40	0x3ba66d3d	0.00507894
41	0x3cec6de6	0.028860997
42	0x3cee6add	0.02910369
43	0xbbdb77e5	-0.006697642
44	0x3d1f825c	0.03894268
45	0x3d8573d9	0.06516237
46	0x3d4632eb	0.048388403
47	0x3d305870	0.04305309
48	0x3d41dbfe	0.04732894
49	0x3d2c1ee4	0.042021647
50	0x3d023746	0.031790994
51	0xbbb8b0ea	-0.005636324
52	0x3d8dad15	0.069177784
53	0x3c9b450e	0.018953826
54	0x3cb26618	0.021777198
55	0x3d2b9070	0.041885793
56	0x3d4d41b6	0.050111495
57	0x3d7323d2	0.059360333
58	0x3c7a8c16	0.015292188
59	0x3cbc5ee1	0.02299446
60	0x3ce9422d	0.028473938
61	0xbcc0b36c	-0.023523055
62	0xbbcac4da	-0.0061880173
63	0x3c05fba8	0.008177675
64	0x3d2a1d3f	0.041531797
65	0xbba8de5c	-0.0051534604
66	0x3aa820e9	0.0012827191
67	0x3d78c795	0.06073721
68	0x3cf1d6f1	0.029521437
69	0x3ce66426	0.028123926
70	0xbc4c0cf3	-0.012454259
71	0x3d4f3258	0.05058512
72	0xbc726ab7	-0.014795951
73	0x3d8c65b5	0.068553366
74	0x3d0b55c9	0.034017358
75	0x3d056d0d	0.032574702
76	0x3d3a6db6	0.045514785
77	0x3c9015fc	0.017588608
78	0x3cbe3a97	0.023221297
79	0x3be4be12	0.006980666
80	0xbd0329bd	-0.032022227
81	0x3d036d59	0.032086704
82	0x3cc2f6bd	0.023799295
83	0x3c346ac0	0.011011779
84	0x3c6c42f0	0.014420256
85	0x3d4dab64	0.05021228
86	0x3ba8159a	0.005129528
87	0x3d00c8fd	0.031441677
88	0x3d3839b1	0.044976894
89	0x3d5a3d4c	0.053281114
90	0x3d2d93f2	0.04237742
91	0x3c3009de	0.01074454
92	0x3d483d2e	0.04888647
93	0x3baefd99	0.00534029
94	0x3d73d957	0.059533443
95	0x3d873609	0.06602103
96	0x3ccb73bd	0.024835462
97	0x3cc009dd	0.023442203
98	0xbbbea3c2	-0.0058178613
99	0x3d45000f	0.04809576
100	0x3c20c888	0.009813435
101	0xbc25aa36	-0.010111382
102	0xbd21da98	-0.039515108
103	0x3d245b5d	0.040126193
104	0x3d4af3e8	0.049549013
105	0xbbafb98e	-0.005362696
106	0x3c8c3338	0.017114267
107	0x3d3ab3d4	0.045581654
108	0x3d1fcd81	0.039014343
109	0x3c9d213f	0.019180892
110	0x3cd869a4	0.02641756
111	0x3c330730	0.010927007
112	0x3d0e9632	0.034811206
113	0x3d43a8b2	0.047768302
114	0x3ad6398b	0.0016344053
115	0x3d56119e	0.052262895
116	0x3c734f62	0.014850469
117	0x3ca40225	0.020020554
118	0xbc029b6f	-0.007971629
119	0xbc508ab1	-0.012728379
120	0xba82c14a	-0.0009975818
121	0x3c9199a2	0.017773453
122	0x3c9d0129	0.019165592
123	0xbc816112	-0.015793357
124	0x3d171422	0.036884435
125	0x3d82bf26	0.06384115
126	0x3cf5718d	0.029961372
127	0x3d74f87a	0.05980728
128	0x3d1b34c1	0.037892107
129	0x3d18d8c7	0.03731611
130	0x3cab5f3e	0.020919438
131	0x3d0d4331	0.034487907
132	0x3d350477	0.04419371
133	0x3cbbcffb	0.022926321
134	0x3c8c71d8	0.017144129
135	0x3d71d1a9	0.059037838
136	0x3d9132ea	0.07089789
137	0x3ccaeb66	0.02477045
138	0x3d149a45	0.036279935
139	0x3d1adb06	0.037806533
140	0x3d21b687	0.039480712
141	0x3d0eb3b6	0.034839354
142	0x3c81c273	0.01583979
143	0x3d10376a	0.035209097
144	0x3b236764	0.0024933452
145	0x3d40b7cc	0.047050282
146	0x3d525b0a	0.051356353
147	0xbca046ef	-0.019565074
148	0x3d2068bf	0.039162394
149	0x3cb6d996	0.02232055
150	0xbb88defc	-0.0041769724
151	0x3d3cb690	0.046072543
152	0x3ca30638	0.019900426
153	0x3d2251b6	0.039628707
154	0x3c721023	0.014774355
155	0x3c9710a3	0.01844055
156	0x3d346635	0.044042785
157	0x3d71f697	0.059073057
158	0x3c02e4d3	0.007989126
159	0x3c829ef0	0.015944928
160	0x3c809716	0.015697043
161	0x3d33ddd7	0.043912735
162	0x3d513eaf	0.05108517
163	0x3d425e00	0.047452927
164	0x3d462bca	0.048381604
165	0x3d8426db	0.064527236
166	0x3c8286e8	0.015933469
167	0x3d8198a8	0.06327945
168	0x3cd10db5	0.025519231
169	0x3d91aa80	0.071125984
170	0x3d1ae6e5	0.037817854
171	0x3af01c9c	0.0018319073
172	0x3c9f43b1	0.019441457
173	0x3c3c4c5e	0.011492817
174	0x3d5ed934	0.05440636
175	0x3d2101af	0.039308246
176	0x3d06e65d	0.032934535
177	0x3cf4fd43	0.02990592
178	0x3d65d612	0.056112356
179	0x3ca2787d	0.019832844
180	0x3d0b52b6	0.034014426
181	0x3c8a873c	0.016910188
182	0xbc69bb35	-0.014265825
183	0x3d0bd937	0.0341427
184	0xbbd61001	-0.0065326695
185	0x3c9a2d21	0.018820347
186	0x3da4a179	0.08038611
187	0x3d09b55b	0.03362022
188	0x3ccb237c	0.024797194
189	0xbcf1fcce	-0.029539492
190	0x3c32b486	0.010907298
191	0x3ccadf87	0.02476479
192	0x3ceea3fe	0.029130932
193	0x3ca01680	0.019541979
194	0x3c026b2d	0.007960123
195	0x3cea367a	0.02859043
196	0x3d39b8ad	0.045342136
197	0x3cd37c5a	0.025816131
198	0x3c64625b	0.013939465
199	0x3d559d89	0.05215219
200	0x3d21138d	0.039325286
201	0x3cae2fca	0.021263022
202	0x3c4ec492	0.012620108
203	0x3d50237f	0.0508151
204	0x3d519a2f	0.05117243
205	0x3db6715c	0.0890834
206	0x3cb5c1d0	0.022187144
207	0x3d6b1d32	0.05740089
208	0x3cc460e4	0.023971982
209	0xbc84c1fb	-0.016205778
210	0x3b7a156e	0.0038159746
211	0xbd21b4c1	-0.03947902
212	0xbc750b98	-0.014956377
213	0x3d6a72cc	0.057238385
214	0x3c94e5c6	0.01817597
215	0x3d147581	0.036244873
216	0x3d1cda87	0.03829434
217	0x3d19d8d5	0.037560303
218	0x3ca5d796	0.020244401
219	0x3de5082f	0.111832015
220	0x3c591602	0.013249876
221	0x3d128a5a	0.035776474
222	0x3d655180	0.055985928
223	0x3bb7d440	0.005610019
224	0x3d371a6c	0.044702932
225	0x3cffa3f5	0.03120611
226	0x3d324758	0.04352507
227	0x3c8ddf1f	0.017318306
228	0x3cea98b4	0.028637268
229	0x3ce6ff74	0.028197981
230	0x3ccdb593	0.025110995
231	0x3d01cc96	0.03168925
232	0x3cc25311	0.02372125
233	0x3d2c816a	0.042115606
234	0x3d39dbf6	0.045375787
235	0x3cef783f	0.029232142
236	0x3b5833be	0.0032989825
237	0x3c36b236	0.011150887
238	0x3cc7e120	0.02439934
239	0x3d40ebef	0.047100004
240	0x3c661f9a	0.01404562
241	0x3c892ebc	0.016745917
242	0xbd283ed8	-0.041075557
243	0x3d1651ce	0.03669911
244	0x3c5645c8	0.013078161
245	0x3c965af5	0.018353919
246	0x3c4ac343	0.012375656
247	0x3d1c0f01	0.038100246
248	0xba403deb	-0.0007333445
249	0x3cff020d	0.031128908
250	0x3bf6a2a4	0.0075267125
251	0x3ccd7dca	0.025084395
252	0x3c930134	0.01794491
253	0x3b8979d3	0.004195431
254	0x3cec6d38	0.028860673
255	0x3d00cacb	0.0314434

action_model._discrete_distribution.branches.0.weight f4 [2, 256]
0	0x3d6c6595	0.057714064
1	0x3d642e1d	0.05570804
2	0x3c5a8fac	0.013339918
3	0xbda36bf2	-0.07979573
4	0xbc09766e	-0.008390052
5	0xbd28c788	-0.041205913
6	0xbd7a8d2a	-0.06116978
7	0xbdbe40f1	-0.0928973
8	0x3d6859e9	0.05672637
9	0x3c96240a	0.018327732
10	0x3cf9a50a	0.030474205
11	0x3d5960e3	0.053070914
12	0xbdebc1a6	-0.11511545
13	0x3d826916	0.063677
14	0xbde12188	-0.10992724
15	0xbd820071	-0.063477404
16	0x3cb5e27a	0.022202719
17	0x3d4df351	0.050280873
18	0x3de6bfef	0.11267077
19	0xbd2c977c	-0.042136654
20	0xbd72e903	-0.05930425
21	0x3ca9cad8	0.020726606
22	0xbdce0fc1	-0.100615986
23	0xbc915dcc	-0.017744921
24	0x3d46edb2	0.048566528
25	0x3d65bdf9	0.056089375
26	0xbde90335	-0.11377565
27	0x3cbcb788	0.023036733
28	0x3c41060b	0.011781226
29	0xbd74cda9	-0.059766445
30	0x3d2e1670	0.042501867
31	0x3dab3bdc	0.08361027
32	0x3d1b8ad3	0.03797419
33	0x3b779a24	0.0037781084
34	0xbd66cb73	-0.056346368
35	0xbda77de2	-0.08178307
36	0x3d60f8d6	0.05492481
37	0xbd435cab	-0.047695797
38	0x3da4e363	0.08051183
39	0xbc8fc996	-0.017552178
40	0x3c8b9a6f	0.017041413
41	0xbe0834a7	-0.13301335
42	0xbd5b9901	-0.053612713
43	0xbd28e452	-0.04123337
44	0xbdb9c623	-0.09070995
45	0x3de5a5cf	0.11213266
46	0x3d7668c1	0.060158495
47	0x3d938ed8	0.0720498
48	0x3da8b861	0.082382925
49	0x3d7beadb	0.061503273
50	0x3cd251f8	0.025673851
51	0xbbe39f45	-0.0069464766
52	0x3d52adfd	0.05143546
53	0x3cb4d762	0.022075359
54	0x3d00d1ea	0.03145019
55	0x3d6f55c0	0.058431387
56	0x3cee554c	0.029093407
57	0xbde9f29f	-0.114232294
58	0xbd81c4cb	-0.063363634
59	0xbdbb5a18	-0.091480434
60	0x3d5045fc	0.050847992
61	0x3bacea4d	0.0052769543
62	0xbc39351b	-0.011304165
63	0xbd3e76c1	-0.04649997
64	0x3d7c2d7c	0.061566815
65	0xbd2bb9f9	-0.041925404
66	0xbd8d04f6	-0.06885712
67	0xbdb09977	-0.08623021
68	0xbd7a1cee	-0.061062746
69	0x3d78988f	0.060692366
70	0x3b3fd9ae	0.0029274034
71	0xbdf3ad44	-0.11898282
72	0xbd15f9d7	-0.03661522
73	0xbdc7a751	-0.0974871
74	0x3d3cb55c	0.046071395
75	0x3d759ae7	0.05996218
76	0x3d9a01ef	0.075199
77	0xbe169fd8	-0.14709413
78	0x3d094497	0.033512678
79	0x3c9eca45	0.019383559
80	0xbcc03d60	-0.023466766
81	0x3d3d735a	0.046252586
82	0x3d01e088	0.03170827
83	0xbd2975ac	-0.041371986
84	0x3c1ca2db	0.009560312
85	0xbd5167bc	-0.05112432
86	0xbd088e92	-0.03333909
87	0xbd39ee5c	-0.045393333
88	0xbddccd08	-0.10781294
89	0xbdf17f8a	-0.11791904
90	0x3da43e47	0.08019691
91	0x3ccf28a6	0.025287937
92	0xbd79c813	-0.06098182
93	0x3c16a814	0.009195346
94	0x3dd8f95d	0.10594437
95	0xbd9fa273	-0.077946566
96	0x3d1eeacf	0.03879815
97	0x3ce405c8	0.027834788
98	0xbc9191a1	-0.017769637
99	0xbd8ef2a4	-0.06979874
100	0xbdb0002f	-0.08593785
101	0xbd1fe035	-0.03903218
102	0xbcbb5c48	-0.022871152
103	0x3d5bdae4	0.053675547
104	0x3daf139c	0.08548662
105	0xbd235064	-0.03987159
106	0x3cf30e4e	0.029669907
107	0x3d98b8c5	0.07457117
108	0xbe04f988	-0.12985814
109	0xbd571c26	-0.05251708
110	0x3ce8dd02	0.028425697
111	0x3c97f1de	0.018547948
112	0x3d808f0e	0.062772855
113	0x3d82555f	0.063639395
114	0xbcf1a704	-0.029498585
115	0x3dd1f8a1	0.102525
116	0x3bfd3f12	0.007728466
117	0x3d110300	0.03540325
118	0xbb0b7f7e	-0.0021285708
119	0xbc1f2a78	-0.009714715
120	0xbd77e9ef	-0.06052583
121	0xbd691ded	-0.056913305
122	0x3c29c6fa	0.010362381
123	0xbd3f8ac3	-0.046763193
124	0x3d6085d8	0.054815143
125	0x3dd77748	0.10520798
126	0xbcefd9c5	-0.029278645
127	0x3da9fb9f	0.08299946
128	0xbdaad37e	-0.0834112
129	0xbcfac69e	-0.030612286
130	0x3cae81cf	0.021302132
131	0x3d646efe	0.055769913
132	0x3d72cd2e	0.059277706
133	0xbdac0665	-0.08399657
134	0xbd5a2217	-0.053255167
135	0xbd09734e	-0.03355723
136	0xbd91ca75	-0.07118694
137	0xbd185729	-0.037192497
138	0xbd048963	-0.032357585
139	0x3d82ab18	0.0638029
140	0x3d86fc8f	0.065911405
141	0xbd1e938c	-0.03871493
142	0xbd40b6d3	-0.047049355
143	0xbde7aebb	-0.11312624
144	0xbd43c57b	-0.047795754
145	0x3da9b89b	0.08287164
146	0x3d5fcb4a	0.05463723
147	0xbc4fbac7	-0.0126788085
148	0x3d3d5493	0.046223234
149	0x3d137b9f	0.036006566
150	0xbc92f794	-0.01794032
151	0xbdd16cbb	-0.10225817
152	0x3cd88ff7	0.026435835
153	0xbd9bb796	-0.076033756
154	0xbd920f5e	-0.07131837
155	0x3cd044b8	0.025423393
156	0xbdaaeb82	-0.08345701
157	0xbdf23044	-0.11825612
158	0xbcedda9f	-0.02903491
159	0x3c711670	0.014714822
160	0xbd333610	-0.04375273
161	0x3d92485d	0.071427085
162	0x3d880cf4	0.066430956
163	0xbd57225a	-0.052522995
164	0x3da18555	0.07886759
165	0x3da70777	0.08155721
166	0x3d116ffe	0.035507195
167	0x3d93ea91	0.07222474
168	0xbdbec4a8	-0.09314853
169	0xbd650be8	-0.055919558
170	0xbdb5d76e	-0.088789806
171	0xbd53453d	-0.051579703
172	0x3d23bd11	0.03997523
173	0xbdda8733	-0.106703185
174	0x3d9e8572	0.077402964
175	0xbd1e7e5d	-0.03869473
176	0x3d091822	0.03347028
177	0xbda0adec	-0.07845673
178	0xbd851e56	-0.06499927
179	0x3ce205c6	0.027590644
180	0xbd29701a	-0.041366674
181	0x3cc040f6	0.023468476
182	0xbc9b5b8a	-0.018964548
183	0xbdcba2ce	-0.09943162
184	0xbcde3423	-0.02712447
185	0x3d074f6a	0.03303472
186	0x3d8106fd	0.06300161
187	0x3d3117d3	0.04323561
188	0xbda11d87	-0.0786696
189	0xbc251713	-0.010076302
190	0xbd1a9df4	-0.037748292
191	0xbda7e586	-0.08198075
192	0xbd8e67dd	-0.06953404
193	0x3d474022	0.048645146
194	0xbd5e65de	-0.054296367
195	0xbddbd4bb	-0.107339345
196	0xbd65feb3	-0.056151103
197	0xbdbb4372	-0.091437235
198	0xbd0dc383	-0.034610283
199	0x3d8b7e4a	0.06811197
200	0x3d5ea6fd	0.05435847
201	0x3d5a6602	0.05331994
202	0x3c7981ae	0.015228672
203	0x3d7e64d3	0.062107872
204	0xbddd44fa	-0.10804172
205	0x3dd002e9	0.10156805
206	0x3d048cab	0.032360714
207	0xbdd31d74	-0.10308352
208	0x3cd45910	0.025921375
209	0xbd119cb7	-0.035549846
210	0xbd96916f	-0.07351958
211	0xbcbbc330	-0.022920221
212	0xbc991b9b	-0.018689921
213	0xbd82b001	-0.06381226
214	0xbd9f831c	-0.07788679
215	0xbda0ed14	-0.07857719
216	0x3d8d3ea2	0.06896712
217	0xbdaa71f8	-0.08322519
218	0x3c86adf1	0.016440364
219	0xbda2b878	-0.07945341
220	0xbdeaa6c0	-0.11457586
221	0x3cf8a4f9	0.030352103
222	0xbdff1741	-0.12455607
223	0x3c601f22	0.013679298
224	0xbd82daf8	-0.06389421
225	0x3d5a949a	0.053364374
226	0xbd1c8ff3	-0.03822322
227	0x3ccab433	0.024744129
228	0x3d25cefa	0.04048059
229	0xbd84e596	-0.064891025
230	0x3ce9d15c	0.028542213
231	0x3d436ade	0.04770934
232	0xbcc30b7c	-0.023809187
233	0x3dabca5c	0.08388206
234	0x3d9a8165	0.07544211
235	0x3d3e5c2d	0.046474624
236	0xbcf33f2d	-0.02969321
237	0x3c861a7c	0.01637005
238	0x3d03fb6b	0.032222193
239	0xbe116048	-0.14196885
240	0xbd16002e	-0.036621265
241	0x3c2f149f	0.010686069
242	0xbbe016c2	-0.0068386504
243	0x3d6fa7a9	0.058509503
244	0xbdb94afd	-0.09047506
245	0x3cec72ea	0.028863389
246	0xbd2012b3	-0.039080333
247	0x3d00d126	0.03144946
248	0xbd01c913	-0.0316859
249	0x3d059c95	0.03262003
250	0xbd095cb0	-0.03353566
251	0xbd8d413e	-0.068972096
252	0xbd653c99	-0.055965994
253	0xbd143d06	-0.03619101
254	0x3d29430d	0.04132371
255	0x3d2a5672	0.041586347

action_model._discrete_distribution.branches.0.bias f4 [2]
0	0x3c77f3f1	0.015133844
1	0xbc77f3ef	-0.015133842

exp_avg f4 [256, 52]
0	0x34f74d5e	4.6063627e-07
1	0x385976df	5.184754e-05
2	0x324ba665	1.1853989e-08
3	0x37f4fa04	2.920349e-05
4	0xb789282e	-1.6350383e-05
5	0x388ddc9d	6.764496e-05
6	0x3589a13a	1.0254219e-06
7	0x36f40ae3	7.273034e-06
8	0x381c8b0b	3.7322792e-05
9	0x37faf8aa	2.9918116e-05
10	0xb77a54b6	-1.49208845e-05
11	0x37f115f5	2.8739663e-05
12	0x39030741	0.00012495836
13	0xb88b4097	-6.640067e-05
14	0xb6d14d06	-6.237652e-06
15	0x37543a63	1.2649779e-05
16	0xb5077360	-5.045931e-07
17	0x3882cdb9	6.237202e-05
18	0xb7202e07	-9.54746e-06
19	0xb8171c69	-3.6027664e-05
20	0x389d5a97	7.503217e-05
21	0xb7bb3658	-2.2317443e-05
22	0xb4d3ebf7	-3.94735e-07
23	0x379cbdb7	1.8684992e-05
24	0x38c6d8f4	9.4817864e-05
25	0xb83033c8	-4.2009895e-05
26	0xb502f92d	-4.879137e-07
27	0xb7fc58ab	-3.008203e-05
28	0x3807d6bf	3.2386506e-05
29	0x37a07950	1.9129977e-05
30	0x3557aa5a	8.0341636e-07
31	0xb6c8e94b	-5.9876234e-06
32	0x36cccf63	6.1038168e-06
33	0x37df2368	2.6600159e-05
34	0x37a48d11	1.9616013e-05
35	0xb764bb38	-1.3633449e-05
36	0x37a92a95	2.0166199e-05
37	0x3806dcda	3.2153774e-05
38	0x80000004	-6e-45
39	0xb810ca50	-3.4520694e-05
40	0x37fdd092	3.0257073e-05
41	0x37b913cc	2.2062937e-05
42	0x186ec18d	3.0858497e-24
43	0xb6ce51f2	-6.148818e-06
44	0x385c6947	5.2550135e-05
45	0xb4770cf3	-2.3008378e-07
46	0x00000004	6e-45
47	0xb7e5935e	-2.736755e-05
48	0x385c6947	5.2550135e-05
49	0xb4770cf3	-2.3008378e-07
50	0x00000004	6e-45
51	0xb7e5935e	-2.736755e-05
52	0xb848258d	-4.7718688e-05
53	0x38674985	5.5143162e-05
54	0x3218b65b	8.889027e-09
55	0x3775201a	1.4610612e-05
56	0xb837426e	-4.3692467e-05
57	0x38638274	5.424251e-05
58	0xb65128e8	-3.1167237e-06
59	0xb68cd398	-4.196958e-06
60	0xb79e3ff4	-1.8864848e-05
61	0x38149847	3.542777e-05
62	0xb7192b1c	-9.129548e-06
63	0x37204e1d	9.55493e-06
64	0x38fc1c55	0.00012021574
65	0xb8dc84bb	-0.000105151405
66	0xb70006c6	-7.630972e-06
67	0xb5aa5c3e	-1.2692833e-06
68	0xb8311d5a	-4.2227424e-05
69	0x38501224	4.960796e-05
70	0x33627d0d	5.273346e-08
71	0xb8446e09	-4.683252e-05
72	0x38685d5a	5.540005e-05
73	0xb84c50dd	-4.87127e-05
74	0x354840d1	7.4600126e-07
75	0x365aca8f	3.2602436e-06
76	0x38b14196	8.452234e-05
77	0xb8a2373f	-7.735052e-05
78	0x348c6fce	2.615838e-07
79	0xb81cbc71	-3.7368798e-05
80	0xb7649d0d	-1.3626425e-05
81	0x37adf900	2.0739157e-05
82	0x34ac1711	3.205428e-07
83	0xb7b7681c	-2.186378e-05
84	0xb6754bc3	-3.6551944e-06
85	0xb691ca8a	-4.3449154e-06
86	0x37817704	1.543342e-05
87	0xb7bcde09	-2.251474e-05
88	0xb7f5ecfe	-2.9316634e-05
89	0x381a23f8	3.674996e-05
90	0x80000004	-6e-45
91	0xb82ecce0	-4.1675637e-05
92	0x367f0d70	3.8005783e-06
93	0x3673ca83	3.63277e-06
94	0x188e48b3	3.6779547e-24
95	0xb752817b	-1.2547122e-05
96	0x371369a1	8.786476e-06
97	0xb5b59c3d	-1.3531022e-06
98	0x00000004	6e-45
99	0xb803965f	-3.1372878e-05
100	0x371369a1	8.786476e-06
101	0xb5b59c3d	-1.3531022e-06
102	0x00000004	6e-45
103	0xb803965f	-3.1372878e-05
104	0xb77ff87f	-1.5257042e-05
105	0x3799868b	1.8301673e-05
106	0x315e024b	3.2306555e-09
107	0x367d8c23	3.7781508e-06
108	0xb77f9dbe	-1.5235912e-05
109	0x379bb08d	1.8559653e-05
110	0xb4942122	-2.7591256e-07
111	0xb5e85168	-1.7309039e-06
112	0xb61b2a57	-2.3121445e-06
113	0x371c7977	9.326605e-06
114	0xb68518da	-3.966602e-06
115	0x36412a29	2.8783782e-06
116	0x380a47cd	3.2968634e-05
117	0xb7eadf41	-2.7998934e-05
118	0xb600f8fd	-1.9218417e-06
119	0xb579791f	-9.293598e-07
120	0xb73a1172	-1.1090526e-05
121	0x378a97f1	1.6521635e-05
122	0xb61ff068	-2.3832781e-06
123	0xb746c930	-1.1848562e-05
124	0x3772c1db	1.44694595e-05
125	0xb73f4a47	-1.1401781e-05
126	0xb2aa5a14	-1.9831567e-08
127	0x3589e104	1.0272784e-06
128	0x37bf872a	2.2831915e-05
129	0xb7a3e5cb	-1.953812e-05
130	0xb484084d	-2.4592956e-07
131	0xb7151b08	-8.887386e-06
132	0xb6b1b7cb	-5.2964074e-06
133	0x3708d932	8.156801e-06
134	0x34493ffb	1.874286e-07
135	0xb6bed0ed	-5.6867634e-06
136	0xb7076232	-8.06949e-06
137	0x36b5923d	5.4112447e-06
138	0x36bf76df	5.706082e-06
139	0xb68c48a8	-4.1807834e-06
140	0xb70c334b	-8.356593e-06
141	0x373f55b1	1.1404439e-05
142	0x80000004	-6e-45
143	0xb72a69ae	-1.0157395e-05
144	0x3574dd60	9.1219226e-07
145	0x360f5242	2.135654e-06
146	0x17486c25	6.4759983e-25
147	0xb5afdbde	-1.3102506e-06
148	0x3664cc3c	3.4093528e-06
149	0xb4c21369	-3.614944e-07
150	0x00000004	6e-45
151	0xb6c350bd	-5.820852e-06
152	0x3664cc3c	3.4093528e-06
153	0xb4c21369	-3.614944e-07
154	0x00000004	6e-45
155	0xb6c350bd	-5.820852e-06
156	0xb835cb25	-4.3342956e-05
157	0xb8c4b6ef	-9.380082e-05
158	0xb285d70c	-1.558103e-08
159	0xb8765ed0	-5.873927e-05
160	0x3834f9ef	4.3148113e-05
161	0xb93f2d47	-0.00018232047
162	0x3607176e	2.0130205e-06
163	0xb7b4b8b9	-2.154369e-05
164	0xb8ba0236	-8.869583e-05
165	0xb883e320	-6.288872e-05
166	0x377203ee	1.4425239e-05
167	0xb8aa79d5	-8.128925e-05
168	0xb938b127	-0.00017613602
169	0x37eb7afe	2.8071456e-05
170	0x3736f5d5	1.0905283e-05
171	0xb7d1de50	-2.5018264e-05
172	0xb8458304	-4.7090478e-05
173	0xb8cd100c	-9.778151e-05
174	0x3701660a	7.712757e-06
175	0xb75cf223	-1.3169399e-05
176	0xb8e2db00	-0.00010817312
177	0xb7f093a5	-2.8678982e-05
178	0xb4a4e795	-3.0715879e-07
179	0xb813d6cd	-3.524758e-05
180	0xb900fcb4	-0.0001230117
181	0xb75eac4b	-1.3272346e-05
182	0xb56af7c6	-8.753235e-07
183	0xb6ee654b	-7.104745e-06
184	0xb88cf0ba	-6.720559e-05
185	0xb8919836	-6.94249e-05
186	0xb50debdb	-5.286981e-07
187	0xb77d8332	-1.5110521e-05
188	0xb5ce87b1	-1.5387687e-06
189	0xb8f0ec95	-0.000114881586
190	0xb7adf863	-2.0738871e-05
191	0xb78eb877	-1.7013617e-05
192	0xb8b947d0	-8.8348635e-05
193	0xb84cba02	-4.8810623e-05
194	0x00000004	6e-45
195	0xb589ffa8	-1.0281701e-06
196	0xb8f4a043	-0.00011664678
197	0xb7ac123f	-2.0512494e-05
198	0x9811233d	-1.8758602e-24
199	0xb8013062	-3.0801057e-05
200	0xb9107fed	-0.00013780566
201	0x352d7e00	6.4630876e-07
202	0x80000004	-6e-45
203	0xb7c4e65c	-2.347229e-05
204	0xb9107fed	-0.00013780566
205	0x352d7e00	6.4630876e-07
206	0x80000004	-6e-45
207	0xb7c4e65c	-2.347229e-05
208	0xb64fc6eb	-3.096119e-06
209	0xb58735a6	-1.0073898e-06
210	0xb01b5ed3	-5.6523425e-10
211	0xb604e5c9	-1.9803285e-06
212	0x364a3cbf	3.0135704e-06
213	0xb6ebf53d	-7.0320953e-06
214	0xb3b7b633	-8.5547434e-08
215	0xb4c03d30	-3.5807307e-07
216	0xb5fd8792	-1.8889425e-06
217	0xb68351a4	-3.9136085e-06
218	0x35e3f74e	1.6984793e-06
219	0xb5d4be40	-1.5850601e-06
220	0xb7256310	-9.857831e-06
221	0x36a2a238	4.846861e-06
222	0x3573719e	9.068989e-07
223	0xb54f020d	-7.7116493e-07
224	0xb60ee164	-2.1290844e-06
225	0xb644edf1	-2.9344776e-06
226	0x3580c7f3	9.594936e-07
227	0x36a9c348	5.059326e-06
228	0xb6edcf28	-7.0872666e-06
229	0x3648dcba	2.9930802e-06
230	0xb229ac27	-9.876238e-09
231	0xb5d44533	-1.581537e-06
232	0xb6dcbca2	-6.5784707e-06
233	0x3409346f	1.2778195e-07
234	0x361d7a8c	2.3466155e-06
235	0x36b7a913	5.473508e-06
236	0xb63af915	-2.7861145e-06
237	0xb5aaa548	-1.271409e-06
238	0xb347dfc7	-4.6536822e-08
239	0xb40075a8	-1.1963732e-07
240	0xb63d32f9	-2.8192865e-06
241	0xb5f27ecf	-1.8067311e-06
242	0x350c1c4f	5.219526e-07
243	0x36762d75	3.6683316e-06
244	0xb65ee96e	-3.3216452e-06
245	0xb55207ac	-7.824226e-07
246	0x00000004	6e-45
247	0x363d1971	2.8178004e-06
248	0xb64a7729	-3.0169706e-06
249	0xb591e863	-1.0870975e-06
250	0x975f56e9	-7.216488e-25
251	0x360af8cb	2.070842e-06
252	0xb68a4017	-4.1201815e-06
253	0x328a60e9	1.6109384e-08
254	0x80000004	-6e-45
255	0x3664c851	3.4091247e-06

exp_avg_sq f4 [256, 52]
0	0x34073477	1.2591941e-07
1	0x32f4aefa	2.8484909e-08
2	0x2ed982ed	9.8912746e-11
3	0x33146061	3.454659e-08
4	0x33a0d135	7.488635e-08
5	0x3392181b	6.8030396e-08
6	0x31a6ba6b	4.852429e-09
7	0x3301c27c	3.0212036e-08
8	0x341250c8	1.3626698e-07
9	0x31c32e00	5.6804765e-09
10	0x313c4636	2.739751e-09
11	0x3343e3c6	4.5609134e-08
12	0x33506260	4.8518245e-08
13	0x33a81972	7.827738e-08
14	0x31cd874c	5.9816667e-09
15	0x32ec788e	2.7528838e-08
16	0x33b1e2aa	8.283435e-08
17	0x32da7151	2.543007e-08
18	0x32a76ed0	1.949175e-08
19	0x338e8c0d	6.6378654e-08
20	0x3331f385	4.1432504e-08
21	0x33a96998	7.888883e-08
22	0x31caa161	5.8973204e-09
23	0x32e8a5a2	2.7083676e-08
24	0x32dd0fcb	2.5734968e-08
25	0x338dcb16	6.602765e-08
26	0x333d9d16	4.414786e-08
27	0x3393239c	6.851698e-08
28	0x33a83de5	7.834368e-08
29	0x3347be39	4.6506305e-08
30	0x314847fc	2.9144749e-09
31	0x32ee6f42	2.775744e-08
32	0x3388e221	6.374126e-08
33	0x3330b12e	4.1139337e-08
34	0x32b172ba	2.0657684e-08
35	0x3379332b	5.8021367e-08
36	0x33fa6599	1.1660013e-07
37	0x32bc3e25	2.191434e-08
38	0x2fa681eb	3.0287536e-10
39	0x32f2b5ee	2.825524e-08
40	0x3412ebdb	1.3683113e-07
41	0x31bb6c8c	5.4547566e-09
42	0x303d41f1	6.885151e-10
43	0x33328f4c	4.1574182e-08
44	0x341c87a6	1.4577981e-07
45	0x31102319	2.0974709e-09
46	0x2dbc3180	2.1395108e-11
47	0x330ce9e2	3.2809005e-08
48	0x341c87a6	1.4577981e-07
49	0x31102319	2.0974709e-09
50	0x2dbc3180	2.1395108e-11
51	0x330ce9e2	3.2809005e-08
52	0x33b4ad4e	8.413427e-08
53	0x3306adc5	3.135735e-08
54	0x2e7a15b8	5.686271e-11
55	0x32d07030	2.4265404e-08
56	0x32f4b64d	2.848824e-08
57	0x33aaf857	7.9614146e-08
58	0x31ad93c7	5.051763e-09
59	0x329cf5fc	1.8272651e-08
60	0x33e92545	1.0856687e-07
61	0x317dcfaa	3.6934389e-09
62	0x2fba8eb1	3.393459e-10
63	0x330bdcbf	3.2564227e-08
64	0x329a4112	1.795755e-08
65	0x33c48c22	9.152451e-08
66	0x317f4a28	3.7149537e-09
67	0x32519947	1.2200252e-08
68	0x33b65564	8.490568e-08
69	0x32b233dd	2.0745512e-08
70	0x3199be30	4.474508e-09
71	0x3339974f	4.3211283e-08
72	0x331ed260	3.6978577e-08
73	0x3398dc10	7.118081e-08
74	0x30837903	9.565898e-10
75	0x32215174	9.389954e-09
76	0x3274f928	1.4259321e-08
77	0x33ab5d9c	7.9798355e-08
78	0x32926884	1.7044165e-08
79	0x332741af	3.8942456e-08
80	0x338c391d	6.529647e-08
81	0x33377381	4.2713058e-08
82	0x2fcabd54	3.6878112e-10
83	0x3233f7bb	1.0475499e-08
84	0x3327884b	3.9006675e-08
85	0x336af045	5.4700894e-08
86	0x326b13ec	1.368333e-08
87	0x331dddf3	3.6756273e-08
88	0x33b8ebe8	8.611079e-08
89	0x32d21fa2	2.4461603e-08
90	0x2f74a74e	2.2251109e-10
91	0x3281a672	1.5093267e-08
92	0x33e4247a	1.06237124e-07
93	0x31dac400	6.3669177e-09
94	0x2fa4d7bd	2.9984717e-10
95	0x33007af5	2.991415e-08
96	0x33f23fac	1.1280585e-07
97	0x30d605dd	1.5572216e-09
98	0x2e139195	3.3553233e-11
99	0x32ca80ab	2.3574406e-08
100	0x33f23fac	1.1280585e-07
101	0x30d605dd	1.5572216e-09
102	0x2e139195	3.3553233e-11
103	0x32ca80ab	2.3574406e-08
104	0x322299f7	9.464649e-09
105	0x315f12c5	3.246144e-09
106	0x2cac3ef0	4.8955215e-12
107	0x31268e58	2.4237092e-09
108	0x319499b3	4.3248405e-09
109	0x32019962	7.5436635e-09
110	0x2ff34e43	4.425705e-10
111	0x310a1e43	2.0098845e-09
112	0x324c283b	1.188351e-08
113	0x2fa1b0d1	2.9411365e-10
114	0x2f0231b4	1.1841089e-10
115	0x3173baca	3.5467331e-09
116	0x3141225f	2.8104734e-09
117	0x320e646f	8.288324e-09
118	0x3012da6e	5.34249e-10
119	0x30fffecb	1.8626108e-09
120	0x320f30ac	8.334762e-09
121	0x30e31443	1.6522183e-09
122	0x30a90a4c	1.2299295e-09
123	0x31c18380	5.631989e-09
124	0x315864b9	3.148939e-09
125	0x31ee32bc	6.9324795e-09
126	0x3061ac88	8.2099705e-10
127	0x311ead32	2.3090476e-09
128	0x30c84322	1.4570996e-09
129	0x31e446d2	6.6437247e-09
130	0x317ae6a0	3.6510883e-09
131	0x31c862c3	5.831994e-09
132	0x31ca5bfe	5.889432e-09
133	0x31957172	4.349368e-09
134	0x3081fcfe	9.45789e-10
135	0x313389af	2.6126192e-09
136	0x3185ca22	3.8937893e-09
137	0x31a5fa66	4.830599e-09
138	0x3122a4bb	2.366774e-09
139	0x31b80e67	5.356742e-09
140	0x3211fcbf	8.497579e-09
141	0x312a806b	2.4811253e-09
142	0x3022739f	5.9099564e-10
143	0x31399b9d	2.70095e-09
144	0x3242b545	1.1333502e-08
145	0x301b32a7	5.6460653e-10
146	0x2eaf6cf9	7.977436e-11
147	0x318810b8	3.9600216e-09
148	0x325371c8	1.2307687e-08
149	0x2f555725	1.9403197e-10
150	0x2e51e7fb	4.7727138e-11
151	0x31591add	3.1592926e-09
152	0x325371c8	1.2307687e-08
153	0x2f555725	1.9403197e-10
154	0x2e51e7fb	4.7727138e-11
155	0x31591add	3.1592926e-09
156	0x33b56b59	8.447996e-08
157	0x3347899c	4.6458453e-08
158	0x300a289b	5.026181e-10
159	0x3311d403	3.3953267e-08
160	0x3326ebcd	3.8864346e-08
161	0x33bb278a	8.715058e-08
162	0x32139723	8.590891e-09
163	0x32f194e8	2.8123807e-08
164	0x33ffd97f	1.1913925e-07
165	0x321b799c	9.049838e-09
166	0x309f70d4	1.160084e-09
167	0x332d411d	4.033892e-08
168	0x330c5448	3.2672943e-08
169	0x33b7836a	8.5455056e-08
170	0x31e5da2e	6.6895813e-09
171	0x32a7093d	1.944556e-08
172	0x33afbd81	8.183543e-08
173	0x33105e3b	3.3613315e-08
174	0x3212fd98	8.555979e-09
175	0x336b317c	5.4760207e-08
176	0x336c7deb	5.5062554e-08
177	0x338d6c85	6.585564e-08
178	0x3108451d	1.982989e-09
179	0x32712e3d	1.403856e-08
180	0x32d9361b	2.528673e-08
181	0x33a0ece4	7.493671e-08
182	0x32ec9390	2.754112e-08
183	0x335f08f2	5.192937e-08
184	0x33a20ba4	7.54583e-08
185	0x33519e56	4.880561e-08
186	0x30550c58	7.750649e-10
187	0x3263d55a	1.326165e-08
188	0x3355d1f7	4.978389e-08
189	0x33683bf3	5.4071233e-08
190	0x32a39021	1.904124e-08
191	0x33488221	4.668448e-08
192	0x33e399dd	1.0598499e-07
193	0x32ca5055	2.3552426e-08
194	0x2f9d2514	2.858448e-10
195	0x32781e01	1.4442322e-08
196	0x3404c25b	1.2364164e-07
197	0x31f0d50a	7.009139e-09
198	0x2f690531	2.1193071e-10
199	0x331091a7	3.3660083e-08
200	0x340de5b0	1.3215208e-07
201	0x311c86bd	2.2777578e-09
202	0x2e8081d8	5.843831e-11
203	0x32cb6981	2.3680288e-08
204	0x340de5b0	1.3215208e-07
205	0x311c86bd	2.2777578e-09
206	0x2e8081d8	5.843831e-11
207	0x32cb6981	2.3680288e-08
208	0x310cd502	2.0493762e-09
209	0x2f82e677	2.3810617e-10
210	0x2cdd6304	6.2921907e-12
211	0x2fdd6f80	4.027889e-10
212	0x3100671b	1.868506e-09
213	0x2fd2e8b9	3.8364137e-10
214	0x2db27959	2.0290146e-11
215	0x2fd02eb4	3.7868164e-10
216	0x310289b5	1.8995767e-09
217	0x2f8d88a9	2.5744853e-10
218	0x2e1daa7b	3.5849084e-11
219	0x2fed3717	4.3149193e-10
220	0x30b0b480	1.2856987e-09
221	0x303665e7	6.6356026e-10
222	0x2e510cbe	4.7532416e-11
223	0x2fc8d5fc	3.6531833e-10
224	0x30a3bacf	1.1912905e-09
225	0x301308b3	5.349065e-10
226	0x2f11e289	1.3268155e-10
227	0x30396b58	6.745515e-10
228	0x309468db	1.0798219e-09
229	0x30182aac	5.535792e-10
230	0x2f39ed40	1.690994e-10
231	0x3038dd79	6.725354e-10
232	0x2fb5094e	3.293032e-10
233	0x3054925a	7.733313e-10
234	0x306ba483	8.5726287e-10
235	0x30a0415e	1.1660111e-09
236	0x30a246ae	1.180714e-09
237	0x2fa03b3d	2.9145922e-10
238	0x2fbe15c4	3.4576264e-10
239	0x30742f29	8.88337e-10
240	0x303df1d2	6.9101447e-10
241	0x2fdfb198	4.0689652e-10
242	0x3050e218	7.599126e-10
243	0x30a47412	1.196556e-09
244	0x30b56c1b	1.3200209e-09
245	0x2f64d275	2.0811249e-10
246	0x2f99c692	2.797163e-10
247	0x30758226	8.9315433e-10
248	0x30dd850c	1.611768e-09
249	0x2f22207d	1.4745356e-10
250	0x2f1b2a52	1.4112203e-10
251	0x30866b27	9.780238e-10
252	0x310807c5	1.9795021e-09
253	0x2f13a100	1.3426771e-10
254	0x2e4cc4ab	4.6558906e-11
255	0x306a8167	8.5312596e-10

exp_avg f4 [256]
0	0x385b8bb9	5.2343796e-05
1	0x36f87bb6	7.405378e-06
2	0x364c3e6b	3.04347e-06
3	0xb90fc5a4	-0.0001371117
4	0xb689b760	-4.104266e-06
5	0xb823b515	-3.9030874e-05
6	0xb8c8253e	-9.54368e-05
7	0xb92a424c	-0.00016237161
8	0x388755f5	6.4533124e-05
9	0x38036956	3.1330936e-05
10	0x378d516c	1.6846425e-05
11	0x3842d87a	4.6454814e-05
12	0xb93bd727	-0.0001791386
13	0x37def8ad	2.6580261e-05
14	0xb95f2c7f	-0.00021283513
15	0xb896d0ae	-7.191427e-05
16	0x3797d34e	1.8099e-05
17	0x380e19ae	3.3879354e-05
18	0x38a8a38f	8.0413294e-05
19	0xb89e338e	-7.54363e-05
20	0xb8ebcd11	-0.0001124387
21	0x379e8f87	1.8901903e-05
22	0xb91fc56a	-0.00015236964
23	0xb7781726	-1.4787342e-05
24	0x3828938e	4.0191742e-05
25	0x38624c00	5.395338e-05
26	0xb9633be0	-0.00021670712
27	0x37b4def2	2.156149e-05
28	0x3787f84d	1.6208878e-05
29	0xb82b5a9a	-4.0853956e-05
30	0x37429b89	1.1599514e-05
31	0x37d5c0ab	2.5481297e-05
32	0x381c454d	3.725784e-05
33	0x368b7f5d	4.15735e-06
34	0xb9005eaa	-0.00012242296
35	0xb8d8fb0b	-0.00010346443
36	0x3846a92b	4.736443e-05
37	0xb880b49d	-6.1371575e-05
38	0x383a511c	4.4421395e-05
39	0xb7dc1cce	-2.6239457e-05
40	0x37658193	1.36796325e-05
41	0xb961f976	-0.00021550604
42	0xb8854ed4	-6.356617e-05
43	0xb6fec57f	-7.5927815e-06
44	0xb90c2237	-0.00013364186
45	0x38b12ee4	8.448752e-05
46	0x383a2e7f	4.438916e-05
47	0x36ba438a	5.5510945e-06
48	0x374cefeb	1.2215208e-05
49	0x381710dd	3.601691e-05
50	0x37da9c43	2.606039e-05
51	0xb583ffc6	-9.8347e-07
52	0x3887089d	6.438906e-05
53	0x37d4c356	2.536333e-05
54	0x3822ce80	3.8816128e-05
55	0x38090102	3.2664284e-05
56	0x37ec2181	2.8148994e-05
57	0xb916fd6e	-0.00014399525
58	0xb892b501	-6.995537e-05
59	0xb9131703	-0.00014027585
60	0x38866bd0	6.4096996e-05
61	0xb46249a0	-2.1074675e-07
62	0xb7667cfd	-1.3738169e-05
63	0xb855275e	-5.081982e-05
64	0x380e4291	3.3917433e-05
65	0xb87f28f5	-6.0834882e-05
66	0xb8d55e83	-0.00010174236
67	0xb942e584	-0.00018586783
68	0xb8995d76	-7.313017e-05
69	0x386e079d	5.6750712e-05
70	0xb6948249	-4.425911e-06
71	0xb96c03fb	-0.00022508197
72	0xb8162129	-3.579367e-05
73	0xb9402d16	-0.00018327343
74	0x3813e1b2	3.5257726e-05
75	0x382b37aa	4.082142e-05
76	0x37cb3a20	2.4226552e-05
77	0xb98cfa1b	-0.00026889224
78	0x37db8e22	2.617302e-05
79	0x370040b0	7.644456e-06
80	0xb6db56fc	-6.536835e-06
81	0x3808ef78	3.264795e-05
82	0xb717763f	-9.027833e-06
83	0xb85e55b1	-5.300873e-05
84	0x36731de5	3.6227223e-06
85	0xb8ec9772	-0.00011281566
86	0xb8037f7b	-3.135156e-05
87	0xb85db83f	-5.28621e-05
88	0xb953de72	-0.00020205395
89	0xb98424fb	-0.00025204555
90	0x388f73d8	6.840349e-05
91	0x3819d33e	3.6674777e-05
92	0xb8c2b8d9	-9.2850714e-05
93	0x358eb251	1.0631721e-06
94	0x38cc5018	9.742397e-05
95	0xb90fb40d	-0.00013704617
96	0x376c8310	1.40972115e-05
97	0x38096893	3.2760738e-05
98	0xb77b4bfb	-1.4978456e-05
99	0xb9316d27	-0.00016920698
100	0xb8e953ad	-0.000111258916
101	0xb7a7322e	-1.9931318e-05
102	0x360a5890	2.0615153e-06
103	0x3845c741	4.715403e-05
104	0x38e98b74	0.00011136281
105	0xb873d344	-5.813247e-05
106	0x37ac122a	2.0512456e-05
107	0x389d90be	7.513304e-05
108	0xb959ca53	-0.00020770104
109	0xb8c39206	-9.3255236e-05
110	0x38184263	3.630145e-05
111	0x373a8fdf	1.11199615e-05
112	0x389b764f	7.413013e-05
113	0x383d94a9	4.5199562e-05
114	0xb7d17b35	-2.4972114e-05
115	0xb79988bb	-1.8302691e-05
116	0x3783c36f	1.5707423e-05
117	0x38390e83	4.4120952e-05
118	0x363e7cc4	2.838483e-06
119	0xb6872b55	-4.028358e-06
120	0xb8bf5f4a	-9.125339e-05
121	0xb8e8f204	-0.00011107701
122	0x36f315a2	7.2444827e-06
123	0xb8406cc4	-4.5877663e-05
124	0x373f99ef	1.1420328e-05
125	0x3889d644	6.572579e-05
126	0xb854392b	-5.059798e-05
127	0x383d47ca	4.512797e-05
128	0xb91dac67	-0.00015036912
129	0xb813eb42	-3.5266632e-05
130	0x37db084e	2.6110702e-05
131	0x3834340a	4.296381e-05
132	0x38858fc8	6.3687155e-05
133	0xb84bf818	-4.8630027e-05
134	0xb8d34d4a	-0.0001007566
135	0xb7b59545	-2.164639e-05
136	0xb91677d8	-0.0001434976
137	0xb7ffd6f3	-3.0498462e-05
138	0xb7fdb1d7	-3.0242763e-05
139	0x38c076ce	9.1774025e-05
140	0x37f361b3	2.9013352e-05
141	0xb893f939	-7.0559276e-05
142	0xb89344a0	-7.0222886e-05
143	0xb92891b8	-0.00016076013
144	0xb863359d	-5.417095e-05
145	0xb79e331a	-1.8858864e-05
146	0x3812254e	3.4843855e-05
147	0xb7040a29	-7.870179e-06
148	0x37553e30	1.27102685e-05
149	0x3803b4b2	3.140112e-05
150	0xb7edfe32	-2.837097e-05
151	0xb9420109	-0.00018501667
152	0x37f7bad1	2.9531688e-05
153	0xb9016cc5	-0.00012342918
154	0xb8819892	-6.179618e-05
155	0x37aa838a	2.0326832e-05
156	0xb924707b	-0.00015682161
157	0xb9814d6d	-0.00024662484
158	0xb80b2ff7	-3.3184853e-05
159	0x379bd9ba	1.8578827e-05
160	0xb88c1295	-6.6791814e-05
161	0x373c5160	1.122462e-05
162	0x387568ba	5.8510086e-05
163	0xb8b6087d	-8.680017e-05
164	0x38223a80	3.8678292e-05
165	0x3872d8c0	5.789916e-05
166	0x37b2fb33	2.1336227e-05
167	0x3825cf00	3.953185e-05
168	0xb90e2998	-0.0001355767
169	0xb8ef9203	-0.00011423605
170	0xb8d28042	-0.0001003747
171	0xb88dac79	-6.7555295e-05
172	0x3838f70e	4.4099106e-05
173	0xb8cecebb	-9.861352e-05
174	0x382c8302	4.1130006e-05
175	0xb80e8180	-3.3976045e-05
176	0x37d797fa	2.5700767e-05
177	0xb907f0ac	-0.0001296426
178	0xb88a97c6	-6.608623e-05
179	0x37ecccc5	2.8228746e-05
180	0xb86f0542	-5.6986937e-05
181	0x37a092b3	1.9141798e-05
182	0xb7613fe2	-1.3425919e-05
183	0xb939682b	-0.0001768178
184	0xb7f9e666	-2.97904e-05
185	0x37f957d4	2.9724011e-05
186	0xb7f72242	-2.9460647e-05
187	0x38827c2e	6.222013e-05
188	0xb9020135	-0.00012398216
189	0x36aba880	5.115813e-06
190	0xb89efc8b	-7.581067e-05
191	0xb9097a2f	-0.00013110855
192	0xb8ea6e0d	-0.00011178488
193	0x3835e93f	4.337099e-05
194	0xb85b34de	-5.2262905e-05
195	0xb9382950	-0.00017562998
196	0xb88af885	-6.626643e-05
197	0xb93d72b9	-0.00018067182
198	0xb850cc7b	-4.97815e-05
199	0x37bf2ffd	2.279132e-05
200	0x382dc23d	4.1427313e-05
201	0x37956033	1.780698e-05
202	0x37a02881	1.9092347e-05
203	0x37abe039	2.04892e-05
204	0xb9473b70	-0.00019000261
205	0x38b48b0a	8.608967e-05
206	0x37eded0b	2.8362983e-05
207	0xb937b474	-0.00017519464
208	0x37a8dd14	2.0130108e-05
209	0xb79a0dae	-1.83646e-05
210	0xb8c37c8b	-9.3215225e-05
211	0xb5b4cd01	-1.3470709e-06
212	0xb796378f	-1.7907265e-05
213	0xb8f71bd2	-0.0001178306
214	0xb8d09715	-9.946354e-05
215	0xb913fe46	-0.00014113737
216	0x3879ee81	5.958835e-05
217	0xb8da13c7	-0.00010398734
218	0x380b3c6c	3.3196455e-05
219	0xb91a023b	-0.00014687415
220	0xb93c7fc5	-0.00017976675
221	0x37ae2564	2.0759828e-05
222	0xb9531f30	-0.00020134146
223	0x36d4a23d	6.3369794e-06
224	0xb8c8a8b0	-9.568164e-05
225	0x37ee881e	2.8435195e-05
226	0xb87c700b	-6.018583e-05
227	0x3801d786	3.095672e-05
228	0x382a6c36	4.0631938e-05
229	0xb78fd943	-1.7148099e-05
230	0x37a327fb	1.9449732e-05
231	0x37f930f0	2.9705901e-05
232	0xb7decfd3	-2.6561238e-05
233	0x383527f9	4.319099e-05
234	0x38bf5fab	9.125409e-05
235	0x3872c64c	5.7881974e-05
236	0xb70937e3	-8.1788485e-06
237	0x376948ba	1.3904815e-05
238	0x37d82fec	2.5771522e-05
239	0xb9a6986c	-0.0003177555
240	0xb80a1dfb	-3.2929685e-05
241	0x374ce69a	1.2213039e-05
242	0xb580d9bd	-9.600113e-07
243	0x38a468d4	7.839655e-05
244	0xb926c9dd	-0.00015906194
245	0x37e0950d	2.6772288e-05
246	0xb87647fa	-5.8718004e-05
247	0x3719d33c	9.1686925e-06
248	0xb8287c45	-4.0170056e-05
249	0x3632e3e3	2.6656714e-06
250	0xb7f6045f	-2.932752e-05
251	0xb8b478f0	-8.605595e-05
252	0xb8c8b64a	-9.570697e-05
253	0xb7609097	-1.3385105e-05
254	0x37f5b613	2.929106e-05
255	0x37c664d5	2.3650393e-05

exp_avg_sq f4 [256]
0	0x342329b8	1.5195735e-07
1	0x33f706f0	1.1503096e-07
2	0x32584996	1.2589586e-08
3	0x340fc50e	1.3389601e-07
4	0x311cd1db	2.2820277e-09
5	0x330d9c7d	3.2971446e-08
6	0x33f604ef	1.1456165e-07
7	0x3527975f	6.243262e-07
8	0x3492363e	2.7234086e-07
9	0x33cafa08	9.4518384e-08
10	0x33d77d5b	1.003452e-07
11	0x34961b5d	2.7959587e-07
12	0x3552bf16	7.8509163e-07
13	0x34cd923b	3.8290622e-07
14	0x353c5fd3	7.01749e-07
15	0x34606be4	2.0900876e-07
16	0x3351c197	4.8837673e-08
17	0x34646e51	2.1274288e-07
18	0x35365c72	6.793481e-07
19	0x33a877c0	7.844892e-08
20	0x33ffa4ea	1.19043605e-07
21	0x3381a6bc	6.0373594e-08
22	0x354d01b4	7.637093e-07
23	0x317195c5	3.515525e-09
24	0x345e2845	2.0690011e-07
25	0x34954b6f	2.7808298e-07
26	0x3582de26	9.750408e-07
27	0x33002a37	2.9840717e-08
28	0x33754d17	5.711362e-08
29	0x3487462c	2.5196766e-07
30	0x339b38e7	7.2281004e-08
31	0x34db708f	4.0873826e-07
32	0x341d2679	1.463576e-07
33	0x30dcfb56	1.6078541e-09
34	0x33d6ae9a	9.9969114e-08
35	0x35029302	4.86427e-07
36	0x341e1d37	1.4725525e-07
37	0x328a8bb0	1.6128837e-08
38	0x34d2f887	3.9296376e-07
39	0x318b4b0c	4.0539643e-09
40	0x327a5afd	1.4572604e-08
41	0x35a60c26	1.23715e-06
42	0x3447a282	1.8592439e-07
43	0x335d1705	5.147651e-08
44	0x34b99525	3.4567452e-07
45	0x35a2022e	1.2070575e-06
46	0x346fe3e8	2.2341521e-07
47	0x34a44e47	3.0604335e-07
48	0x34e90fa4	4.3411012e-07
49	0x349a2159	2.8709e-07
50	0x3273307f	1.4155488e-08
51	0x3150221e	3.0287377e-09
52	0x33ffe311	1.1915666e-07
53	0x33c2e002	9.074576e-08
54	0x33dfa480	1.0414169e-07
55	0x348053b3	2.3902757e-07
56	0x3316a985	3.5078774e-08
57	0x358f04da	1.0655742e-06
58	0x34aa4ae6	3.1719463e-07
59	0x34895f3f	2.558754e-07
60	0x33aa92ba	7.942931e-08
61	0x305dd7d1	8.0706025e-10
62	0x2feff502	4.3647935e-10
63	0x345cb945	2.0556497e-07
64	0x34961507	2.7954977e-07
65	0x343d9be6	1.7658712e-07
66	0x344be983	1.89908e-07
67	0x3509b2c6	5.1296627e-07
68	0x33cc6c9e	9.5192476e-08
69	0x349d6f7e	2.932465e-07
70	0x31b521cb	5.271635e-09
71	0x354a2301	7.53018e-07
72	0x32c23774	2.260979e-08
73	0x35251902	6.150368e-07
74	0x341834b1	1.4175272e-07
75	0x34659db0	2.1384653e-07
76	0x350ff83d	5.3632886e-07
77	0x358222ea	9.695916e-07
78	0x3425bb90	1.5435057e-07
79	0x32538afa	1.2313416e-08
80	0x30a903a1	1.22974e-09
81	0x34433d8f	1.8183185e-07
82	0x323fccf8	1.1164268e-08
83	0x3315958a	3.482777e-08
84	0x301a4e3f	5.613607e-10
85	0x342357e7	1.5212537e-07
86	0x31d4b2df	6.1903473e-09
87	0x338ff85e	6.704134e-08
88	0x34b3abdf	3.34664e-07
89	0x359562a3	1.1130072e-06
90	0x34e73f06	4.3072959e-07
91	0x33f8e75b	1.1590483e-07
92	0x346fb398	2.2323945e-07
93	0x32108c9a	8.413872e-09
94	0x3594e38a	1.1093082e-06
95	0x346cab4f	2.2041534e-07
96	0x3403e987	1.2285282e-07
97	0x340ff751	1.3407886e-07
98	0x31042a70	1.923265e-09
99	0x34347070	1.6804711e-07
100	0x347b4cdf	2.3404162e-07
101	0x3268cd8e	1.3550915e-08
102	0x2fc6c74e	3.6157605e-10
103	0x34a1e341	3.0153936e-07
104	0x34c674e4	3.6965423e-07
105	0x3380a6e3	5.990821e-08
106	0x335ca4d8	5.1372666e-08
107	0x34f9bf91	4.6519247e-07
108	0x356dd480	8.859861e-07
109	0x34360ca6	1.6954672e-07
110	0x341cbaaf	1.4596547e-07
111	0x32e74686	2.692401e-08
112	0x34a983c6	3.157458e-07
113	0x346f58af	2.2290872e-07
114	0x32b14ebf	2.0641322e-08
115	0x34f84247	4.6241823e-07
116	0x331b6cd0	3.6187714e-08
117	0x348d52a0	2.6323414e-07
118	0x3245dc40	1.1516988e-08
119	0x316a7ca8	3.412234e-09
120	0x33d9723b	1.0125628e-07
121	0x33f0d8a0	1.1215275e-07
122	0x33b56236	8.446334e-08
123	0x331a1205	3.5872308e-08
124	0x34339689	1.6725438e-07
125	0x353f0c12	7.117061e-07
126	0x33369332	4.250905e-08
127	0x34cd366b	3.822382e-07
128	0x34f8f6f5	4.6373285e-07
129	0x3213d9b2	8.606024e-09
130	0x3358c7b5	5.047305e-08
131	0x34989e80	2.842753e-07
132	0x34479f8a	1.8591359e-07
133	0x34ee8c2e	4.443295e-07
134	0x33dc5704	1.02603764e-07
135	0x32a7c390	1.953029e-08
136	0x34499abb	1.8775874e-07
137	0x330f6b93	3.339262e-08
138	0x320c9279	8.1823766e-09
139	0x3481727e	2.4111426e-07
140	0x35285ac2	6.2716947e-07
141	0x33d37be8	9.8479916e-08
142	0x3396e3b8	7.026341e-08
143	0x34d26c09	3.9194154e-07
144	0x341e3717	1.4734938e-07
145	0x34e43775	4.250866e-07
146	0x3415ae81	1.394019e-07
147	0x31cfd157	6.048292e-09
148	0x346f8ec7	2.2310552e-07
149	0x328d1daa	1.642805e-08
150	0x32a649b1	1.9358454e-08
151	0x354beea3	7.5970655e-07
152	0x33261a34	3.867372e-08
153	0x3425ebf9	1.5452669e-07
154	0x3450b8d2	1.9438747e-07
155	0x336040da	5.2213046e-08
156	0x34567164	1.9971554e-07
157	0x3584532f	9.858976e-07
158	0x3370b013	5.6039493e-08
159	0x32ae4aea	2.0290333e-08
160	0x333d16d1	4.4025743e-08
161	0x34aa6819	3.1740709e-07
162	0x34370102	1.704357e-07
163	0x3439485c	1.7255792e-07
164	0x34bd5d21	3.5271754e-07
165	0x34be0e2f	3.5400578e-07
166	0x33d07a98	9.7080544e-08
167	0x3415c348	1.3947749e-07
168	0x35658634	8.550444e-07
169	0x34ad8f69	3.2328106e-07
170	0x34a1640a	3.0061375e-07
171	0x33d57db3	9.94145e-08
172	0x348c8f6f	2.6181394e-07
173	0x34de2c0f	4.138278e-07
174	0x355a3819	8.129296e-07
175	0x330d0caf	3.2840656e-08
176	0x338b1f88	6.4784274e-08
177	0x353782f6	6.8363386e-07
178	0x33f09d30	1.1204463e-07
179	0x335aafe6	5.091706e-08
180	0x33254668	3.848109e-08
181	0x339f1db5	7.409418e-08
182	0x31d32f22	6.1462666e-09
183	0x35283b58	6.2671234e-07
184	0x3247bf88	1.1626874e-08
185	0x34399878	1.7284935e-07
186	0x3408ec4c	1.2751951e-07
187	0x33ce3926	9.603018e-08
188	0x34a01617	2.9818395e-07
189	0x319ee413	4.6243342e-09
190	0x339e49f0	7.3708975e-08
191	0x353204bb	6.631705e-07
192	0x3464cd79	2.1308905e-07
193	0x33a42677	7.643842e-08
194	0x33ced270	9.630901e-08
195	0x354fd101	7.741765e-07
196	0x341fad99	1.4871183e-07
197	0x34d5b3b1	3.9805084e-07
198	0x335cbab5	5.139255e-08
199	0x34bf3109	3.56122e-07
200	0x34a96a23	3.1555928e-07
201	0x340d5f8f	1.3166412e-07
202	0x3362eb62	5.2833805e-08
203	0x3482156e	2.422998e-07
204	0x34ac318d	3.207355e-07
205	0x3582a966	9.735056e-07
206	0x336c04ff	5.4952576e-08
207	0x3570278b	8.946451e-07
208	0x33357023	4.2244334e-08
209	0x31d197e9	6.0999708e-09
210	0x34557b00	1.9881918e-07
211	0x30ce591f	1.5013802e-09
212	0x31333460	2.60777e-09
213	0x3414029c	1.3784523e-07
214	0x348fafad	2.6763647e-07
215	0x3480062a	2.3846343e-07
216	0x349523a8	2.7779356e-07
217	0x34d1c239	3.90706e-07
218	0x33907cf0	6.7282485e-08
219	0x349f2dd5	2.9649405e-07
220	0x352109f7	5.9991675e-07
221	0x32b07356	2.0541545e-08
222	0x3562f09e	8.4541705e-07
223	0x3266d59d	1.3436332e-08
224	0x33b8447b	8.580624e-08
225	0x34724dbe	2.2566289e-07
226	0x33533f13	4.918463e-08
227	0x33d29cf9	9.80744e-08
228	0x3426892a	1.5509855e-07
229	0x342aa98b	1.5894163e-07
230	0x336700f8	5.378476e-08
231	0x34625ca8	2.1081598e-07
232	0x321f2341	9.263034e-09
233	0x3501cf1d	4.8357634e-07
234	0x351ace5d	5.766977e-07
235	0x345c1042	2.0495011e-07
236	0x32a719df	1.9453124e-08
237	0x337df9d6	5.9133377e-08
238	0x33d02f27	9.694332e-08
239	0x356a618d	8.731375e-07
240	0x332fdb7a	4.0944975e-08
241	0x337f5b8a	5.945507e-08
242	0x2fdb2f5b	3.9869516e-10
243	0x344291e6	1.8120735e-07
244	0x3435cf1b	1.6932283e-07
245	0x33a0068c	7.4517715e-08
246	0x32e54b37	2.6693312e-08
247	0x3364f24f	5.3305765e-08
248	0x32e69f60	2.6848e-08
249	0x338030c5	5.9693356e-08
250	0x32b3291c	2.0857037e-08
251	0x34ae9db6	3.2524775e-07
252	0x34905b44	2.6888495e-07
253	0x324fc396	1.2093457e-08
254	0x341825aa	1.4169805e-07
255	0x33a4ea5f	7.679477e-08
