Chrome/ml-agents-release_20/results-force/bird/FlappyBird/checkpoint.pt (torch, 346663 bytes, 21 tensors)

network_body._body_endoder.seq_layers.0.weight f4 [256, 52]
000000 32 c9 77 3d 32 a9 fd bd 81 98 22 be 03 9a 42 3d
       0.06049461 -0.12385787 -0.15878488 0.04751016
000010 dc 95 9a 3d 0c fc 5a be 02 99 7c be ef 40 b5 bd
       0.07548115 -0.21385211 -0.24667743 -0.08850276
000020 bd 31 1f 3d 25 f5 8e be 62 7d bb 3d 71 bb 97 be
       0.038865793 -0.27921405 0.09154774 -0.29635194
000030 78 23 1e 3e e2 c0 d1 be d8 b4 57 3e ba f0 21 3e
       0.15443218 -0.4096747 0.2106508 0.15814486
000040 5a 77 4e 3d 7a e5 23 3d 97 fc 9f 3e b5 c0 28 3d
       0.05040679 0.040013768 0.31247398 0.041199405
000050 b1 17 73 be 11 a8 d0 3e b5 6d e4 3d 8d fe 2e 3d
       -0.23739506 0.40753224 0.111537375 0.042723227
000060 ba 8a 4e 3e 2c 0b b3 bd 65 fa ff 3d c2 29 06 be
       0.20170107 -0.08742365 0.12498931 -0.13101867
000070 62 4b 9d 3c 1b 9b e1 3c c6 25 ca 3c 8d 99 93 3d
       0.019200984 0.02753978 0.024676215 0.07207022
000080 78 da 0c 3e c1 79 0a be c7 d8 1e 3b bf ae 14 3d
       0.13755214 -0.13523008 0.0024238096 0.036299463
000090 cd 40 7f 3e c7 ab 5c 3e 51 ae 1d 3e d2 b3 9b 3e
       0.24927063 0.21549903 0.15398528 0.3041063
0000a0 b4 05 4d 3e 55 f4 02 3e 89 41 48 3e 8a 90 81 bd
       0.20021707 0.12788518 0.1955625 -0.06326397
0000b0 a2 90 b1 be ff 19 fe 3d 42 d7 ef bc 4f c9 92 bd
       -0.3468066 0.12407302 -0.029277448 -0.07167303
0000c0 53 d1 c9 3e a8 88 2e bb ee 5e 23 be bb 70 63 bd
       0.39417514 -0.0026631746 -0.15954182 -0.05552743
0000d0 6c 06 28 3e c4 34 72 be b4 18 b6 3d ad 2c 95 3d
       0.164087 -0.23652941 0.088914305 0.07283912
0000e0 6d 4d 96 3d 06 7a aa be 0b f8 13 be d6 f1 e2 bb
       0.073389865 -0.33296221 -0.1445009 -0.0069258017
0000f0 76 c8 34 3e 29 36 d8 bd c5 a8 5a be d0 4c fc bc
       0.17654595 -0.10557205 -0.21353443 -0.030798346
000100 0a 9b 10 be 28 94 c4 3d 4f 49 1a 3e 70 1e 4b 3e
       -0.14121643 0.09598571 0.15067028 0.1983583
000110 b5 61 56 3e 38 93 30 3d ea f6 ab bd 10 92 ab 3d
       0.2093571 0.04310915 -0.083967045 0.083774686
000120 42 04 28 be cb 73 22 3d bb 13 e9 bd b7 88 35 3d
       -0.16407874 0.03966121 -0.113807164 0.044319835
000130 87 3f dc bd f4 8d 57 3e cc c5 b6 3d 6d fe 04 be
       -0.107543044 0.21050245 0.089244455 -0.1298768
000140 53 ef b5 3d b8 ef b7 bd 3f 43 c9 bc f8 39 38 be
       0.08883538 -0.089812696 -0.024568198 -0.17990863
000150 3b e2 36 be c5 f2 ed 3d 98 44 89 3e 59 af 97 3d
       -0.17859738 0.1161857 0.26810145 0.07406492
000160 44 6a 3f 3d 14 ba 4e 3e 0a 55 d3 3d c7 bd ae 3d
       0.046732202 0.2018817 0.10318954 0.08532291
000170 bf 0a a4 3d b2 01 2e bb 81 c9 30 3e 5a e6 27 bd
       0.08009862 -0.0026551303 0.17264368 -0.040991165
000180 1c f7 2a 3e 0c 48 65 3e 32 1a c2 3d bf 64 ec bc
       0.16695827 0.22390765 0.094776526 -0.028856633
000190 99 68 3e bd a3 c0 15 3e 72 e7 5a bd 90 99 0f 3e
       -0.04648647 0.14624266 -0.05344338 0.14023423
0001a0 61 81 ac 3d d2 bf 03 be cf 26 fe 3c 80 ec c2 3d
       0.084231146 -0.12866142 0.031024365 0.09517765
0001b0 31 ba 89 3d e8 6d 49 3d b3 35 75 3c 6f 90 09 3e
       0.06724966 0.04917708 0.014966416 0.13434003
0001c0 c8 6b 08 3e 9d 9a 73 be 37 c5 02 3e 36 72 af bd
       0.13322365 -0.23789449 0.12770544 -0.08566706
0001d0 4c 19 32 3c b5 cd 4f 3d 19 d1 bc 3c 94 f6 2e 3e
       0.010870289 0.050733287 0.023048924 0.1708625
0001e0 af 09 96 be 1b 09 94 be df cf 90 bc c9 63 72 3e
       -0.29304263 -0.28913197 -0.017677246 0.23670878
0001f0 a2 10 b0 be 8b 08 82 3d 73 50 05 3e df 4e a5 3d
       -0.3438769 0.06349286 0.1301897 0.08071684
000200 55 f5 69 be 72 0f 10 be d3 e1 90 3d 6b 65 be 3c
       -0.22847493 -0.14068392 0.070743226 0.02324172
000210 45 91 97 3e 46 c8 36 3e 93 ed e5 3d a4 8e 0f 3e
       0.2960302 0.17849836 0.11226954 0.14019257
000220 f2 5c 1b 3d ea cf 69 3e 9d 58 ad 3c 2e 89 f3 3d
       0.037930436 0.22833219 0.021160418 0.11891399
000230 3a 03 06 3d 99 89 b8 3d f4 b6 0f 3e 09 e8 1a 3e
       0.03271792 0.0901062 0.14034635 0.15127577
000240 83 3b 5a 3e 07 13 03 3e ef 63 17 bd 36 c8 a4 3c
       0.21311764 0.12800227 -0.03696054 0.020115
000250 f3 70 26 bd 68 67 96 3e eb d6 03 3e a9 4a ea bb
       -0.04063506 0.29375768 0.12874953 -0.0071500135
000260 65 a2 0b bd 81 71 df 3c 81 b2 ce 3e 6b bb 3c 3d
       -0.03409042 0.027275803 0.40370563 0.046077173
000270 b3 7d ab be 4c a3 bf 3e 14 86 34 3e 97 d5 a5 3e
       -0.33494338 0.37429273 0.17629272 0.3238952
000280 ee 1b 05 bb e0 5e 35 3e 32 a8 dd 3c 04 b7 53 3e
       -0.0020310837 0.17711973 0.02705774 0.20675284
000290 d7 f5 eb 3d 1e 6b 4f 3d a2 91 77 3b 14 bc 23 3b
       0.115214996 0.050639264 0.0037776013 0.002498393
0002a0 a4 5d 56 3d 23 2f 66 be fd 06 c6 3d 05 91 d8 b9
       0.052335396 -0.22478919 0.09669302 -0.00041306778
0002b0 08 ac 3d 3d 14 af 94 3e 17 8f eb 3b 57 4b ef 3d
       0.04630664 0.29039824 0.0071886885 0.11684292
0002c0 3f 06 52 bd f0 de 1a be 8b 79 2e be 5b 5a 83 be
       -0.051275488 -0.15124106 -0.17038552 -0.25654873
0002d0 f1 82 a5 3d 25 9a e6 bd ca 04 da 3d d4 fd 1f 3c
       0.08081616 -0.112598695 0.10645445 0.009765107
0002e0 0f 76 76 3d 25 ad db bb 25 ec 64 bd af 49 26 bd
       0.060171183 -0.00670399 -0.055889267 -0.040597614
0002f0 61 6e fc bd 58 7f eb bd 96 40 1b bd bd 2f 2e bd
       -0.123257406 -0.11498898 -0.03790339 -0.042525996
000300 7e da 42 3e 88 78 c9 be ac 59 76 3d 2b db ad bd
       0.1902866 -0.3934977 0.06014411 -0.084890686
000310 26 5b ae 3e 49 98 72 3c 72 5d e0 3d 81 5e 39 bd
       0.34053916 0.014806815 0.10955323 -0.04525614
000320 28 04 62 bd 39 9d 49 be 8e e7 a5 3b 31 a6 7f 3e
       -0.055179745 -0.19688882 0.005063004 0.2496574
000330 a3 bf 1f be ff 54 24 3e ae 2f 7b 3d 15 69 a1 bd
       -0.15600447 0.16048048 0.061324768 -0.07881371
000340 24 8e 82 bd 64 d0 fd 3d 45 e3 9b 3e 13 1a 96 be
       -0.063747674 0.12393263 0.3044683 -0.29316768
000350 fb f8 58 3e 40 2c 54 bd 11 51 65 3d 4d c7 b0 bd
       0.21188729 -0.051800013 0.055985514 -0.086317636
000360 11 bc 68 be 9e 17 89 3c d6 35 7c 3e 62 e7 03 bd
       -0.22727992 0.016734894 0.24629912 -0.032203086
000370 6b 87 b8 3d 83 26 d0 bd 0f 62 6b 3d 53 11 71 bd
       0.09010204 -0.101635955 0.057466563 -0.058854412
000380 e2 58 94 3d c9 ca d8 3d af 8f 48 be c7 99 dc bc
       0.072435156 0.10585553 -0.19586061 -0.026928796
000390 fd ca a3 bd 92 e7 98 be 9c eb 5d bd db 0d 58 be
       -0.07997701 -0.29864174 -0.054179773 -0.21099035
0003a0 8c ff bc 3c b7 57 4b 3d 84 ec 89 bd 7b fe a2 3c
       0.023071073 0.0496442 -0.06734565 0.019896736
0003b0 00 c4 84 3e 55 28 b3 be 90 fa bd bc e7 4a 06 3e
       0.25930786 -0.34991708 -0.023190767 0.1311451
0003c0 60 b0 2f 3e b7 cc 1a 3d 0b ee d5 3c bf ee 4b 3d
       0.17157125 0.037792888 0.026114484 0.049788233
0003d0 24 5e 56 be 03 86 0f bd f8 5f 73 3e a6 76 2b 3e
       -0.2093435 -0.035039913 0.23767078 0.1674448
0003e0 4c 35 80 bb 4c b2 29 be c1 3b 50 3d d7 40 47 3e
       -0.0039126035 -0.16571921 0.050838236 0.19458328
0003f0 79 42 29 be 5b 26 c4 bd 90 73 cf 3d c8 a4 14 be
       -0.16529264 -0.09577628 0.10129464 -0.14515984

network_body._body_endoder.seq_layers.0.bias f4 [256]
000000 59 d2 2e 3d 1c e2 1b 3d 7a 2a 36 3c 9e 55 71 3d
       0.042681072 0.03805743 0.011118526 0.05891954
000010 3d 9a a9 bb 8e 55 7f bb 1c 97 c1 3c 1b a1 ae 3c
       -0.0051758573 -0.0038960907 0.023631625 0.021317055
000020 29 59 47 3d 93 41 92 3c 42 6d c7 3c 23 0f 37 3d
       0.048669014 0.017853534 0.02434409 0.04469217
000030 57 f6 4c 3d 01 a4 2d 3d 05 78 09 3d 26 15 dd 3c
       0.050039615 0.042392734 0.033561725 0.026987623
000040 9b 3d 9d 3c c8 d8 19 3d e5 fe 92 3d 16 7c 0b 3c
       0.019194415 0.037560254 0.071775235 0.008513471
000050 ca c0 00 3d 71 2a b4 3c c4 f0 de 3c ad 16 0c bc
       0.031433858 0.021992894 0.027214415 -0.008550328
000060 0e 81 09 3d bc 5c 35 3d 5b 22 dc 3d 80 05 8d 3c
       0.03357034 0.04427789 0.1074874 0.017214537
000070 3d 01 8e 3c 4e 8e af 3c ab d7 10 3d be c1 23 3d
       0.017334575 0.02143016 0.035361927 0.03997969
000080 a8 f4 19 3d 32 9b 06 bc 89 0c 87 3d 02 d6 89 3c
       0.037586838 -0.008215712 0.06594188 0.01682568
000090 1b db f4 3c 26 63 18 3c 90 6a 3f 3d 7f cd b6 bb
       0.029889634 0.009300983 0.046732485 -0.0055786963
0000a0 71 70 c8 3b 19 a8 01 3d d2 30 02 3d a5 ba 0f bc
       0.0061169197 0.03165445 0.03178484 -0.008772527
0000b0 11 82 23 3d 0d f4 89 3d 4f af 4d 3d 78 5b 3d 3d
       0.039918963 0.06736002 0.050216015 0.04622981
0000c0 92 1b 52 3d 51 98 36 3d e7 4a 14 3d e4 90 5b bb
       0.051295824 0.044578854 0.036204245 -0.003350311
0000d0 09 c2 91 3d 1e c4 a1 3c 0c 1e c1 3c 22 c9 2f 3d
       0.071170874 0.019746836 0.023573898 0.042916425
0000e0 ea 99 59 3d e4 d7 7e 3d 50 5b 86 3c 63 33 d2 3c
       0.0531253 0.062217608 0.016400963 0.025659269
0000f0 b9 68 f1 3c fc a3 c2 bc 59 3e 38 bb a8 5e 16 3c
       0.029468881 -0.023759834 -0.0028113334 0.009177841
000100 38 f2 32 3d 05 15 88 bb 72 04 94 3b d6 7d 81 3d
       0.04368803 -0.0041528963 0.0045171315 0.063228294
000110 c4 8b 06 3d b6 9c f7 3c 20 9a 4b bc e5 d2 55 3d
       0.032848135 0.030226093 -0.012426883 0.052203078
000120 33 15 88 bc f0 63 90 3d dc 2e 11 3d 48 94 16 3d
       -0.016611671 0.070503116 0.03544508 0.036762506
000130 4b 85 42 3d 08 20 ac 3c d6 56 c9 3c 40 8b 49 3c
       0.0474904 0.021011367 0.02457754 0.012301266
000140 28 b9 e7 bc fd ad 0b 3d 0d ae ef 3c c0 2d 89 3c
       -0.028286532 0.034101475 0.029257799 0.016745448
000150 3f 63 af 3c 6f ab 57 3d 5d 9c 2c 3b 28 6f 04 3d
       0.021409629 0.052653726 0.0026338317 0.03233257
000160 8e 9c 44 3d ec b6 61 3d 34 69 38 3d e6 3d 23 3c
       0.048000865 0.05510609 0.045022205 0.009963488
000170 22 aa 53 3d 78 3b f5 3b 27 1f 82 3d c4 47 93 3d
       0.051675923 0.007483896 0.06353598 0.071914226
000180 33 9e d4 3c cb 32 ca 3c 22 cf 87 bb 70 aa 4b 3d
       0.025954342 0.024682423 -0.004144565 0.04972309
000190 b5 a8 53 3c d1 cb 18 bc bd 59 f9 bc 5f 8e 2b 3d
       0.012918641 -0.009325937 -0.030438298 0.041883823
0001a0 b7 a5 5b 3d e8 34 9a bb 6c ab 9e 3c 26 60 42 3d
       0.053624835 -0.004706014 0.01936885 0.047454976
0001b0 b3 37 2b 3d 12 97 a5 3c 9b d0 e8 3c 40 9e 4a 3c
       0.041801166 0.020213638 0.028419783 0.012366831
0001c0 c9 04 15 3d 57 73 58 3d cd 63 5e 3b 9c c0 67 3d
       0.036381517 0.05284437 0.0033933998 0.05658017
0001d0 f4 cc 73 3c 87 3a ac 3c f1 d7 05 bc b6 0f 5b bc
       0.014880408 0.021024002 -0.00816916 -0.013370445
0001e0 36 be 65 bb c4 94 af 3c 06 74 9b 3c 0a 27 75 bc
       -0.0035056002 0.021433242 0.018976223 -0.014962921
0001f0 40 b9 1c 3d 3c 51 8b 3d 9f 29 eb 3c 30 08 7f 3d
       0.038262606 0.068026036 0.02870637 0.062263668
000200 fd e9 22 3d 5d 08 25 3d 6f 15 b8 3c 15 de 13 3d
       0.03977393 0.04029118 0.022471158 0.036100466
000210 be 5f 44 3d 62 17 bd 3c 61 66 93 3c 01 0e 7e 3d
       0.04794287 0.023082439 0.017993154 0.062025074
000220 10 50 9b 3d a2 ab d3 3c 60 c8 18 3d 6f 1f 23 3d
       0.0758363 0.025838677 0.037300467 0.0398249
000230 8c 45 2d 3d a3 f9 14 3d 32 c5 b2 3c 82 0f 1c 3d
       0.042302653 0.036370885 0.021822546 0.038100727
000240 c6 05 13 3b cd 3d 4e 3d 95 37 5e 3d 65 f3 ab bc
       0.002243386 0.050351907 0.054252226 -0.020990083
000250 3b 72 28 3d da 92 d5 3c 0a 84 dd bb 44 b7 41 3d
       0.041124564 0.026071 -0.006760125 0.047293916
000260 02 b6 b2 3c a0 9a 2f 3d 90 8a 8f 3c 63 4b a2 3c
       0.021815304 0.04287207 0.017522126 0.019811338
000270 0b 3f 45 3d 51 00 7c 3d 1c 81 1c 3c fa d7 88 3c
       0.048155826 0.06152374 0.009552266 0.016704548
000280 24 06 a9 3c 44 b0 3c 3d 92 b3 66 3d e4 4a 48 3d
       0.02063281 0.046066537 0.056323595 0.048899546
000290 26 78 58 3d 2c 60 8c 3d 2b 4f 88 3c c3 b3 85 3d
       0.052848957 0.06854281 0.016639313 0.065284275
0002a0 c2 a1 cd 3c 72 45 96 3d b4 7c 2a 3d 08 58 e1 3b
       0.025101546 0.073374644 0.041622832 0.006876949
0002b0 74 01 a1 3c b4 12 49 3c 7c d4 6a 3d f7 e6 2a 3d
       0.019654013 0.012272526 0.057331547 0.04172417
0002c0 53 ec 0d 3d 43 77 fb 3c d1 b8 7b 3d 7b 38 af 3c
       0.034649204 0.030696517 0.06145555 0.021389237
0002d0 79 70 1b 3d 17 9e 94 3c 50 d1 36 bc 4d ad 0f 3d
       0.03794906 0.01814179 -0.011158302 0.035077382
0002e0 6e 7f bf bb 06 3d 9d 3c 6a d7 af 3d 65 e2 15 3d
       -0.005844048 0.019194137 0.08586009 0.03659286
0002f0 31 32 db 3c 6b db f7 bc cc 6d 51 3c 42 d3 d8 3c
       0.026757332 -0.030255994 0.012782525 0.026467923
000300 28 95 fa 3c 31 7d ac 3c 57 d3 40 3c f8 5d 00 3d
       0.030588701 0.02105579 0.011769137 0.031339616
000310 d4 fa 39 3d bf c5 e3 3c 20 0a 95 3c 91 8d 62 3d
       0.045405224 0.027804254 0.018193305 0.05531079
000320 5d 42 2b 3d bb 8a b5 3c 48 70 54 3c 5c 47 60 3d
       0.041811336 0.022160878 0.012966223 0.054755554
000330 4d 68 5a 3d 5e d0 ba 3d 37 e4 cf 3c a1 f9 6f 3d
       0.053322125 0.09121774 0.025377376 0.058587674
000340 51 a2 d6 3c 94 7d 83 bc 7c 68 07 3c 79 26 23 bd
       0.026200445 -0.016051091 0.008264657 -0.039831612
000350 c1 77 6e bc 00 b6 79 3d ea b5 9b 3c d7 e1 21 3d
       -0.014554919 0.060964584 0.019007642 0.03952202
000360 f1 36 27 3d 92 66 20 3d 0e 59 ae 3c 89 f3 e7 3d
       0.04082388 0.03916032 0.021282699 0.113257475
000370 b7 e0 95 3c 81 bc 12 3d 98 e0 74 3d 78 65 ea 3b
       0.018295629 0.035824303 0.0597845 0.0071532093
000380 a3 77 47 3d 34 59 09 3d ea 4b 3e 3d 46 9c 98 3c
       0.04869808 0.033532336 0.046459116 0.018629204
000390 c8 95 f3 3c 7d d4 f4 3c 2d ae da 3c fa 52 0b 3d
       0.029734507 0.029886479 0.026694382 0.03401468
0003a0 b5 8c d6 3c 5c ca 32 3d ca f0 3f 3d 1e 89 00 3d
       0.026190141 0.043650016 0.046860494 0.031380765
0003b0 bc 35 6e 3b 9c 44 3a 3c 98 03 d9 3c b0 41 4c 3d
       0.0036347946 0.011368897 0.026490971 0.049867332
0003c0 b2 78 8b 3c 23 76 95 3c b1 7d 29 bd c3 18 21 3d
       0.017025325 0.018244809 -0.041379634 0.039330255
0003d0 a3 86 85 3c b0 81 9a 3c 97 be 8b 3c 94 22 1f 3d
       0.016299551 0.018860668 0.017058654 0.038851336
0003e0 f4 62 79 ba b4 5c 0a 3d ba 2f 35 3c e4 8d e0 3c
       -0.00095133414 0.033779815 0.011058742 0.027411409
0003f0 08 97 98 3c 6b f1 99 3a 35 4e 00 3d dc 6e 05 3d
       0.018626705 0.0011744922 0.031324584 0.032576427

action_model._discrete_distribution.branches.0.weight f4 [2, 256]
000000 bf f4 78 3d b6 12 76 3d 3f 62 81 3c ad b4 b9 bd
       0.060780283 0.060076438 0.015793918 -0.09067664
000010 2f 56 2c bc a7 22 29 bd 28 c1 86 bd 08 c9 cc bd
       -0.010518595 -0.041292813 -0.065798104 -0.09999281
000020 01 a5 7f 3d b0 4b a4 3c bc 78 05 3d 44 5e 78 3d
       0.06241322 0.020055622 0.032585844 0.060636774
000030 83 b5 f7 bd 97 6a 8b 3d 4a d6 f1 bd 47 d9 81 bd
       -0.120951675 0.0680744 -0.118084505 -0.063402705
000040 ea d1 d0 3c aa ad 47 3d 6c b3 f3 3d ed 60 49 bd
       0.02549072 0.048749603 0.118994564 -0.0491647
000050 c2 e6 7a bd b5 6b d1 3c f1 78 d7 bd 1c 24 9f bc
       -0.061255224 0.025564054 -0.105211146 -0.019426398
000060 92 13 5b 3d 99 fb 73 3d 5b d9 f3 bd ff 3a ce 3c
       0.05348546 0.059566114 -0.11906692 0.025174616
000070 92 d4 6e 3c de 12 6e bd 0d db 4b 3d 57 26 b1 3d
       0.014577048 -0.058123462 0.04976945 0.08649891
000080 df 59 25 3d 72 87 9a 3b 24 0b 86 bd e7 90 ad bd
       0.04036891 0.0047158534 -0.06545094 -0.084749036
000090 bb d5 7c 3d d8 20 68 bd 4b bf a7 3d f4 5f 8b bc
       0.061727267 -0.056671947 0.08190783 -0.017013527
0000a0 a0 58 8b 3c cb a8 12 be e1 ca 7a bd 26 db 20 bd
       0.017010033 -0.14322202 -0.061228637 -0.039271496
0000b0 57 4f c5 bd e4 f8 f3 3d c6 31 81 3d 2b b7 a4 3d
       -0.096342735 0.119127065 0.06308322 0.08042749
0000c0 08 d2 b6 3d 90 5e 8b 3d 39 29 0b 3d 82 df 66 bc
       0.08926779 0.06805146 0.03397486 -0.014091374
0000d0 71 77 61 3d ff 7a bf 3c 61 90 0c 3d 1d c4 73 3d
       0.05504555 0.023374079 0.034317378 0.0595132
0000e0 eb 2e 10 3d 57 dd fa bd 9c 88 89 bd c9 6c cf bd
       0.035200994 -0.122492485 -0.06715509 -0.10128171
0000f0 0c f7 61 3d ea d0 bc 3b 61 75 4f bc b1 72 4c bd
       0.055167243 0.005762209 -0.012662263 -0.049914066
000100 5e 28 88 3d b3 74 37 bd 62 db 9e bd 2c 4a c3 bd
       0.066483244 -0.044789027 -0.07756688 -0.095356315
000110 2d 56 8e bd d8 1a 88 3d 93 f6 1e 3b 86 dc fc bd
       -0.069500305 0.06645745 0.0024255856 -0.12346749
000120 33 d7 1d bd 95 c7 d5 bd cb da 45 3d 6a 52 8b 3d
       -0.038535308 -0.10438458 0.04830436 0.068028286
000130 05 b4 a1 3d 29 14 24 be 37 f1 11 3d 24 16 ef 3c
       0.07895664 -0.16023315 0.03563043 0.029185362
000140 ee 42 c3 bc c4 0a 4d 3d 4c 0f 20 3d 6c 9b 49 bd
       -0.023835625 0.050059095 0.03907709 -0.049220487
000150 10 79 5d 3c 90 dd 6e bd a2 0b 06 bd 5c de 40 bd
       0.013517633 -0.058316767 -0.032725938 -0.04708706
000160 1b 10 f2 bd 26 0a 00 be 38 0f b1 3d 72 9f c9 3c
       -0.11819478 -0.12503871 0.08645481 0.024612162
000170 bc ba 90 bd a6 be 46 3c b3 92 eb 3d 54 a2 bc bd
       -0.07066867 0.012130415 0.1150259 -0.09210649
000180 26 28 25 3d 3f 7c f8 3c 28 e5 9c bc e5 a0 98 bd
       0.04032149 0.030332683 -0.019152239 -0.07452563
000190 2b 02 ca bd 48 22 26 bd 5e bf c1 bc b5 05 6b 3d
       -0.09863695 -0.040560037 -0.023650821 0.05737849
0001a0 6f 9a c2 3d c3 cf 2f bd b2 2c 0b 3d 58 87 a0 3d
       0.09502112 -0.042922746 0.03397817 0.07838315
0001b0 df 56 0f be c2 76 63 bd 87 56 00 3d a7 2a a8 3c
       -0.13997982 -0.05553318 0.03133252 0.02052815
0001c0 46 a7 86 3d 1e 4f 98 3d 1c 23 07 bd 18 ba e8 3d
       0.065748736 0.074369654 -0.032992467 0.113636196
0001d0 9d ec e0 3b 4f de 1a 3d b1 8a 75 bb 83 0e 1c bc
       0.006864144 0.037809666 -0.00374667 -0.009524944
0001e0 af fe 6d bd 1c f4 87 bd 4e 33 08 3c eb d9 4b bd
       -0.058104213 -0.06638357 0.008313013 -0.04976837
0001f0 10 f4 6b 3d 16 31 ed 3d 77 a5 df bc 7b 07 b4 3d
       0.057605803 0.11581628 -0.02730058 0.08790489
000200 8c 19 b8 bd 96 62 09 bd e3 e7 ba 3c 64 eb 6d 3d
       -0.08989248 -0.033541285 0.02281565 0.058085814
000210 27 76 89 3d 47 75 b7 bd eb b5 6c bd 14 62 17 bd
       0.06711989 -0.08957916 -0.057790678 -0.03695877
000220 2e 7e a9 bd af ac 24 bd 7c 3c 0b bd 9e 64 8a 3d
       -0.0827602 -0.040203746 -0.03399323 0.067574725
000230 34 44 92 3d 10 67 32 bd b8 28 74 bd 61 90 fd bd
       0.07141915 -0.04355532 -0.059609145 -0.12381054
000240 62 94 45 bd 58 f0 b7 3d 5d e0 7e 3d 21 5c 39 bc
       -0.048237212 0.08981389 0.06222569 -0.011313469
000250 46 a2 49 3d 33 ed 2d 3d a5 d7 8e bc 49 07 dd bd
       0.04922702 0.04246254 -0.017436812 -0.10792405
000260 2a 8f fc 3c 2b 1c af bd 39 28 9e bd c6 70 e1 3c
       0.030829985 -0.085502945 -0.077225156 0.027519595
000270 a8 f3 c3 bd 8a 32 02 be aa 41 07 bd a2 32 98 3c
       -0.09567958 -0.12714592 -0.033021607 0.018578831
000280 44 5f 5f bd 95 c5 9a 3d 50 c7 99 3d 9c ad 6c bd
       -0.05453421 0.07557217 0.07508719 -0.057782754
000290 a3 12 b8 3d 66 1a bc 3d 34 a0 15 3d 2a 89 9d 3d
       0.0898793 0.091847226 0.036529735 0.076921776
0002a0 bb c4 c2 bd 2c ae 7f bd f2 eb ca bd f8 34 81 bd
       -0.095101796 -0.062421963 -0.09908284 -0.06308931
0002b0 ee 05 21 3d 96 b2 e9 bd 76 c0 aa 3d 57 d2 38 bd
       0.039312296 -0.11411016 0.0833749 -0.04512247
0002c0 6e bd 10 3d 47 62 a4 bd 50 24 9d bd 30 e0 fa 3c
       0.035336904 -0.080265574 -0.07672942 0.030624479
0002d0 e8 08 4f bd 28 c5 cb 3c a9 1b cc bc 16 35 d4 bd
       -0.050545603 0.024874285 -0.024915533 -0.10361688
0002e0 cc cf e8 bc 3b e0 08 3d e1 24 96 3d c4 27 49 3d
       -0.028419398 0.033416968 0.07331253 0.04911019
0002f0 4e df af bd df a8 30 bc 6f 2d 2d bd e8 fa b1 bd
       -0.08587514 -0.0107824495 -0.042279657 -0.08690435
000300 0b 12 98 bd 7a 59 57 3d 1b 2a 84 bd 1a 63 f1 bd
       -0.074253164 0.052575566 -0.064533435 -0.1178648
000310 5d 42 76 bd 00 7f ca bd 2c 65 39 bd 13 37 98 3d
       -0.060121883 -0.098875046 -0.0452625 0.074323796
000320 8f f7 72 3d 12 ea 5d 3d 34 50 7b 3c 64 fd 8f 3d
       0.05931812 0.054178305 0.015338946 0.07030752
000330 80 da ec bd 52 77 db 3d 79 6b 1d 3d b8 da de bd
       -0.11565113 0.10716118 0.038432572 -0.10881561
000340 97 86 e8 3c e1 d0 14 bd 45 dc b3 bd 52 56 c1 bc
       0.02838449 -0.036332015 -0.087822475 -0.023600731
000350 5a 88 a4 bc 48 39 95 bd cb d3 a9 bd ca 39 af bd
       -0.020084549 -0.07286316 -0.082923494 -0.08555944
000360 b0 05 99 3d bf c2 b5 bd dd c9 8d 3c d4 fb ac bd
       0.07471788 -0.088750355 0.01730817 -0.0844647
000370 10 5e 05 be b9 0d ef 3c 81 54 0b be ef 86 7a 3c
       -0.13024163 0.029181348 -0.13606454 0.01529096
000380 c7 e8 94 bd 37 67 72 3d a3 ff 31 bd a3 ba dd 3c
       -0.07270961 0.059180465 -0.043456685 0.027066534
000390 87 1a 2a 3d 19 8b 8e bd 0b 35 01 3d eb ba 50 3d
       0.041529205 -0.069601245 0.031544726 0.05095951
0003a0 2e eb d7 bc e4 3a b3 3d 5f 04 a0 3d 4c 1a 52 3d
       -0.02635726 0.08751467 0.07813334 0.05129461
0003b0 13 a2 fd bc 99 a2 8f 3c a2 75 16 3d 66 99 1c be
       -0.030961072 0.017533587 0.036733277 -0.15292892
0003c0 bd 11 34 bd 42 06 5e 3c d0 d5 f3 bb bb 1c 88 3d
       -0.04396223 0.013551297 -0.00744126 0.06646105
0003d0 f9 62 d2 bd e1 49 f2 3c b3 e6 37 bd 93 69 00 3d
       -0.10272784 0.029576244 -0.044897746 0.031350683
0003e0 1a e3 06 bd 92 fc 15 3d f2 a4 1b bd c1 68 9d bd
       -0.032931425 0.036617823 -0.0379991 -0.07685996
0003f0 c3 71 76 bd 84 1d 11 bd f0 f7 3a 3d d9 1f 2e 3d
       -0.060167085 -0.03542854 0.045646608 0.04251084

action_model._discrete_distribution.branches.0.bias f4 [2]
000000 7e c9 7e 3c 7c c9 7e bc
       0.015550969 -0.015550967

exp_avg f4 [256, 52]
000000 f5 4e f0 b6 4e f3 05 b8 1a 8e 8f b2 5e d4 58 b7
       -7.161749e-06 -3.1936266e-05 -1.6712011e-08 -1.2924049e-05
000010 f3 f4 cd b7 b9 85 fb 37 a7 d7 3a b8 45 f8 80 b8
       -2.4551968e-05 2.9983801e-05 -4.4546698e-05 -6.1497594e-05
000020 c4 40 f5 b7 4a 13 0b 37 1e 67 98 b7 60 8e b6 37
       -2.9236435e-05 8.289537e-06 -1.816783e-05 2.176239e-05
000030 b3 ea 28 38 91 e0 5f b8 86 32 da b7 11 a2 88 b8
       4.0272902e-05 -5.3376487e-05 -2.6011152e-05 -6.5151726e-05
000040 77 be ae b8 87 80 a9 38 7a 93 19 b8 a7 e0 97 b8
       -8.3324434e-05 8.082488e-05 -3.661539e-05 -7.242086e-05
000050 af 7c a3 b8 ed 42 3d 38 5e c5 d2 b6 5a eb 68 b8
       -7.79567e-05 4.512344e-05 -6.2814643e-06 -5.55323e-05
000060 f2 2a 9d 36 06 23 bf 37 04 a3 8b b8 93 df 98 b8
       4.683964e-06 2.2785283e-05 -6.6584005e-05 -7.289569e-05
000070 c7 d6 b1 b7 fd 40 97 b7 72 5b f9 33 cc 78 55 b8
       -2.1200058e-05 -1.8030865e-05 1.16116e-07 -5.089566e-05
000080 53 44 ca b7 07 59 13 b7 fe b5 d0 b6 f9 7c d2 b7
       -2.4112092e-05 -8.782611e-06 -6.2200697e-06 -2.5092146e-05
000090 d5 89 05 b8 cc 2a f4 b6 04 00 00 80 4e c4 7c b8
       -3.1838037e-05 -7.276749e-06 -6e-45 -6.0264305e-05
0000a0 5a 38 8f b5 62 95 1f b8 04 00 00 00 c1 06 4b b1
       -1.0670731e-06 -3.8047678e-05 6e-45 -2.9544227e-09
0000b0 bb 9a 18 b8 e2 46 37 b6 04 00 00 00 4d cc ba b7
       -3.6383728e-05 -2.7310384e-06 6e-45 -2.2268063e-05
0000c0 bb 9a 18 b8 e2 46 37 b6 04 00 00 00 4d cc ba b7
       -3.6383728e-05 -2.7310384e-06 6e-45 -2.2268063e-05
0000d0 e4 20 8c b7 e0 a0 1d b8 26 59 ca b2 de 83 a5 b7
       -1.6704616e-05 -3.7581543e-05 -2.3556435e-08 -1.9730938e-05
0000e0 0b b9 02 b8 7e 2c e4 37 0c 28 53 b8 47 e0 a6 b8
       -3.116675e-05 2.7200436e-05 -5.0343617e-05 -7.957272e-05
0000f0 e7 2d 35 b8 f8 bb 2d 36 da e1 65 b7 de b7 02 38
       -4.3196513e-05 2.588842e-06 -1.3702049e-05 3.1165655e-05
000100 d8 f3 19 38 99 5b 88 b8 88 0e da b7 9e 93 aa b8
       3.670514e-05 -6.502047e-05 -2.5994392e-05 -8.1337275e-05
000110 ea 3f d2 b8 2e 9e a1 38 63 87 02 b8 ca 92 a6 b8
       -0.00010025485 7.7065415e-05 -3.1120504e-05 -7.9428384e-05
000120 d2 a3 cd b8 69 fa 40 38 c1 d6 17 b6 c8 03 8c b8
       -9.805676e-05 4.600958e-05 -2.2625757e-06 -6.6764245e-05
000130 94 dd 27 37 0e 5b a5 37 cd 37 b0 b8 1d d4 a2 b8
       1.0005566e-05 1.9711933e-05 -8.402728e-05 -7.764271e-05
000140 99 e8 28 b8 0b 4f 6c b7 23 87 46 33 9c b9 99 b8
       -4.0270945e-05 -1.40851e-05 4.6223374e-08 -7.330181e-05
000150 e3 60 12 b7 3a 1d 1e b8 b3 54 04 b7 83 c4 e9 b7
       -8.724836e-06 -3.7697355e-05 -7.887534e-06 -2.7867272e-05
000160 75 26 26 b8 e1 90 76 b7 04 00 00 80 41 1b 99 b8
       -3.96133e-05 -1.4696475e-05 -6e-45 -7.300685e-05
000170 59 46 b6 37 e5 76 9f b8 04 00 00 00 a8 c0 07 36
       2.1728849e-05 -7.603857e-05 6e-45 2.0228708e-06
000180 48 7b 52 b8 8c 7a 8a b6 04 00 00 00 35 20 f2 b7
       -5.0182716e-05 -4.126987e-06 6e-45 -2.8863646e-05
000190 48 7b 52 b8 8c 7a 8a b6 04 00 00 00 35 20 f2 b7
       -5.0182716e-05 -4.126987e-06 6e-45 -2.8863646e-05
0001a0 20 63 16 b7 a3 d8 53 b7 b7 a8 eb b1 f9 5f 0e b7
       -8.963776e-06 -1.262702e-05 -6.858581e-09 -8.486205e-06
0001b0 2c b5 79 b7 c1 72 29 37 88 0b 8d b7 d1 8f e6 b7
       -1.4883739e-05 1.0099903e-05 -1.681388e-05 -2.7485106e-05
0001c0 f7 94 87 b7 f5 55 9f 35 13 34 de b6 1c 63 f4 36
       -1.6162621e-05 1.187144e-06 -6.622178e-06 7.2833045e-06
0001d0 8e 74 19 37 0a a9 b7 b7 ba 7b 14 b7 c4 8d e9 b7
       9.146648e-06 -2.1894015e-05 -8.850295e-06 -2.784178e-05
0001e0 7d 32 11 b8 6e fe d6 37 78 8c 53 b7 0c b6 ef b7
       -3.4617715e-05 2.5629266e-05 -1.26092855e-05 -2.8575792e-05
0001f0 de cf 1a b8 81 f3 8e 37 f1 05 e8 b5 87 4e be b7
       -3.6910053e-05 1.704111e-05 -1.7287076e-06 -2.2686332e-05
000200 2d c4 42 35 1e 2b 91 36 86 8d df b7 a9 e0 ee b7
       7.2556105e-07 4.3263562e-06 -2.6649574e-05 -2.8476426e-05
000210 45 8e 86 b7 7d 86 bb b6 5f 54 06 33 4c f3 c3 b7
       -1.6040294e-05 -5.588691e-06 3.127604e-08 -2.3359105e-05
000220 22 6b b4 b6 4a 37 61 b7 f3 b1 3b b6 d4 2f 3b b7
       -5.37689e-06 -1.3423918e-05 -2.7968752e-06 -1.1157204e-05
000230 09 36 8d b7 6e da 9f b6 04 00 00 80 a7 f3 da b7
       -1.6833672e-05 -4.763998e-06 -6e-45 -2.6101085e-05
000240 ac 37 a1 35 19 40 bf b7 04 00 00 00 92 08 d5 b5
       1.2011637e-06 -2.2798822e-05 6e-45 -1.5872231e-06
000250 cf 48 aa b7 bc 3c ae b5 04 00 00 00 2a 24 40 b7
       -2.0299483e-05 -1.2981686e-06 6e-45 -1.1452512e-05
000260 cf 48 aa b7 bc 3c ae b5 04 00 00 00 2a 24 40 b7
       -2.0299483e-05 -1.2981686e-06 6e-45 -1.1452512e-05
000270 ee 4b 7a b7 26 0c 3c 38 b9 ba 2b 33 5b ab 51 37
       -1.491884e-05 4.4834007e-05 3.9983863e-08 1.2497268e-05
000280 6e 9f 1a 38 62 4d 9f b8 d8 cf 90 38 b9 f3 ab 38
       3.686494e-05 -7.5961245e-05 6.905169e-05 8.199312e-05
000290 b1 65 b7 37 10 34 3d b7 5a 7c a2 37 d6 12 57 b8
       2.1862654e-05 -1.12774e-05 1.936981e-05 -5.1277537e-05
0002a0 8a dc 1e b8 71 d4 03 38 31 ac 18 38 93 90 b6 38
       -3.787553e-05 3.1430685e-05 3.639999e-05 8.705365e-05
0002b0 96 13 d6 38 3a ed fc b8 a2 57 4b 38 05 6d ad 38
       0.00010207963 -0.00012060483 4.8480586e-05 8.269589e-05
0002c0 58 1b e8 38 4e 45 b3 b8 63 c0 9f 36 46 80 8c 38
       0.00011067715 -8.548294e-05 4.760966e-06 6.699613e-05
0002d0 ba 91 74 b7 b4 d8 72 b8 a6 d0 d6 38 b2 bb bc 38
       -1.4577463e-05 -5.7899117e-05 0.00010243179 8.9994996e-05
0002e0 93 ac fc 35 8e 2c ec 37 86 d3 ae b3 62 28 80 38
       1.8825689e-06 2.815414e-05 -8.140982e-08 6.1110375e-05
0002f0 5a 04 32 b7 01 e4 bf 37 40 66 94 37 e2 41 02 38
       -1.061064e-05 2.2875147e-05 1.7690589e-05 3.1055773e-05
000300 1f c7 be 37 0a 05 f2 36 04 00 00 00 ce 39 8f 38
       2.2742488e-05 7.2127486e-06 6e-45 6.829538e-05
000310 ae 00 5c b8 5f d2 ac 38 04 00 00 80 83 33 e0 b6
       -5.245272e-05 8.240784e-05 -6e-45 -6.681717e-06
000320 96 fc cf 37 6c 2e ad 36 04 00 00 80 ef 03 9c 37
       2.4793942e-05 5.161206e-06 -6e-45 1.859848e-05
000330 96 fc cf 37 6c 2e ad 36 04 00 00 80 ef 03 9c 37
       2.4793942e-05 5.161206e-06 -6e-45 1.859848e-05
000340 01 ff eb 34 7f 3f 9a 35 2d f5 37 31 d6 27 d7 35
       4.39577e-07 1.1492374e-06 2.6769371e-09 1.6030342e-06
000350 e4 2f 0a 36 21 a8 f2 b5 1d e4 b3 35 73 d6 6b 36
       2.0591478e-06 -1.8079337e-06 1.3402929e-06 3.5142555e-06
000360 04 98 c5 b2 5f d7 d6 b5 7a c4 57 36 65 bb b3 35
       -2.3002947e-08 -1.6006924e-06 3.215186e-06 1.3391078e-06
000370 b2 48 14 b7 b5 85 2e 37 c2 d0 ec 32 5e 49 70 36
       -8.838413e-06 1.0402339e-05 2.7568948e-08 3.5805492e-06
000380 d1 03 be 36 a3 f5 0c b7 63 4e 91 36 6f 77 04 37
       5.6628855e-06 -8.401842e-06 4.330462e-06 7.895621e-06
000390 e5 6b e8 35 60 b4 88 b5 26 c8 6b 35 17 82 51 36
       1.7316748e-06 -1.0185286e-06 8.7835576e-07 3.121915e-06
0003a0 49 5d 4e b4 8d fb ca b6 ae 6a 03 37 23 6e 0f 37
       -1.9219182e-07 -6.0493535e-06 7.833047e-06 8.549107e-06
0003b0 ac 0e 26 b5 2a d7 14 36 3d a4 05 b2 93 55 3f 36
       -6.186117e-07 2.217896e-06 -7.778962e-09 2.8511029e-06
0003c0 c1 10 95 36 92 ec 4a b6 3c 8c 39 34 5b 6e 82 36
       4.4424964e-06 -3.0238048e-06 1.7280485e-07 3.887149e-06
0003d0 8b bf bf 35 8a df 2e 34 04 00 00 00 9d b0 04 36
       1.4286355e-06 1.6286336e-07 6e-45 1.9772335e-06
0003e0 1c f8 ea b5 ad 49 60 36 04 00 00 80 47 42 29 b5
       -1.7506568e-06 3.3421486e-06 -6e-45 -6.305385e-07
0003f0 42 7a a3 35 ed 83 c8 34 04 00 00 80 53 9c 46 b4
       1.2180028e-06 3.7348892e-07 -6e-45 -1.8497057e-07

exp_avg_sq f4 [256, 52]
000000 05 bd 0d 34 8e 2c 22 33 50 ae 6e 2e 7c 10 24 33
       1.3200413e-07 3.7759087e-08 5.4269755e-11 3.8199218e-08
000010 05 e0 82 33 56 35 d4 33 8d de bd 31 95 b2 00 33
       6.094346e-08 9.881721e-08 5.525925e-09 2.9964742e-08
000020 d2 bf 2a 34 47 80 ef 31 b8 7d 2a 31 95 01 63 33
       1.5902268e-07 6.970399e-09 2.4809719e-09 5.2853995e-08
000030 f1 2d 38 33 28 15 ed 33 16 a4 c5 31 e4 59 cc 32
       4.2882622e-08 1.1040021e-07 5.752109e-09 2.3789603e-08
000040 12 72 eb 33 d2 03 00 33 55 bb a5 32 ae 0a 9e 33
       1.09637895e-07 2.9805797e-08 1.9293717e-08 7.359391e-08
000050 99 f2 4e 33 d9 50 dc 33 98 38 6d 31 88 96 ad 32
       4.8183754e-08 1.02592544e-07 3.452021e-09 2.0208304e-08
000060 65 6a 0f 33 52 f6 b7 33 2f 0a 1a 33 82 1f 92 33
       3.3391547e-08 8.566407e-08 3.586518e-08 6.804386e-08
000070 b8 fa d5 33 ed 44 6d 33 de 26 df 30 d7 0c b6 32
       9.964191e-08 5.524355e-08 1.6236432e-09 2.1193427e-08
000080 93 48 af 33 8e 65 6b 33 f4 a2 85 32 b9 1e 75 33
       8.162274e-08 5.4807565e-08 1.555734e-08 5.707145e-08
000090 46 68 0c 34 db a3 01 33 80 b5 36 2f 51 06 d0 32
       1.307645e-07 3.018418e-08 1.6617285e-10 2.421726e-08
0000a0 31 17 2b 34 c9 4a d7 31 3a ac cf 2f 43 f0 3f 33
       1.5934053e-07 6.2658256e-09 3.7775455e-10 4.468917e-08
0000b0 40 35 34 34 16 3c f9 30 4e 81 4e 2d e4 34 1a 33
       1.6783179e-07 1.8134212e-09 1.1738456e-11 3.5904023e-08
0000c0 40 35 34 34 16 3c f9 30 4e 81 4e 2d e4 34 1a 33
       1.6783179e-07 1.8134212e-09 1.1738456e-11 3.5904023e-08
0000d0 90 f9 0f 34 3b 35 57 33 14 38 09 2e cc cf 28 33
       1.3408703e-07 5.0107e-08 3.12e-11 3.930454e-08
0000e0 b3 df 20 33 b1 b7 12 34 34 2f f4 31 83 ed ec 32
       3.7456356e-08 1.3664136e-07 7.106701e-09 2.7582024e-08
0000f0 57 17 42 34 a6 6f cd 31 69 7b f6 2f ca 51 71 33
       1.8076149e-07 5.978978e-09 4.4834828e-10 5.6186572e-08
000100 7f ab e1 32 55 34 22 34 07 54 b6 31 f3 d4 98 32
       2.6271435e-08 1.5106464e-07 5.30645e-09 1.7791967e-08
000110 e9 0b 1a 34 7c ea 09 33 a6 59 08 32 d2 25 99 33
       1.43467e-07 3.211106e-08 7.936626e-09 7.131497e-08
000120 c4 b9 77 33 1b e5 02 34 db 83 24 30 c2 8b 53 32
       5.7678122e-08 1.2190542e-07 5.985023e-10 1.2313594e-08
000130 a4 89 dc 32 8a db 08 34 20 d8 b7 32 4f a5 81 33
       2.5673963e-08 1.2745855e-07 2.1402286e-08 6.0371e-08
000140 ab 7e f5 33 3e a4 8c 33 aa 78 61 2f 4e 8e 77 32
       1.1431742e-07 6.5491335e-08 2.0506499e-10 1.4409649e-08
000150 4c 9c 9a 33 54 b5 bf 33 d9 21 77 32 af c9 6d 33
       7.199614e-08 8.927114e-08 1.4384988e-08 5.5364293e-08
000160 06 23 15 34 48 ba 32 33 ad 3a 06 2f 33 4f b2 32
       1.3889448e-07 4.1613276e-08 1.2208075e-10 2.0757943e-08
000170 8b 39 3a 34 8b f8 40 32 e1 e1 34 2f 11 91 4d 33
       1.7343534e-07 1.1232383e-08 1.6451153e-10 4.786222e-08
000180 57 8b 46 34 e4 b6 26 31 6c ed a1 2d e8 70 25 33
       1.8490879e-07 2.426014e-09 1.8409017e-11 3.8519744e-08
000190 57 8b 46 34 e4 b6 26 31 6c ed a1 2d e8 70 25 33
       1.8490879e-07 2.426014e-09 1.8409017e-11 3.8519744e-08
0001a0 f4 85 61 32 5e 45 b3 31 f1 04 3d 2c e6 46 7d 31
       1.3127181e-08 5.217472e-09 2.6861258e-12 3.6856647e-09
0001b0 2c 3b 8b 31 fb 6e 65 32 b5 ed 2e 30 16 6b 38 31
       4.0521595e-09 1.3354788e-08 6.3638633e-10 2.6836395e-09
0001c0 c5 a2 9a 32 c4 c9 fd 2f 07 51 1d 2f ae 66 c1 31
       1.8001979e-08 4.6163795e-10 1.4307854e-10 5.6287126e-09
0001d0 7e 70 4a 31 b4 96 75 32 b6 28 1f 30 89 4c 0f 31
       2.9458813e-09 1.4295143e-08 5.7901717e-10 2.0852744e-09
0001e0 6d f1 67 32 8f f7 32 31 34 25 e1 30 fe dd 09 32
       1.35008635e-08 2.604313e-09 1.6381478e-09 8.024925e-09
0001f0 bf 9a a5 31 18 bb 50 32 26 7b 00 30 98 e6 06 31
       4.8197246e-09 1.2149734e-08 4.6741133e-10 1.9630644e-09
000200 42 9c 3a 31 7b 52 3c 32 eb c5 6e 31 f3 aa f9 31
       2.7155385e-09 1.0961794e-08 3.4746062e-09 7.2662885e-09
000210 f0 0a 31 32 ac 01 e4 31 cd 13 0f 30 71 6f 1a 31
       1.0305243e-08 6.6358634e-09 5.2051236e-10 2.2473297e-09
000220 28 bc f4 31 e0 97 0a 32 82 23 03 31 f3 56 dc 31
       7.1227255e-09 8.06719e-09 1.9083193e-09 6.4127277e-09
000230 48 de 5f 32 68 b3 92 31 41 42 b2 2f 1a 64 32 31
       1.3030849e-08 4.2695554e-09 3.2425088e-10 2.595931e-09
000240 b7 d1 92 32 1a 77 87 30 b8 7e 40 2e c0 cf b3 31
       1.7092004e-08 9.856393e-10 4.3768295e-11 5.233204e-09
000250 79 bf 9d 32 45 bf 8b 2f 89 54 e6 2d cb e3 8e 31
       1.8364277e-08 2.5419858e-10 2.6185514e-11 4.158641e-09
000260 79 bf 9d 32 45 bf 8b 2f 89 54 e6 2d cb e3 8e 31
       1.8364277e-08 2.5419858e-10 2.6185514e-11 4.158641e-09
000270 bb 88 16 34 01 6f 9b 33 b4 9a 97 2f b1 86 67 33
       1.4019581e-07 7.2379414e-08 2.7576663e-10 5.390638e-08
000280 15 46 5d 33 ff 87 24 34 d9 5b 47 32 8c 1d 34 33
       5.151931e-08 1.5323165e-07 1.1604208e-08 4.193639e-08
000290 04 1a 5b 34 67 6c 71 32 1b 5c bb 30 7b 28 8f 33
       2.0405429e-07 1.4052694e-08 1.3632219e-09 6.66632e-08
0002a0 50 ea 47 33 80 d1 26 34 84 0f 1c 32 12 94 ea 32
       4.6546404e-08 1.553617e-07 9.083923e-09 2.730852e-08
0002b0 17 56 1b 34 0e 73 6b 33 11 0d 7a 32 40 e5 bb 33
       1.4466819e-07 5.4819843e-08 1.4554886e-08 8.7495664e-08
0002c0 3d 65 b7 33 97 b2 05 34 f4 da a8 30 6c 6e 95 32
       8.540017e-08 1.2451561e-07 1.2285839e-09 1.7396097e-08
0002d0 dd 7c 41 33 75 a7 08 34 10 7d 10 33 24 48 a7 33
       4.5049877e-08 1.2726908e-07 3.3641356e-08 7.789666e-08
0002e0 5f 9d 0b 34 0c 6f ac 33 51 84 ee 2f 23 a0 94 32
       1.3002635e-07 8.0295735e-08 4.3385964e-10 1.730229e-08
0002f0 bb d6 c8 33 12 75 cb 33 03 e5 aa 32 39 c0 92 33
       9.352285e-08 9.474219e-08 1.9894747e-08 6.83362e-08
000300 df 59 33 34 aa 07 43 33 6e 6f 2c 2f 9f ed ad 32
       1.6703369e-07 4.5408946e-08 1.5682897e-10 2.0247908e-08
000310 52 90 59 34 2b dc 64 32 9e b1 ff 2e a7 7c 69 33
       2.0262203e-07 1.3321407e-08 1.16276086e-10 5.436291e-08
000320 18 d2 68 34 b2 ee 65 31 dc 02 0d 2e 05 4c 2f 33
       2.1683115e-07 3.3459568e-09 3.2062228e-11 4.0814502e-08
000330 18 d2 68 34 b2 ee 65 31 dc 02 0d 2e 05 4c 2f 33
       2.1683115e-07 3.3459568e-09 3.2062228e-11 4.0814502e-08
000340 8c ae e3 30 dc 2e 6d 2f c0 ed 72 2c 11 99 e0 2f
       1.6566033e-09 2.1571672e-10 3.4522246e-12 4.0854123e-10
000350 bb be bf 30 27 84 f0 2f 53 1b a1 2d 10 ca c4 2f
       1.3951288e-09 4.3749646e-10 1.8315715e-11 3.5795766e-10
000360 6f e1 d6 30 cd e2 88 2f 31 f0 0c 2e fd 15 e3 2f
       1.5634621e-09 2.4899408e-10 3.2045647e-11 4.1306683e-10
000370 d7 bb 81 30 47 c0 45 30 f7 ef 12 2e bb c6 93 2f
       9.439373e-10 7.1941425e-10 3.3409688e-11 2.688035e-10
000380 d4 19 8a 30 6a c4 17 30 c3 5e ca 2e b3 08 13 30
       1.0048162e-09 5.52126e-10 9.2027296e-11 5.349065e-10
000390 72 45 88 30 d1 ef 0e 30 5d f4 cf 2e 72 b3 e1 2f
       9.91504e-10 5.20001e-10 9.456678e-11 4.1054765e-10
0003a0 28 f7 b6 2f fc c1 63 30 53 9b 09 30 51 de 55 30
       3.3281222e-10 8.285779e-10 5.006104e-10 7.780488e-10
0003b0 f8 bd a3 30 18 fb 84 2f f2 bf 50 2f 8f 4f 13 30
       1.1913803e-09 2.4189073e-10 1.8985682e-10 5.359135e-10
0003c0 cf 92 53 30 55 4d e4 2f 5b d0 e9 2f 64 60 57 30
       7.696998e-10 4.1527906e-10 4.2530499e-10 7.8353524e-10
0003d0 71 f5 b0 30 0e a5 3e 2f 0f bd 28 2f c5 5d 1a 30
       1.2875444e-09 1.7339039e-10 1.5346678e-10 5.615813e-10
0003e0 fd d0 cb 30 0e c5 f6 2e 75 43 aa 2e 32 10 34 30
       1.4829592e-09 1.1221789e-10 7.742688e-11 6.5506633e-10
0003f0 73 37 e9 30 97 bc c0 2e 4c b1 e0 2d b2 b0 1e 30
       1.6968741e-09 8.7646494e-11 2.5544587e-11 5.7731164e-10

exp_avg f4 [256]
000000 da 32 24 b8 81 07 64 b8 17 32 b5 b7 6c ff fa 37
       -3.9148006e-05 -5.4366425e-05 -2.1600206e-05 2.9921262e-05
000010 4f c2 d5 35 c6 0f 04 38 53 9e 25 38 df 4c ab 37
       1.5926288e-06 3.1485943e-05 3.9486516e-05 2.0420584e-05
000020 57 9b a8 b7 bd 6b bd b7 91 39 37 b8 d1 0f 8c b8
       -2.0099496e-05 -2.2580725e-05 -4.3684213e-05 -6.678666e-05
000030 e3 43 50 38 d9 93 80 b8 b4 14 8b 38 c5 1b 82 38
       4.965429e-05 -6.1310544e-05 6.631893e-05 6.2040555e-05
000040 b2 b6 67 b7 c2 93 c1 b6 17 2e 06 b9 59 09 fe 37
       -1.381121e-05 -5.7690495e-06 -0.00012796406 3.0283512e-05
000050 0f 55 ae 37 ae d2 1a b8 52 be 25 38 5f dc 0f 37
       2.0782025e-05 -3.6912672e-05 3.9516315e-05 8.574773e-06
000060 bc 38 97 b8 2e b2 7f b8 72 14 15 39 8d b3 1b b7
       -7.210809e-05 -6.096268e-05 0.00014217364 -9.280525e-06
000070 48 76 16 b8 9d ff 70 38 4a 94 86 b8 72 af 98 b8
       -3.5872945e-05 5.7458517e-05 -6.417239e-05 -7.280604e-05
000080 6b 8f 22 b8 c0 80 b4 b5 4f a5 cd b6 71 ec b2 38
       -3.875738e-05 -1.3448516e-06 -6.1287205e-06 8.531742e-05
000090 80 3f 83 b8 48 35 43 37 08 32 c0 b8 d7 49 15 37
       -6.2583946e-05 1.1635311e-05 -9.1645925e-05 8.898284e-06
0000a0 14 69 78 b7 d1 83 94 38 ba d1 5e 38 78 5a 26 38
       -1.4806417e-05 7.081743e-05 5.3124248e-05 3.966174e-05
0000b0 53 62 8c 38 91 a8 43 b8 d4 be 70 b8 a3 7d 94 b8
       6.6940345e-05 -4.6648613e-05 -5.739818e-05 -7.0805916e-05
0000c0 ef 97 05 b9 6f 9b a9 b8 5c 9c 70 b7 9c b1 0e 37
       -0.00012740468 -8.0875e-05 -1.434152e-05 8.5052125e-06
0000d0 cd ad 79 b8 0b 14 d3 b7 fc 07 06 b8 08 00 3b b8
       -5.952809e-05 -2.5162493e-05 -3.1955526e-05 -4.4584303e-05
0000e0 47 68 38 b8 4a 0e db 37 da 47 49 38 85 fa 2d 38
       -4.3966134e-05 2.6113488e-05 4.798905e-05 4.147973e-05
0000f0 f6 31 94 b3 76 9d c0 33 0c 8b 5a b4 e5 80 0d 38
       -6.900875e-08 8.969339e-08 -2.0353417e-07 3.3737062e-05
000100 c4 51 85 b8 e2 9a bf 35 f9 f1 b9 37 6b 28 18 37
       -6.357164e-05 1.4275686e-06 2.2166396e-05 9.069317e-06
000110 72 6e 2f 38 de 64 9f b8 84 f8 45 36 99 67 2b 39
       4.182611e-05 -7.600499e-05 2.9499943e-06 0.00016346424
000120 1c 6f 93 b6 6b da 27 37 9c 88 df b7 1b 0d b1 b8
       -4.393876e-06 1.000483e-05 -2.6647285e-05 -8.442459e-05
000130 05 49 bc b8 4f c1 9f 38 44 af 2f b8 ba 60 48 b8
       -8.9781395e-05 7.617717e-05 -4.188648e-05 -4.77738e-05
000140 42 47 d7 b6 f9 0e aa b8 9e a6 20 b8 a2 47 c9 36
       -6.415795e-06 -8.1090206e-05 -3.8302147e-05 5.998606e-06
000150 fa 05 86 b6 5d 3a e9 b6 59 a5 94 37 66 73 90 37
       -3.994207e-06 -6.9507355e-06 1.771997e-05 1.7219874e-05
000160 84 df 59 38 4c dd 3e 38 18 5b 21 b8 8f 07 2a b7
       5.1944997e-05 4.550563e-05 -3.847023e-05 -1.01345495e-05
000170 cf d5 8f 37 32 70 5c b7 d4 f6 25 b9 7f 7d 77 b7
       1.714649e-05 -1.3139144e-05 -0.00015827577 -1.4751567e-05
000180 da f5 f2 b7 52 26 ce b7 f9 22 b8 36 28 87 49 38
       -2.8963132e-05 -2.4574958e-05 5.4876987e-06 4.804801e-05
000190 0e c3 2f 38 39 e8 75 37 a5 31 52 b6 db 45 15 b8
       4.190491e-05 1.46572065e-05 -3.1321335e-06 -3.5589426e-05
0001a0 66 b3 d6 b8 01 e7 84 37 9d 65 1f b8 b6 d0 c0 b8
       -0.00010237731 1.5843196e-05 -3.800319e-05 -9.194149e-05
0001b0 8c a8 a5 37 f1 9a f1 37 b6 ff 53 b8 8c 8e f0 b7
       1.9748019e-05 2.8801589e-05 -5.054447e-05 -2.8676608e-05
0001c0 e8 86 58 b8 6a df 09 b9 06 a8 e2 b6 8c eb 12 b9
       -5.1624054e-05 -0.00013148566 -6.7548854e-06 -0.00014011393
0001d0 49 96 de b6 e6 37 07 b8 d1 57 7b b3 7d 56 e6 35
       -6.633611e-06 -3.2238568e-05 -5.852036e-08 1.7161507e-06
0001e0 e5 3c 1e 38 d7 fb 59 b6 66 52 98 b6 e9 6f 6f 37
       3.7726848e-05 -3.248211e-06 -4.5395454e-06 1.4271566e-05
0001f0 97 62 75 b8 ce 3d 19 b9 38 e5 d3 37 48 5e 01 b9
       -5.850437e-05 -0.00014614241 2.5259898e-05 -0.00012337521
000200 34 46 38 38 4d 37 cc 37 b7 a1 0b b8 00 5b a4 b8
       4.39344e-05 2.4344447e-05 -3.329079e-05 -7.8370795e-05
000210 63 ff c2 b8 01 42 2f 38 30 1c ff 37 9f 9c 8d 37
       -9.29821e-05 4.1784722e-05 3.0411495e-05 1.6881442e-05
000220 9d d6 45 38 d1 f7 34 37 6b 05 c1 37 b8 97 7f b8
       4.7168334e-05 1.0786535e-05 2.3009916e-05 -6.0938037e-05
000230 83 ad 94 b8 80 49 c3 37 57 07 09 37 37 78 f0 38
       -7.089509e-05 2.3280038e-05 8.167545e-06 0.000114664836
000240 46 0d 65 38 73 f8 16 b9 54 ce 0e b8 17 a1 96 36
       5.4610216e-05 -0.0001439767 -3.4047596e-05 4.4891017e-06
000250 f4 3b aa b8 3d 4e 66 b7 2e cb f1 37 64 22 7a 38
       -8.117399e-05 -1.3727285e-05 2.8824052e-05 5.9636674e-05
000260 59 eb d1 b7 37 ce a9 38 97 3d b0 38 63 c7 e7 b7
       -2.5024334e-05 8.0969585e-05 8.403806e-05 -2.7630193e-05
000270 94 d4 39 38 17 b5 37 38 8a b0 a3 37 9b 90 b0 b6
       4.4305416e-05 4.3799253e-05 1.9513322e-05 -5.262043e-06
000280 ee 7e 23 b4 b5 b4 89 b8 3d 7d 29 b8 9c 8a c5 37
       -1.5226735e-07 -6.5663284e-05 -4.0409377e-05 2.3548775e-05
000290 df c5 ea b8 b7 02 dd b8 91 37 03 b8 87 15 1c b8
       -0.00011194846 -0.00010538607 -3.1284584e-05 -3.7213347e-05
0002a0 6b f4 46 38 8b ed da 37 97 62 e2 b5 69 ef 8a b7
       4.743451e-05 2.609824e-05 -1.6867006e-06 -1.6562366e-05
0002b0 49 1a 6b b7 fa 7a 38 38 f4 f0 e5 b8 6b 08 d3 37
       -1.40132115e-05 4.398355e-05 -0.00010964452 2.515708e-05
0002c0 54 f6 21 b8 52 cf 93 38 0c 27 6d 38 ca 37 5d b7
       -3.8614802e-05 7.048123e-05 5.654157e-05 -1.3185616e-05
0002d0 3c 7e 37 37 fd 28 ed b7 9e 73 ad b6 5e e1 54 38
       1.0937041e-05 -2.8271688e-05 -5.1692614e-06 5.075463e-05
0002e0 44 ea 8d 37 95 9f 24 b8 1f f6 9f b8 7d 9a 10 b8
       1.6917598e-05 -3.924927e-05 -7.6275544e-05 -3.4476154e-05
0002f0 4b 1c 6d b7 cb a9 c1 35 9c 46 be 37 fa c3 69 38
       -1.4132888e-05 1.4429037e-06 2.2682645e-05 5.5734046e-05
000300 c9 7b 11 38 d2 77 0b b8 1c a6 27 b7 68 4a 19 37
       3.4685978e-05 -3.3251774e-05 -9.992651e-06 9.136835e-06
000310 4a 0a 2c 37 2c 91 5d 38 60 d4 b3 37 b7 97 c4 b8
       1.02543945e-05 5.2825708e-05 2.1437358e-05 -9.3742674e-05
000320 8b bc 93 b8 74 f5 38 b6 79 e2 a0 b7 26 cf ff b8
       -7.044625e-05 -2.756101e-06 -1.9178946e-05 -0.00012197932
000330 74 50 c7 38 64 5a 16 b8 c6 af 68 b8 a6 76 5a 38
       9.504045e-05 -3.584697e-05 -5.5476812e-05 5.208575e-05
000340 7c 37 00 b8 9f 79 45 36 10 f9 57 b7 53 41 d0 35
       -3.0569252e-05 2.942608e-06 -1.2872988e-05 1.551622e-06
000350 66 f6 2f 37 40 15 96 b7 9f 97 b0 38 1b a5 66 38
       1.0488182e-05 -1.7891289e-05 8.4205756e-05 5.499004e-05
000360 62 9e 5d b8 05 94 e1 34 72 77 c2 b7 c7 3b bf 38
       -5.283801e-05 4.2017214e-07 -2.3182223e-05 9.118724e-05
000370 48 84 85 b7 77 74 a2 b7 dc b9 4b 38 83 db 60 b7
       -1.5916434e-05 -1.9366138e-05 4.8572067e-05 -1.34025495e-05
000380 21 86 08 38 ac 5f 87 b8 0c 77 2d 37 63 4b 1e b8
       3.2549844e-05 -6.455122e-05 1.0339321e-05 -3.7740345e-05
000390 63 9c d7 b7 ce c8 4a 38 11 82 f0 b7 fc 30 8f b8
       -2.570282e-05 4.8347567e-05 -2.8670796e-05 -6.8278954e-05
0003a0 6f e1 15 b6 27 1c a0 b8 29 34 89 b8 37 cc 8c b8
       -2.233395e-06 -7.634638e-05 -6.542385e-05 -6.713758e-05
0003b0 74 dd 73 37 c2 96 45 b7 24 9a 58 b8 df 39 5a 38
       1.453549e-05 -1.1777216e-05 -5.1641968e-05 5.2029147e-05
0003c0 69 0f a3 37 e7 40 01 b8 40 02 26 b6 d7 ec 1f b8
       1.943829e-05 -3.081644e-05 -2.4737237e-06 -3.812913e-05
0003d0 4d bb 5d 38 90 7a 76 b7 a0 7d 88 b6 62 17 27 b6
       5.2864943e-05 -1.4691279e-05 -4.0677405e-06 -2.489855e-06
0003e0 73 88 ac 37 74 65 53 b8 c2 9d 99 b7 51 68 3d 38
       2.0567537e-05 -5.0400806e-05 -1.8312483e-05 4.5158264e-05
0003f0 17 bf 2e 38 9d 7d ae 37 24 ba 6e b8 5b 62 0a b8
       4.16628e-05 2.080091e-05 -5.691698e-05 -3.2993365e-05
