Chrome/ml-agents-release_20/results-force/bird/FlappyBird/FlappyBird-702510.onnx (onnx, 58113 bytes, 4 tensors)

action_model._discrete_distribution.branches.0.bias f4 [2]
0.015550969 -0.015550967
00000000: 7ec9 7e3c 7cc9 7ebc

action_model._discrete_distribution.branches.0.weight f4 [2, 256]
0.060780283 0.060076438 0.015793918 -0.09067664 -0.010518595 -0.041292813 -0.065798104 -0.09999281
0.06241322 0.020055622 0.032585844 0.060636774 -0.120951675 0.0680744 -0.118084505 -0.063402705
0.02549072 0.048749603 0.118994564 -0.0491647 -0.061255224 0.025564054 -0.105211146 -0.019426398
0.05348546 0.059566114 -0.11906692 0.025174616 0.014577048 -0.058123462 0.04976945 0.08649891
0.04036891 0.0047158534 -0.06545094 -0.084749036 0.061727267 -0.056671947 0.08190783 -0.017013527
0.017010033 -0.14322202 -0.061228637 -0.039271496 -0.096342735 0.119127065 0.06308322 0.08042749
0.08926779 0.06805146 0.03397486 -0.014091374 0.05504555 0.023374079 0.034317378 0.0595132
0.035200994 -0.122492485 -0.06715509 -0.10128171 0.055167243 0.005762209 -0.012662263 -0.049914066
0.066483244 -0.044789027 -0.07756688 -0.095356315 -0.069500305 0.06645745 0.0024255856 -0.12346749
-0.038535308 -0.10438458 0.04830436 0.068028286 0.07895664 -0.16023315 0.03563043 0.029185362
-0.023835625 0.050059095 0.03907709 -0.049220487 0.013517633 -0.058316767 -0.032725938 -0.04708706
-0.11819478 -0.12503871 0.08645481 0.024612162 -0.07066867 0.012130415 0.1150259 -0.09210649
0.04032149 0.030332683 -0.019152239 -0.07452563 -0.09863695 -0.040560037 -0.023650821 0.05737849
0.09502112 -0.042922746 0.03397817 0.07838315 -0.13997982 -0.05553318 0.03133252 0.02052815
0.065748736 0.074369654 -0.032992467 0.113636196 0.006864144 0.037809666 -0.00374667 -0.009524944
-0.058104213 -0.06638357 0.008313013 -0.04976837 0.057605803 0.11581628 -0.02730058 0.08790489
-0.08989248 -0.033541285 0.02281565 0.058085814 0.06711989 -0.08957916 -0.057790678 -0.03695877
-0.0827602 -0.040203746 -0.03399323 0.067574725 0.07141915 -0.04355532 -0.059609145 -0.12381054
-0.048237212 0.08981389 0.06222569 -0.011313469 0.04922702 0.04246254 -0.017436812 -0.10792405
0.030829985 -0.085502945 -0.077225156 0.027519595 -0.09567958 -0.12714592 -0.033021607 0.018578831
-0.05453421 0.07557217 0.07508719 -0.057782754 0.0898793 0.091847226 0.036529735 0.076921776
-0.095101796 -0.062421963 -0.09908284 -0.06308931 0.039312296 -0.11411016 0.0833749 -0.04512247
0.035336904 -0.080265574 -0.07672942 0.030624479 -0.050545603 0.024874285 -0.024915533 -0.10361688
-0.028419398 0.033416968 0.07331253 0.04911019 -0.08587514 -0.0107824495 -0.042279657 -0.08690435
-0.074253164 0.052575566 -0.064533435 -0.1178648 -0.060121883 -0.098875046 -0.0452625 0.074323796
0.05931812 0.054178305 0.015338946 0.07030752 -0.11565113 0.10716118 0.038432572 -0.10881561
0.02838449 -0.036332015 -0.087822475 -0.023600731 -0.020084549 -0.07286316 -0.082923494 -0.08555944
0.07471788 -0.088750355 0.01730817 -0.0844647 -0.13024163 0.029181348 -0.13606454 0.01529096
-0.07270961 0.059180465 -0.043456685 0.027066534 0.041529205 -0.069601245 0.031544726 0.05095951
-0.02635726 0.08751467 0.07813334 0.05129461 -0.030961072 0.017533587 0.036733277 -0.15292892
-0.04396223 0.013551297 -0.00744126 0.06646105 -0.10272784 0.029576244 -0.044897746 0.031350683
-0.032931425 0.036617823 -0.0379991 -0.07685996 -0.060167085 -0.03542854 0.045646608 0.04251084
00000000: bff4 783d b612 763d 3f62 813c adb4 b9bd
00000010: 2f56 2cbc a722 29bd 28c1 86bd 08c9 ccbd
00000020: 01a5 7f3d b04b a43c bc78 053d 445e 783d
00000030: 83b5 f7bd 976a 8b3d 4ad6 f1bd 47d9 81bd
00000040: ead1 d03c aaad 473d 6cb3 f33d ed60 49bd
00000050: c2e6 7abd b56b d13c f178 d7bd 1c24 9fbc
00000060: 9213 5b3d 99fb 733d 5bd9 f3bd ff3a ce3c
00000070: 92d4 6e3c de12 6ebd 0ddb 4b3d 5726 b13d
00000080: df59 253d 7287 9a3b 240b 86bd e790 adbd
00000090: bbd5 7c3d d820 68bd 4bbf a73d f45f 8bbc
000000a0: a058 8b3c cba8 12be e1ca 7abd 26db 20bd
000000b0: 574f c5bd e4f8 f33d c631 813d 2bb7 a43d
000000c0: 08d2 b63d 905e 8b3d 3929 0b3d 82df 66bc
000000d0: 7177 613d ff7a bf3c 6190 0c3d 1dc4 733d
000000e0: eb2e 103d 57dd fabd 9c88 89bd c96c cfbd
000000f0: 0cf7 613d ead0 bc3b 6175 4fbc b172 4cbd
00000100: 5e28 883d b374 37bd 62db 9ebd 2c4a c3bd
00000110: 2d56 8ebd d81a 883d 93f6 1e3b 86dc fcbd
00000120: 33d7 1dbd 95c7 d5bd cbda 453d 6a52 8b3d
00000130: 05b4 a13d 2914 24be 37f1 113d 2416 ef3c
00000140: ee42 c3bc c40a 4d3d 4c0f 203d 6c9b 49bd
00000150: 1079 5d3c 90dd 6ebd a20b 06bd 5cde 40bd
00000160: 1b10 f2bd 260a 00be 380f b13d 729f c93c
00000170: bcba 90bd a6be 463c b392 eb3d 54a2 bcbd
00000180: 2628 253d 3f7c f83c 28e5 9cbc e5a0 98bd
00000190: 2b02 cabd 4822 26bd 5ebf c1bc b505 6b3d
000001a0: 6f9a c23d c3cf 2fbd b22c 0b3d 5887 a03d
000001b0: df56 0fbe c276 63bd 8756 003d a72a a83c
000001c0: 46a7 863d 1e4f 983d 1c23 07bd 18ba e83d
000001d0: 9dec e03b 4fde 1a3d b18a 75bb 830e 1cbc
000001e0: affe 6dbd 1cf4 87bd 4e33 083c ebd9 4bbd
000001f0: 10f4 6b3d 1631 ed3d 77a5 dfbc 7b07 b43d
00000200: 8c19 b8bd 9662 09bd e3e7 ba3c 64eb 6d3d
00000210: 2776 893d 4775 b7bd ebb5 6cbd 1462 17bd
00000220: 2e7e a9bd afac 24bd 7c3c 0bbd 9e64 8a3d
00000230: 3444 923d 1067 32bd b828 74bd 6190 fdbd
00000240: 6294 45bd 58f0 b73d 5de0 7e3d 215c 39bc
00000250: 46a2 493d 33ed 2d3d a5d7 8ebc 4907 ddbd
00000260: 2a8f fc3c 2b1c afbd 3928 9ebd c670 e13c
00000270: a8f3 c3bd 8a32 02be aa41 07bd a232 983c
00000280: 445f 5fbd 95c5 9a3d 50c7 993d 9cad 6cbd
00000290: a312 b83d 661a bc3d 34a0 153d 2a89 9d3d
000002a0: bbc4 c2bd 2cae 7fbd f2eb cabd f834 81bd
000002b0: ee05 213d 96b2 e9bd 76c0 aa3d 57d2 38bd
000002c0: 6ebd 103d 4762 a4bd 5024 9dbd 30e0 fa3c
000002d0: e808 4fbd 28c5 cb3c a91b ccbc 1635 d4bd
000002e0: cccf e8bc 3be0 083d e124 963d c427 493d
000002f0: 4edf afbd dfa8 30bc 6f2d 2dbd e8fa b1bd
00000300: 0b12 98bd 7a59 573d 1b2a 84bd 1a63 f1bd
00000310: 5d42 76bd 007f cabd 2c65 39bd 1337 983d
00000320: 8ff7 723d 12ea 5d3d 3450 7b3c 64fd 8f3d
00000330: 80da ecbd 5277 db3d 796b 1d3d b8da debd
00000340: 9786 e83c e1d0 14bd 45dc b3bd 5256 c1bc
00000350: 5a88 a4bc 4839 95bd cbd3 a9bd ca39 afbd
00000360: b005 993d bfc2 b5bd ddc9 8d3c d4fb acbd
00000370: 105e 05be b90d ef3c 8154 0bbe ef86 7a3c
00000380: c7e8 94bd 3767 723d a3ff 31bd a3ba dd3c
00000390: 871a 2a3d 198b 8ebd 0b35 013d ebba 503d
000003a0: 2eeb d7bc e43a b33d 5f04 a03d 4c1a 523d
000003b0: 13a2 fdbc 99a2 8f3c a275 163d 6699 1cbe
000003c0: bd11 34bd 4206 5e3c d0d5 f3bb bb1c 883d
000003d0: f962 d2bd e149 f23c b3e6 37bd 9369 003d
000003e0: 1ae3 06bd 92fc 153d f2a4 1bbd c168 9dbd
000003f0: c371 76bd 841d 11bd f0f7 3a3d d91f 2e3d

network_body._body_endoder.seq_layers.0.bias f4 [256]
0.042681072 0.03805743 0.011118526 0.05891954 -0.0051758573 -0.0038960907 0.023631625 0.021317055
0.048669014 0.017853534 0.02434409 0.04469217 0.050039615 0.042392734 0.033561725 0.026987623
0.019194415 0.037560254 0.071775235 0.008513471 0.031433858 0.021992894 0.027214415 -0.008550328
0.03357034 0.04427789 0.1074874 0.017214537 0.017334575 0.02143016 0.035361927 0.03997969
0.037586838 -0.008215712 0.06594188 0.01682568 0.029889634 0.009300983 0.046732485 -0.0055786963
0.0061169197 0.03165445 0.03178484 -0.008772527 0.039918963 0.06736002 0.050216015 0.04622981
0.051295824 0.044578854 0.036204245 -0.003350311 0.071170874 0.019746836 0.023573898 0.042916425
0.0531253 0.062217608 0.016400963 0.025659269 0.029468881 -0.023759834 -0.0028113334 0.009177841
0.04368803 -0.0041528963 0.0045171315 0.063228294 0.032848135 0.030226093 -0.012426883 0.052203078
-0.016611671 0.070503116 0.03544508 0.036762506 0.0474904 0.021011367 0.02457754 0.012301266
-0.028286532 0.034101475 0.029257799 0.016745448 0.021409629 0.052653726 0.0026338317 0.03233257
0.048000865 0.05510609 0.045022205 0.009963488 0.051675923 0.007483896 0.06353598 0.071914226
0.025954342 0.024682423 -0.004144565 0.04972309 0.012918641 -0.009325937 -0.030438298 0.041883823
0.053624835 -0.004706014 0.01936885 0.047454976 0.041801166 0.020213638 0.028419783 0.012366831
0.036381517 0.05284437 0.0033933998 0.05658017 0.014880408 0.021024002 -0.00816916 -0.013370445
-0.0035056002 0.021433242 0.018976223 -0.014962921 0.038262606 0.068026036 0.02870637 0.062263668
0.03977393 0.04029118 0.022471158 0.036100466 0.04794287 0.023082439 0.017993154 0.062025074
0.0758363 0.025838677 0.037300467 0.0398249 0.042302653 0.036370885 0.021822546 0.038100727
0.002243386 0.050351907 0.054252226 -0.020990083 0.041124564 0.026071 -0.006760125 0.047293916
0.021815304 0.04287207 0.017522126 0.019811338 0.048155826 0.06152374 0.009552266 0.016704548
0.02063281 0.046066537 0.056323595 0.048899546 0.052848957 0.06854281 0.016639313 0.065284275
0.025101546 0.073374644 0.041622832 0.006876949 0.019654013 0.012272526 0.057331547 0.04172417
0.034649204 0.030696517 0.06145555 0.021389237 0.03794906 0.01814179 -0.011158302 0.035077382
-0.005844048 0.019194137 0.08586009 0.03659286 0.026757332 -0.030255994 0.012782525 0.026467923
0.030588701 0.02105579 0.011769137 0.031339616 0.045405224 0.027804254 0.018193305 0.05531079
0.041811336 0.022160878 0.012966223 0.054755554 0.053322125 0.09121774 0.025377376 0.058587674
0.026200445 -0.016051091 0.008264657 -0.039831612 -0.014554919 0.060964584 0.019007642 0.03952202
0.04082388 0.03916032 0.021282699 0.113257475 0.018295629 0.035824303 0.0597845 0.0071532093
0.04869808 0.033532336 0.046459116 0.018629204 0.029734507 0.029886479 0.026694382 0.03401468
0.026190141 0.043650016 0.046860494 0.031380765 0.0036347946 0.011368897 0.026490971 0.049867332
0.017025325 0.018244809 -0.041379634 0.039330255 0.016299551 0.018860668 0.017058654 0.038851336
-0.00095133414 0.033779815 0.011058742 0.027411409 0.018626705 0.0011744922 0.031324584 0.032576427
00000000: 59d2 2e3d 1ce2 1b3d 7a2a 363c 9e55 713d
00000010: 3d9a a9bb 8e55 7fbb 1c97 c13c 1ba1 ae3c
00000020: 2959 473d 9341 923c 426d c73c 230f 373d
00000030: 57f6 4c3d 01a4 2d3d 0578 093d 2615 dd3c
00000040: 9b3d 9d3c c8d8 193d e5fe 923d 167c 0b3c
00000050: cac0 003d 712a b43c c4f0 de3c ad16 0cbc
00000060: 0e81 093d bc5c 353d 5b22 dc3d 8005 8d3c
00000070: 3d01 8e3c 4e8e af3c abd7 103d bec1 233d
00000080: a8f4 193d 329b 06bc 890c 873d 02d6 893c
00000090: 1bdb f43c 2663 183c 906a 3f3d 7fcd b6bb
000000a0: 7170 c83b 19a8 013d d230 023d a5ba 0fbc
000000b0: 1182 233d 0df4 893d 4faf 4d3d 785b 3d3d
000000c0: 921b 523d 5198 363d e74a 143d e490 5bbb
000000d0: 09c2 913d 1ec4 a13c 0c1e c13c 22c9 2f3d
000000e0: ea99 593d e4d7 7e3d 505b 863c 6333 d23c
000000f0: b968 f13c fca3 c2bc 593e 38bb a85e 163c
00000100: 38f2 323d 0515 88bb 7204 943b d67d 813d
00000110: c48b 063d b69c f73c 209a 4bbc e5d2 553d
00000120: 3315 88bc f063 903d dc2e 113d 4894 163d
00000130: 4b85 423d 0820 ac3c d656 c93c 408b 493c
00000140: 28b9 e7bc fdad 0b3d 0dae ef3c c02d 893c
00000150: 3f63 af3c 6fab 573d 5d9c 2c3b 286f 043d
00000160: 8e9c 443d ecb6 613d 3469 383d e63d 233c
00000170: 22aa 533d 783b f53b 271f 823d c447 933d
00000180: 339e d43c cb32 ca3c 22cf 87bb 70aa 4b3d
00000190: b5a8 533c d1cb 18bc bd59 f9bc 5f8e 2b3d
000001a0: b7a5 5b3d e834 9abb 6cab 9e3c 2660 423d
000001b0: b337 2b3d 1297 a53c 9bd0 e83c 409e 4a3c
000001c0: c904 153d 5773 583d cd63 5e3b 9cc0 673d
000001d0: f4cc 733c 873a ac3c f1d7 05bc b60f 5bbc
000001e0: 36be 65bb c494 af3c 0674 9b3c 0a27 75bc
000001f0: 40b9 1c3d 3c51 8b3d 9f29 eb3c 3008 7f3d
00000200: fde9 223d 5d08 253d 6f15 b83c 15de 133d
00000210: be5f 443d 6217 bd3c 6166 933c 010e 7e3d
00000220: 1050 9b3d a2ab d33c 60c8 183d 6f1f 233d
00000230: 8c45 2d3d a3f9 143d 32c5 b23c 820f 1c3d
00000240: c605 133b cd3d 4e3d 9537 5e3d 65f3 abbc
00000250: 3b72 283d da92 d53c 0a84 ddbb 44b7 413d
00000260: 02b6 b23c a09a 2f3d 908a 8f3c 634b a23c
00000270: 0b3f 453d 5100 7c3d 1c81 1c3c fad7 883c
00000280: 2406 a93c 44b0 3c3d 92b3 663d e44a 483d
00000290: 2678 583d 2c60 8c3d 2b4f 883c c3b3 853d
000002a0: c2a1 cd3c 7245 963d b47c 2a3d 0858 e13b
000002b0: 7401 a13c b412 493c 7cd4 6a3d f7e6 2a3d
000002c0: 53ec 0d3d 4377 fb3c d1b8 7b3d 7b38 af3c
000002d0: 7970 1b3d 179e 943c 50d1 36bc 4dad 0f3d
000002e0: 6e7f bfbb 063d 9d3c 6ad7 af3d 65e2 153d
000002f0: 3132 db3c 6bdb f7bc cc6d 513c 42d3 d83c
00000300: 2895 fa3c 317d ac3c 57d3 403c f85d 003d
00000310: d4fa 393d bfc5 e33c 200a 953c 918d 623d
00000320: 5d42 2b3d bb8a b53c 4870 543c 5c47 603d
00000330: 4d68 5a3d 5ed0 ba3d 37e4 cf3c a1f9 6f3d
00000340: 51a2 d63c 947d 83bc 7c68 073c 7926 23bd
00000350: c177 6ebc 00b6 793d eab5 9b3c d7e1 213d
00000360: f136 273d 9266 203d 0e59 ae3c 89f3 e73d
00000370: b7e0 953c 81bc 123d 98e0 743d 7865 ea3b
00000380: a377 473d 3459 093d ea4b 3e3d 469c 983c
00000390: c895 f33c 7dd4 f43c 2dae da3c fa52 0b3d
000003a0: b58c d63c 5cca 323d caf0 3f3d 1e89 003d
000003b0: bc35 6e3b 9c44 3a3c 9803 d93c b041 4c3d
000003c0: b278 8b3c 2376 953c b17d 29bd c318 213d
000003d0: a386 853c b081 9a3c 97be 8b3c 9422 1f3d
000003e0: f462 79ba b45c 0a3d ba2f 353c e48d e03c
000003f0: 0897 983c 6bf1 993a 354e 003d dc6e 053d

network_body._body_endoder.seq_layers.0.weight f4 [256, 52]
0.06049461 -0.12385787 -0.15878488 0.04751016 0.07548115 -0.21385211 -0.24667743 -0.08850276
0.038865793 -0.27921405 0.09154774 -0.29635194 0.15443218 -0.4096747 0.2106508 0.15814486
0.05040679 0.040013768 0.31247398 0.041199405 -0.23739506 0.40753224 0.111537375 0.042723227
0.20170107 -0.08742365 0.12498931 -0.13101867 0.019200984 0.02753978 0.024676215 0.07207022
0.13755214 -0.13523008 0.0024238096 0.036299463 0.24927063 0.21549903 0.15398528 0.3041063
0.20021707 0.12788518 0.1955625 -0.06326397 -0.3468066 0.12407302 -0.029277448 -0.07167303
0.39417514 -0.0026631746 -0.15954182 -0.05552743 0.164087 -0.23652941 0.088914305 0.07283912
0.073389865 -0.33296221 -0.1445009 -0.0069258017 0.17654595 -0.10557205 -0.21353443 -0.030798346
-0.14121643 0.09598571 0.15067028 0.1983583 0.2093571 0.04310915 -0.083967045 0.083774686
-0.16407874 0.03966121 -0.113807164 0.044319835 -0.107543044 0.21050245 0.089244455 -0.1298768
0.08883538 -0.089812696 -0.024568198 -0.17990863 -0.17859738 0.1161857 0.26810145 0.07406492
0.046732202 0.2018817 0.10318954 0.08532291 0.08009862 -0.0026551303 0.17264368 -0.040991165
0.16695827 0.22390765 0.094776526 -0.028856633 -0.04648647 0.14624266 -0.05344338 0.14023423
0.084231146 -0.12866142 0.031024365 0.09517765 0.06724966 0.04917708 0.014966416 0.13434003
0.13322365 -0.23789449 0.12770544 -0.08566706 0.010870289 0.050733287 0.023048924 0.1708625
-0.29304263 -0.28913197 -0.017677246 0.23670878 -0.3438769 0.06349286 0.1301897 0.08071684
-0.22847493 -0.14068392 0.070743226 0.02324172 0.2960302 0.17849836 0.11226954 0.14019257
0.037930436 0.22833219 0.021160418 0.11891399 0.03271792 0.0901062 0.14034635 0.15127577
0.21311764 0.12800227 -0.03696054 0.020115 -0.04063506 0.29375768 0.12874953 -0.0071500135
-0.03409042 0.027275803 0.40370563 0.046077173 -0.33494338 0.37429273 0.17629272 0.3238952
-0.0020310837 0.17711973 0.02705774 0.20675284 0.115214996 0.050639264 0.0037776013 0.002498393
0.052335396 -0.22478919 0.09669302 -0.00041306778 0.04630664 0.29039824 0.0071886885 0.11684292
-0.051275488 -0.15124106 -0.17038552 -0.25654873 0.08081616 -0.112598695 0.10645445 0.009765107
0.060171183 -0.00670399 -0.055889267 -0.040597614 -0.123257406 -0.11498898 -0.03790339 -0.042525996
0.1902866 -0.3934977 0.06014411 -0.084890686 0.34053916 0.014806815 0.10955323 -0.04525614
-0.055179745 -0.19688882 0.005063004 0.2496574 -0.15600447 0.16048048 0.061324768 -0.07881371
-0.063747674 0.12393263 0.3044683 -0.29316768 0.21188729 -0.051800013 0.055985514 -0.086317636
-0.22727992 0.016734894 0.24629912 -0.032203086 0.09010204 -0.101635955 0.057466563 -0.058854412
0.072435156 0.10585553 -0.19586061 -0.026928796 -0.07997701 -0.29864174 -0.054179773 -0.21099035
0.023071073 0.0496442 -0.06734565 0.019896736 0.25930786 -0.34991708 -0.023190767 0.1311451
0.17157125 0.037792888 0.026114484 0.049788233 -0.2093435 -0.035039913 0.23767078 0.1674448
-0.0039126035 -0.16571921 0.050838236 0.19458328 -0.16529264 -0.09577628 0.10129464 -0.14515984
00000000: 32c9 773d 32a9 fdbd 8198 22be 039a 423d
00000010: dc95 9a3d 0cfc 5abe 0299 7cbe ef40 b5bd
00000020: bd31 1f3d 25f5 8ebe 627d bb3d 71bb 97be
00000030: 7823 1e3e e2c0 d1be d8b4 573e baf0 213e
00000040: 5a77 4e3d 7ae5 233d 97fc 9f3e b5c0 283d
00000050: b117 73be 11a8 d03e b56d e43d 8dfe 2e3d
00000060: ba8a 4e3e 2c0b b3bd 65fa ff3d c229 06be
00000070: 624b 9d3c 1b9b e13c c625 ca3c 8d99 933d
00000080: 78da 0c3e c179 0abe c7d8 1e3b bfae 143d
00000090: cd40 7f3e c7ab 5c3e 51ae 1d3e d2b3 9b3e
000000a0: b405 4d3e 55f4 023e 8941 483e 8a90 81bd
000000b0: a290 b1be ff19 fe3d 42d7 efbc 4fc9 92bd
000000c0: 53d1 c93e a888 2ebb ee5e 23be bb70 63bd
000000d0: 6c06 283e c434 72be b418 b63d ad2c 953d
000000e0: 6d4d 963d 067a aabe 0bf8 13be d6f1 e2bb
000000f0: 76c8 343e 2936 d8bd c5a8 5abe d04c fcbc
00000100: 0a9b 10be 2894 c43d 4f49 1a3e 701e 4b3e
00000110: b561 563e 3893 303d eaf6 abbd 1092 ab3d
00000120: 4204 28be cb73 223d bb13 e9bd b788 353d
00000130: 873f dcbd f48d 573e ccc5 b63d 6dfe 04be
00000140: 53ef b53d b8ef b7bd 3f43 c9bc f839 38be
00000150: 3be2 36be c5f2 ed3d 9844 893e 59af 973d
00000160: 446a 3f3d 14ba 4e3e 0a55 d33d c7bd ae3d
00000170: bf0a a43d b201 2ebb 81c9 303e 5ae6 27bd
00000180: 1cf7 2a3e 0c48 653e 321a c23d bf64 ecbc
00000190: 9968 3ebd a3c0 153e 72e7 5abd 9099 0f3e
000001a0: 6181 ac3d d2bf 03be cf26 fe3c 80ec c23d
000001b0: 31ba 893d e86d 493d b335 753c 6f90 093e
000001c0: c86b 083e 9d9a 73be 37c5 023e 3672 afbd
000001d0: 4c19 323c b5cd 4f3d 19d1 bc3c 94f6 2e3e
000001e0: af09 96be 1b09 94be dfcf 90bc c963 723e
000001f0: a210 b0be 8b08 823d 7350 053e df4e a53d
00000200: 55f5 69be 720f 10be d3e1 903d 6b65 be3c
00000210: 4591 973e 46c8 363e 93ed e53d a48e 0f3e
00000220: f25c 1b3d eacf 693e 9d58 ad3c 2e89 f33d
00000230: 3a03 063d 9989 b83d f4b6 0f3e 09e8 1a3e
00000240: 833b 5a3e 0713 033e ef63 17bd 36c8 a43c
00000250: f370 26bd 6867 963e ebd6 033e a94a eabb
00000260: 65a2 0bbd 8171 df3c 81b2 ce3e 6bbb 3c3d
00000270: b37d abbe 4ca3 bf3e 1486 343e 97d5 a53e
00000280: ee1b 05bb e05e 353e 32a8 dd3c 04b7 533e
00000290: d7f5 eb3d 1e6b 4f3d a291 773b 14bc 233b
000002a0: a45d 563d 232f 66be fd06 c63d 0591 d8b9
000002b0: 08ac 3d3d 14af 943e 178f eb3b 574b ef3d
000002c0: 3f06 52bd f0de 1abe 8b79 2ebe 5b5a 83be
000002d0: f182 a53d 259a e6bd ca04 da3d d4fd 1f3c
000002e0: 0f76 763d 25ad dbbb 25ec 64bd af49 26bd
000002f0: 616e fcbd 587f ebbd 9640 1bbd bd2f 2ebd
00000300: 7eda 423e 8878 c9be ac59 763d 2bdb adbd
00000310: 265b ae3e 4998 723c 725d e03d 815e 39bd
00000320: 2804 62bd 399d 49be 8ee7 a53b 31a6 7f3e
00000330: a3bf 1fbe ff54 243e ae2f 7b3d 1569 a1bd
00000340: 248e 82bd 64d0 fd3d 45e3 9b3e 131a 96be
00000350: fbf8 583e 402c 54bd 1151 653d 4dc7 b0bd
00000360: 11bc 68be 9e17 893c d635 7c3e 62e7 03bd
00000370: 6b87 b83d 8326 d0bd 0f62 6b3d 5311 71bd
00000380: e258 943d c9ca d83d af8f 48be c799 dcbc
00000390: fdca a3bd 92e7 98be 9ceb 5dbd db0d 58be
000003a0: 8cff bc3c b757 4b3d 84ec 89bd 7bfe a23c
000003b0: 00c4 843e 5528 b3be 90fa bdbc e74a 063e
000003c0: 60b0 2f3e b7cc 1a3d 0bee d53c bfee 4b3d
000003d0: 245e 56be 0386 0fbd f85f 733e a676 2b3e
000003e0: 4c35 80bb 4cb2 29be c13b 503d d740 473e
000003f0: 7942 29be 5b26 c4bd 9073 cf3d c8a4 14be
