Chrome/ml-agents-release_20/results-resume/dino/Dino/Dino-31089.pt (torch, 782887 bytes, 21 tensors)

network_body._body_endoder.seq_layers.0.weight f4 [256, 123]
-0.047972575 0.023414183 -0.13276875 0.02365623 0.21253887 -0.043624006 -0.09621859 0.16578473
-0.057672136 -0.09351112 0.046445537 0.017308006 0.08434149 0.033163704 0.0672018 -0.08479196
0.06328204 0.11508023 0.0012067641 0.04648873 -0.1758545 -0.09562301 -0.016700024 0.061933022
-0.19181605 0.18892314 0.0015329277 0.1356406 -0.13946275 0.10984507 -0.022584047 0.20817263
-0.0003171929 0.062564015 -0.010809012 -0.06267095 -0.19240431 0.016132604 0.005907146 0.036496256
-0.14542809 0.09137573 -0.014075128 -0.10795879 -0.008809148 0.026771527 0.01822917 -0.07118863
0.027540397 -0.026694579 0.0036561047 -0.07291172 0.030121405 -0.14257184 0.024872458 0.03216221
-0.15952049 0.01678686 -0.0023415447 -0.030256968 0.046295855 -0.020609312 0.033218592 -0.056432337
0.17835297 -0.1259393 -0.013267211 0.08655743 -0.007841703 0.09907163 0.13319746 -0.006839625
-0.115522705 -0.022149507 -0.07165975 -0.17692778 -0.16546594 0.07704813 0.1613011 0.10795645
0.047423165 0.05676962 0.10820057 0.049321234 -0.16204503 -0.04197883 -0.004465501 -0.1505872
-0.051706694 -0.04232403 0.18296294 -0.032422673 -0.1674368 -0.07819195 -0.1808345 0.014573384
-0.042103827 -0.041262664 0.03451782 -0.18052204 0.027277196 0.083403066 -0.09543246 0.09177521
0.0076255174 -0.07131828 -0.01932257 0.019690221 -0.14847474 -0.05688934 0.050761215 0.030619884
0.084956445 0.17884845 -0.017735256 0.11695098 0.06955042 -0.088019945 -0.054702003 -0.0552261
-0.010873966 0.030602522 -0.010196258 0.14859419 0.10533812 -0.052121118 0.19086926 0.08294449
0.019536935 -0.058032285 -0.097479306 0.029601157 -0.026194658 -0.11504209 0.010839217 0.16333944
0.12288255 0.018759785 0.14183186 0.025048386 -0.076104365 0.010078393 -0.030761858 -0.15646952
-0.07402767 -0.027341405 0.046538018 0.051208206 -0.06845845 -0.07417041 -0.023916882 -0.070142485
-0.18445863 0.19347222 0.060844846 0.020883083 0.02079933 -0.037281316 -0.076273486 -0.04961516
-0.053238932 0.010727194 0.018876811 0.02236374 -0.027946142 0.066782534 -0.016578153 0.019695537
0.019039266 0.11050555 -0.023225233 -0.032010347 0.01886595 -0.010116561 -0.03661814 -0.042280503
-0.036936466 -0.063842215 -0.06628745 0.0035991324 0.115907215 0.037483916 0.0023865602 -0.011158715
-0.007877116 -0.078268886 0.03514888 -0.01651025 0.15555872 -0.09120345 -0.12061973 0.082797274
0.16794214 0.10186239 -0.06624038 0.0983128 0.06373451 0.10390669 -0.1044648 -0.09845417
-0.012067012 -0.10102706 -0.04807641 -0.07879314 0.015707904 -0.0866615 -0.16336031 -0.08604701
0.05298285 -0.034374766 0.07677866 0.17004006 0.11102376 0.21498813 0.16142267 -0.03731386
-0.034263797 0.037778527 -0.0666218 0.071941875 -0.034944125 -0.0835106 -0.015781976 0.003813381
0.0729477 -0.07065791 0.010487803 0.088599525 0.10378372 -0.2332951 -0.07236726 -0.09086727
0.011702879 -0.26768506 -0.013869792 -0.005409449 -0.13894634 -0.04057392 -0.13418372 0.029571548
-0.14439896 -0.0065463246 -0.097078376 -0.08473223 0.04191681 0.13576043 0.011352114 -0.0040928815
-0.0694874 0.1328604 0.13279618 0.018883498 0.20361388 0.0992826 -0.035920884 0.018406626
00000000: e47e 44bd 1acf bf3c 88f4 07be b6ca c13c
00000010: caa3 593e 16af 32bd 410e c5bd 79c3 293e
00000020: 9e39 6cbd c282 bfbd ad3d 3e3d 85c9 8d3c
00000030: 3bbb ac3d aad6 073d 19a1 893d 68a7 adbd
00000040: 049a 813d 2faf eb3d 492c 9e3a f76a 3e3d
00000050: 3413 34be ffd5 c3bd 7dce 88bc 7bad 7d3d
00000060: 6d6b 44be 1175 413e 85ec c83a 5fe5 0a3e
00000070: 53cf 0ebe 74f6 e03d 2e02 b9bc 352b 553e
00000080: e94c a6b9 9021 803d 4818 31bc a159 80bd
00000090: a305 45be 8628 843c bb90 c13b 197d 153d
000000a0: 1aeb 14be 3323 bb3d 5e9b 66bc 8019 ddbd
000000b0: 3f54 10bc f64f db3c 5755 953c 58cb 91bd
000000c0: 669c e13c 97ae dabc 429b 6f3b bd52 95bd
000000d0: 2ac1 f63c 5afe 11be 53c1 cb3c 86bc 033d
000000e0: 5759 23be 9984 893c 9a74 19bb 76dd f7bc
000000f0: b9a0 3d3d dcd4 a8bc 3810 083d 9825 67bd
00000100: 29a2 363e 3bf6 00be b75e 59bc 0645 b13d
00000110: 7c7a 00bc 11e6 ca3d ea64 083e ef1e e0bb
00000120: 2b97 ecbd e272 b5bc 59c2 92bd 8e2c 35be
00000130: e76f 29be 69cb 9d3d 1e2c 253e 4518 dd3d
00000140: cb3e 423d 4387 683d 4398 dd3d 1005 4a3d
00000150: 22ef 25be fef1 2bbd 5653 92bb 8833 1abe
00000160: 66ca 53bd f65b 2dbd a35a 3b3e a3cd 04bd
00000170: 8d74 2bbe 1a23 a0bd ae2c 39be 34c5 6e3c
00000180: 1075 2cbd 0a03 29bd 8f62 0d3d c5da 38be
00000190: 6d74 df3c 3acf aa3d 1872 c3bd a4f4 bb3d
000001a0: 7adf f93b 520f 92bd 5e4a 9ebc 634d a13c
000001b0: c309 18be cc04 69bd feea 4f3d 8dd6 fa3c
000001c0: a5fd ad3d 0c24 373e 8749 91bc ff83 ef3d
000001d0: 7370 8e3d cd43 b4bd 350f 60bd c334 62bd
000001e0: b828 32bc 24b2 fa3c 350e 27bc 1329 183e
000001f0: 83bb d73d f47c 55bd 3b73 433e cdde a93d
00000200: ec0b a03c 43b3 6dbd 3ba3 c7bd 207e f23c
00000210: 2e96 d6bc 309b ebbd f996 313c 7442 273e
00000220: d9a9 fb3d 1fae 993c 5f3c 113e 4632 cd3c
00000230: 9bdc 9bbd d81f 253c 4b00 fcbc 8c39 20be
00000240: d29b 97bd 15fb dfbc a69e 3e3d b2bf 513d
00000250: f233 8cbd a8e6 97bd 56ed c3bc dda6 8fbd
00000260: b9e2 3cbe 951d 463e 7238 793d 0013 ab3c
00000270: 5b63 aa3c 4bb4 18bd 4635 9cbd 4439 4bbd
00000280: 1111 5abd 1dc1 2f3c 8ba3 9a3c 2934 b73c
00000290: 4fef e4bc 48c5 883d e8ce 87bc 8958 a13c
000002a0: 3cf8 9b3c bc50 e23d d842 bebc 481d 03bd
000002b0: c48c 9a3c efbf 25bc e7fc 15bd 522e 2dbd
000002c0: b14a 17bd b5bf 82bd b7c1 87bd 6cdf 6b3b
000002d0: c360 ed3d bc88 193d d667 1c3b 0bd3 36bc
000002e0: 050f 01bc 704b a0bd 46f8 0f3d 8140 87bc
000002f0: c94a 1f3e e0c8 babd 7a07 f7bd 9e91 a93d
00000300: 06f9 2b3e 3b9d d03d 09a9 87bd 3958 c93d
00000310: 3d87 823d 08cd d43d a4f1 d5bd 57a2 c9bd
00000320: b7b4 45bc 46e7 cebd c5eb 44bd 4c5e a1bd
00000330: ddad 803c 967b b1bd ed47 27be 6a39 b0bd
00000340: 8b04 593d 8ecc 0cbd 213e 9d3d fb1e 2e3e
00000350: 6d60 e33d d925 5c3e fc4b 253e 6bd6 18bd
00000360: 3258 0cbd a8bd 1a3d 0371 88bd 4356 933d
00000370: 9221 0fbd 9b07 abbd 3449 81bc ebe9 793b
00000380: 9b65 953d 18b5 90bd 09d5 2b3c ab73 b53d
00000390: 8f8c d43d e9e4 6ebe 4935 94bd 9f18 babd
000003a0: 6fbd 3f3c 040e 89be 203e 63bc bf41 b1bb
000003b0: f347 0ebe d730 26bd 7567 09be 0840 f23c
000003c0: 52dd 13be 8d82 d6bb 07d1 c6bd 1788 adbd
000003d0: f6b0 2b3d c804 0b3e 38fe 393c 941d 86bb
000003e0: 694f 8ebd 8f0c 083e b9fb 073e 91b1 9a3c
000003f0: 2880 503e ad54 cb3d c721 13bd 7ec9 963c

network_body._body_endoder.seq_layers.0.bias f4 [256]
0.0027787543 0.00032110364 0.00061102817 0.0007903005 0.0019270235 0.0035088225 0.002810924 0.0015947896
0.0013859997 0.005795982 0.001524564 -0.0034733515 0.0022036145 -0.0045263353 -7.339366e-05 -0.0020540487
0.0010890978 -0.002210032 -0.0048847636 0.000229964 0.006427586 -0.0016258808 0.0028713117 -0.0027765369
0.0020231388 -0.006461641 0.0009714522 -0.00041803066 0.0023154155 -0.0055795107 0.0020379673 0.00078676356
-0.004156844 0.0033282125 -0.0030120076 0.0019442333 -0.00018143572 -0.0037671342 0.007896145 0.008722424
-0.0057197846 -0.00026151372 0.0011294063 -0.0009936189 0.0019517048 0.0036255992 0.0003452357 -0.0041002575
-0.0007339002 0.002027925 0.0016216534 -0.0024452943 -0.0026551476 0.007601224 0.0014930544 0.0019642734
-0.0017028356 -0.00013037455 -0.0030932461 -0.0003760963 0.0006669855 0.0007292306 0.002005842 -9.476838e-05
0.0007923956 0.0013366604 -0.0017126766 0.0010954133 0.0028186012 -0.0019940017 -0.0006210952 0.0066097756
0.0010077327 0.002459654 -0.003707375 -0.00035526612 0.0010009062 0.0016518936 -0.0002832611 -0.0009000397
-0.0022698005 0.0014679253 0.002346638 0.00457812 0.0010698856 -0.0019271137 -0.0020916606 -0.00019814966
0.0018318152 0.0011475694 0.003767829 0.00039329243 -0.0020921677 -0.0010719707 -0.0048357956 0.0005393497
-0.0049810177 0.0014605514 -0.00012077695 -0.0025766527 -0.0008103004 0.0006010446 0.0010073909 0.001957452
0.0007263616 -0.0016532551 -0.002614453 0.0016192733 -0.0027512747 0.00071555824 -0.0063139442 0.0017946383
0.0024886036 0.000914191 0.0071424185 0.0025520835 0.00049384066 0.0006044555 0.002860734 0.0005427215
0.0013458714 0.0010381562 0.0028154526 0.00058555364 0.0007814327 -0.0030965928 -0.00035115454 -0.0023141063
-0.0013493698 0.005251235 -0.0034006715 -0.0013318121 -0.0039226944 0.002717159 -0.005103655 0.0044924514
0.0018814465 0.0035790827 0.007987235 0.0008802266 0.0005213043 0.0019839136 -0.0023575856 -0.0017267957
0.0015308652 -0.002730737 -0.0007683325 0.004351966 0.002276853 0.0006460181 0.0010267431 6.352257e-05
0.0005628803 -0.00059134106 -0.00457332 -0.0024379205 0.00041525328 -0.0014761953 0.0044914796 -0.0001287049
0.0005225251 -0.0054430976 -0.0003836131 0.0022353102 0.0011546473 0.0015693255 0.0060814167 0.0008588486
-0.0033007865 -0.003537844 0.00056616205 0.0061095376 -0.0051687537 0.0049762735 0.0028576462 0.0008942844
-0.0035442123 0.00058033294 -0.0030079668 0.004341068 0.00016996413 0.00043192034 0.00052327086 0.0003959898
-0.0021975827 0.0024705683 0.0038098446 -6.802175e-05 0.0021963709 0.0005504075 0.0023350718 -0.0032828948
0.0008415845 0.008315095 0.0010376694 0.0016722499 0.002456888 -0.0047149584 -0.0011872215 0.00093698263
-0.0042930497 -0.0018696685 0.00066808757 0.00064516586 0.0020615133 0.00295968 -0.0027714546 0.0022828218
0.00023845388 0.0046582567 -0.0022422324 0.0008076125 0.002752715 0.00076832063 -0.0023813536 0.000637979
0.00030029909 -0.00031843263 0.0019545455 -0.0012871195 0.0008811866 0.0012453098 -0.0013448385 0.00042443417
-0.0009177186 0.00059967395 0.00034749517 0.0012695325 0.000552254 0.00087206834 -0.004922859 0.0040640403
8.686721e-05 -0.0035789553 -0.0049398686 -0.0038195373 -0.001543781 0.0010089896 0.0055870893 0.00085812015
-0.0021050235 0.0009636439 0.006438776 0.00046236636 -0.0026693672 -0.0018287402 -0.0008860647 0.00020748946
-0.0008709786 0.002247489 -0.00209467 -0.0032418552 -0.0030617157 -0.00405322 0.0005028106 0.0011026507
00000000: c31b 363b cd59 a839 682d 203a 2b2c 4f3a
00000010: 2e94 fc3a 46f4 653b 7b37 383b 4208 d13a
00000020: 6faa b53a 39ec bd3b e1d3 c73a 2ba1 63bb
00000030: 846a 103b a751 94bb ecea 99b8 389d 06bb
00000040: 0fc0 8e3a 2fd6 10bb 5e10 a0bb 7e22 7139
00000050: 809e d23b 821b d5ba 9e2c 3c3b 8ff6 35bb
00000060: a396 043b 2cbc d3bb 0ea9 7e3a 202b dbb9
00000070: 3abe 173b 54d4 b6bb 6b8f 053b cf3e 4e3a
00000080: 2336 88bb 241e 5a3b 1a65 45bb a5d5 fe3a
00000090: c83f 3eb9 06e2 76bb d55e 013c 7fe8 0e3c
000000a0: 086d bbbb c71b 89b9 9608 943a 513c 82ba
000000b0: 59d0 ff3a 769b 6d3b c000 b539 745b 86bb
000000c0: 3563 40ba f0e6 043b a98d d43a 3b41 20bb
000000d0: fc01 2ebb b013 f93b 98b2 c33a 0abb 003b
000000e0: ae31 dfba 27b5 08b9 0fb8 4abb ca2e c5b9
000000f0: a4d8 2e3a d629 3f3a 7274 033b 63be c6b8
00000100: c5b8 4f3a e132 af3a e47b e0ba f993 8f3a
00000110: 48b8 383b ccad 02bb fed0 22ba d196 d83b
00000120: e615 843a 2532 213b 6ef7 72bb 0343 bab9
00000130: d730 833a 5a84 d83a a982 94b9 a4f0 6bba
00000140: efc0 14bb 6667 c03a 0dca 193b 0e04 963b
00000150: 673b 8c3a 3597 fcba 3e14 09bb 65c6 4fb9
00000160: 8519 f03a 0a6a 963a aeed 763b d132 ce39
00000170: c01c 09bb 5e81 8cba 9875 9ebb 2563 0d3a
00000180: ce37 a3bb f96f bf3a a249 fdb8 0fdd 28bb
00000190: 576a 54ba 6c8f 1d3a 6e0a 843a 9848 003b
000001a0: 4d69 3e3a 09b2 d8ba 3e57 2bbb cc3d d43a
000001b0: bb4e 34bb 4d94 3b3a 34e5 cebb 123a eb3a
000001c0: d717 233b 52a6 6f3a f30a ea3b db40 273b
000001d0: 1675 013a 5274 1e3a 277b 3b3b 6c45 0e3a
000001e0: f367 b03a be12 883a 7583 383b d77f 193a
000001f0: 10d9 4c3a 35f0 4abb 2a1b b8b9 43a8 17bb
00000200: 56dd b0ba 8d12 ac3b cddd 5ebb 3390 aeba
00000210: f289 80bb 5d12 323b 903c a7bb 6a35 933b
00000220: de9a f63a 0b8f 6a3b e4dc 023c 02bf 663a
00000230: 24a8 083a 8c04 023b b981 1abb a655 e2ba
00000240: 50a7 c83a 2af6 32bb ec69 49ba f09a 8e3b
00000250: 4137 153b 8a59 293a c893 863a 6c37 8538
00000260: 428e 133a 3a04 1bba cadb 95bb 85c5 1fbb
00000270: 5ab6 d939 e57c c1ba 432d 933b f5f4 06b9
00000280: 11fa 083a 035c b2bb ae1f c9b9 487e 123b
00000290: 8957 973a d3b1 cd3a 9f46 c73b 5b24 613a
000002a0: 0252 58bb 2cdb 67bb 7e6a 143a 8432 c83b
000002b0: a65e a9bb 0210 a33b 5947 3b3b 696e 6a3a
000002c0: 0446 68bb 7c21 183a 4f21 45bb 853f 8e3b
000002d0: 6638 3239 5e73 e239 1d2c 093a da9c cf39
000002e0: 5205 10bb 42e9 213b 96ae 793b e6a6 8eb8
000002f0: fdf0 0f3b 3949 103a 0108 193b d625 57bb
00000300: c89d 5c3a 093c 083c 6802 883a 652f db3a
00000310: be03 213b f07f 9abb 8b9c 9bba d79f 753a
00000320: b6ac 8cbb aa0f f5ba 9922 2f3a 5920 293a
00000330: 741a 073b 31f7 413b 4ba1 35bb 659b 153b
00000340: 7a09 7a39 4aa4 983b 6bf2 12bb f5b5 533a
00000350: e566 343b 2069 493a 7c10 1cbb 0c3e 273a
00000360: 7671 9d39 4ef3 a6b9 d517 003b 90b4 a8ba
00000370: 6fff 663a aa39 a33a 4b45 b0ba 9786 de39
00000380: 0d93 70ba 7033 1d3a 0330 b639 7166 a63a
00000390: 23c5 103a 849b 643a ef4f a1bb a42b 853b
000003a0: 7a2c b638 e88c 6abb 9fde a1bb 3451 7abb
000003b0: b258 caba 1340 843a e713 b73b 78f3 603a
000003c0: 6ff4 09bb 0c9d 7c3a 5efc d23b c369 f239
000003d0: 8df0 2ebb 57b2 efba cc46 68ba 8791 5939
000003e0: 6252 64ba 9c4a 133b bb46 09bb 4e75 54bb
000003f0: 11a7 48bb e0d0 84bb 0ccf 033a d186 903a

action_model._discrete_distribution.branches.0.weight f4 [2, 256]
0.01228769 -0.003970495 0.00039514268 -0.0058479477 0.010347235 -0.0016115112 -0.010402808 0.010523568
-0.003403618 0.0019387329 -0.00043505704 0.016133193 -0.013695649 -0.00067460386 0.014694544 0.009435857
0.0063950922 0.0073836693 0.0040314584 0.0058161523 0.00087766035 0.0051553897 -0.004516386 0.0071632443
-0.0017648876 0.0041684574 -0.0027057463 0.008362311 -0.025944997 -0.0038718572 -0.023274302 -0.004240607
0.00580854 0.0044844355 0.0050207227 -0.0025701593 0.0022906337 -0.00320274 -0.0028760615 0.0073147644
-0.0062889396 -0.010977138 0.009251227 0.006078189 -0.01095014 -0.0013012035 0.00022252898 0.0039841966
0.009996555 -0.019840049 0.0009381139 0.0010140324 -0.0062825764 -0.0026250242 0.005801686 -0.00874343
-0.004741298 0.0031890874 -0.0057167555 -9.282487e-05 -0.005144582 -0.0010436784 -0.005695268 0.008786044
0.006437196 -0.008306169 0.005575217 -0.008360586 -0.007970264 0.005002247 -0.008790691 0.008862009
-0.005611729 -0.002680055 0.004669011 0.012911531 -0.0077377106 -0.008247238 -0.0019343309 0.010012005
-0.009490356 -0.0032069997 -0.017121945 0.007392603 -0.004445308 0.0014056112 0.0045943763 -0.0018069124
0.014183743 0.0031093422 -0.009901072 0.0028810198 0.013903242 0.0036819 -0.0064731487 -0.008186526
-0.0006013373 0.017737497 0.0046439134 0.008772556 0.0068509514 -0.00018493125 -0.010240464 -0.0049013766
-0.0044722836 0.0065431306 0.005451687 -0.008402697 -0.0042962087 -0.004390068 -0.008032098 0.003453867
-0.002671271 -0.0016328854 -0.0007197061 0.00129547 0.0008928879 -0.009502991 -0.018791836 5.2365955e-05
-0.00024558697 -0.006652743 -0.0018890611 0.0047917715 0.0018593274 -0.00415355 -0.013238342 0.005503157
0.003754711 -0.0020038558 -0.0014508694 0.007927775 0.008538518 -0.011320231 0.004926089 -0.0006620458
0.010163885 0.00066386507 0.0038623647 -0.017854493 -0.0009626999 -0.0151756145 0.00918392 -0.0002602007
-0.00097164867 0.0028186806 0.017317586 0.010414662 0.0067045013 -0.0062965783 -0.0030861537 0.0135534555
-0.005778292 -0.0017813765 -0.0069037266 0.0010282033 -0.004845279 -0.0029370773 0.006945098 -0.0029190106
-0.007534027 -0.0067848735 -0.0040883482 -0.016097242 -0.0010906261 -0.006032322 0.009336148 0.0033346384
-0.00667263 0.010370558 -0.005399309 -0.0042084367 -0.0042526512 0.0034835592 -0.01522669 -0.00069782883
0.0015127992 -0.0071507534 -0.0015874323 0.011638569 -0.0014849714 -0.005988951 -0.0041405107 0.0059717805
0.007903711 0.0010708569 -0.012545118 -0.008752075 -0.011258047 -0.00533129 -0.016506074 -0.0031601475
-0.015995862 0.007452781 -0.0020001698 -0.0017547922 -0.016940018 -0.003137562 0.0040525477 0.0133116385
0.0020923177 0.0071136244 -0.0027292236 -0.011744986 -0.0073470483 -0.010144426 0.009444575 0.013915817
-0.0042686476 0.00027833637 0.0022165438 -0.0025722675 -0.008113523 0.005685014 -0.0057064975 -0.0049213804
-0.010333899 0.0010133923 0.0063902815 0.0064391904 -0.0022304102 0.0088925725 0.0018963786 -0.0058477093
0.0014184479 -0.013730215 -0.0025111588 -0.0048765386 -0.003388481 0.0012686431 0.0014714899 0.02604305
-0.009519292 -0.0007191523 0.0053608636 -0.0010744046 0.0033312326 -0.003704373 0.007243977 -0.0013240762
-0.008780736 -0.011254084 0.0015833676 -0.010272601 -0.006883841 0.0037234854 -0.0033786339 0.006028502
0.013159297 -0.0066598286 0.0007120822 -0.002098823 0.007470146 -0.0056856233 0.002872693 -0.015459162
00000000: 4f52 493c ed1a 82bb 272b cf39 24a0 bfbb
00000010: 7387 293c 5839 d3ba 8a70 2abc 0b6b 2c3c
00000020: 3c0f 5fbb 151d fe3a 5e18 e4b9 c229 843c
00000030: b763 60bc e6d7 30ba 62c1 703c da98 1a3c
00000040: ec8d d13b b5f2 f13b 531a 843b 6c95 be3b
00000050: ca12 663a 8bee a83b 31fe 93bb a6b9 ea3b
00000060: cd53 e7ba 8e97 883b e452 31bb 1302 093c
00000070: 9a8a d4bc fcbe 7dbb c0a9 bebc caf4 8abb
00000080: 9155 be3b 2cf2 923b e084 a43b 1e70 28bb
00000090: 751e 163b 10e5 51bb 4e7c 3cbb b1b0 ef3b
000000a0: 7313 cebb 74d9 33bc 7592 173c 8b2b c73b
000000b0: 3768 33bc 258d aaba ab56 6939 dd8d 823b
000000c0: 97c8 233c 9987 a2bc c2eb 753a 48e9 843a
000000d0: 12de cdbb 9908 2cbb 121c be3b 9a40 0fbc
000000e0: e45c 9bbb 0200 513b 9f53 bbbb f9aa c2b8
000000f0: e293 a8bb 09cc 88ba 5f9f babb 57f3 0f3c
00000100: 1def d23b 9916 08bc 4fb0 b63b d7fa 08bc
00000110: b695 02bc e4e9 a33b d506 10bc f631 113c
00000120: 98e2 b7bb dda3 2fbb 81fe 983b e38a 533c
00000130: 9f8c fdbb 6c1f 07bc 6089 fdba 6509 243c
00000140: 707d 1bbc 872c 52bb 5243 8cbc a63d f23b
00000150: f2a9 91bb 7c3c b83a 6c8c 963b ebd5 ecba
00000160: ee62 683c 1bc6 4b3b 1b38 22bc 7ecf 3c3b
00000170: 6cca 633c 084c 713b b51c d4bb c720 06bc
00000180: 10a3 1dba 3a4e 913c f82b 983b c4ba 0f3c
00000190: f27d e03b 1bea 41b9 9ec7 27bc ba9b a0bb
000001a0: 3c8c 92bb c267 d63b 11a4 b23b 77ab 09bc
000001b0: 36c7 8cbb 8fda 8fbb 1099 03bc 465a 623b
000001c0: 7e10 2fbb 8b06 d6ba a9aa 3cba c3cc a93a
000001d0: b110 6a3a 6fb2 1bbc 56f1 99bc 84a3 5b38
000001e0: 20c2 80b9 41ff d9bb 5f9a f7ba 4b04 9d3b
000001f0: adb4 f33a 811a 88bb a1e5 58bc d453 b43b
00000200: 9911 763b 1f53 03bb 192b beba 80e3 013c
00000210: 24e5 0b3c 7d78 39bc 086b a13b 248d 2dba
00000220: 6c86 263c 3b07 2e3a ba1f 7d3b 9643 92bc
00000230: b25d 7cba 24a3 78bc 2778 163c 8c6b 88b9
00000240: 3db6 7eba 9db9 383b 9cdd 8d3c 42a2 2a3c
00000250: 6fb1 db3b 8753 cebb 1141 4abb 500f 5e3c
00000260: d457 bdbb 147d e9ba a838 e2bb c7c4 863a
00000270: 25c5 9ebb fb7b 40bb b493 e33b df4c 3fbb
00000280: 00e0 f6bb a553 debb 8df7 85bb 5dde 83bc
00000290: 57f3 8eba c9aa c5bb a5f6 183c f389 5a3b
000002a0: 14a6 dabb 46e9 293c b0ec b0bb ede6 89bb
000002b0: d359 8bbb 6d4c 643b 5e79 79bc 80ee 36ba
000002c0: 1e49 c63a de50 eabb 6411 d0ba b2af 3e3c
000002d0: 5fa3 c2ba f63e c4bb 1fad 87bb edae c33b
000002e0: 917e 013c ff5b 8c3a 0a8a 4dbc dd64 0fbc
000002f0: ac73 38bc 1ab2 aebb bf37 87bc 7a1a 4fbb
00000300: c109 83bc 7536 f43b 4815 03bb 0e01 e6ba
00000310: cbc5 8abc 8e9f 4dbb 3ccb 843b 0f19 5a3c
00000320: 441f 093b 6819 e93b c6dc 32bb 0b6e 40bc
00000330: 82bf f0bb ce34 26bc 6bbd 1a3c 2bff 633c
00000340: 03e0 8bbb aded 9139 6f43 113b 7d93 28bb
00000350: 95ee 04bc 5b49 ba3b 92fd babb 8843 a1bb
00000360: 844f 29bc ced3 843a 9165 d13b d8ff d23b
00000370: 132c 12bb 27b2 113c e88f f83a 249e bfbb
00000380: 37eb b93a b2f4 60bc 4192 24bb 5fcb 9fbb
00000390: 4711 5ebb 9948 a63a 02df c03a 3c58 d53c
000003a0: cef6 1bbc 7e85 3cba 2faa af3b 09d3 8cba
000003b0: cf50 5a3b 11c5 72bb e25e ed3b a08c adba
000003c0: 13dd 0fbc 0d63 38bc 0089 cf3a 694e 28bc
000003d0: d891 e1bb b805 743b 126c 5dbb bd8a c53b
000003e0: 189a 573c b13a dabb 07ab 3a3a 688c 09bb
000003f0: 20c8 f43b 774e babb ca43 3c3b 6d48 7dbc

action_model._discrete_distribution.branches.0.bias f4 [2]
-0.0010156505 0.001015649
00000000: 931f 85ba 861f 853a

exp_avg f4 [256, 123]
-3.2426677e-05 0.000139446 0.00013415513 -3.2426677e-05 0.000139446 0.00013458074 0.0 0.00010701933
0.00010701933 -3.2426677e-05 0.000139446 0.00013439957 0.0 0.00010701933 0.00010701933 -3.2426677e-05
0.0001425437 0.00013466434 0.0 9.96477e-05 0.00010463651 -2.1188074e-05 0.00014402237 0.00013145775
0.0 9.0024005e-05 9.891169e-05 -6.0309987e-05 0.00018374623 0.00014891355 0.0 9.0024005e-05
9.740966e-05 -7.521613e-05 0.0001422338 0.00015870479 0.0 0.000119509634 9.957564e-05 -5.7976567e-06
0.00015349184 0.00013087186 0.0 0.000119509634 0.00010141543 1.630059e-05 0.00015289425 0.000119946664
0.0 0.000119509634 0.00010255372 3.2426608e-05 0.00015908618 0.00010915316 0.0 0.000119509634
0.00010318544 3.5662215e-05 0.00014250919 0.00011110526 0.0 0.000119509634 0.00010338236 9.53806e-06
0.00012669808 0.00014055792 0.0 0.00014493284 0.000116063144 3.3339293e-05 3.5166784e-05 0.00012370145
0.0 6.1764826e-05 0.00011974093 1.00383595e-05 0.0 8.755452e-05 0.0 0.0
8.4222534e-05 2.0154079e-05 0.0 6.603041e-05 -3.0976862e-06 0.0 6.681038e-05 1.4906864e-05
0.0 5.7533874e-05 -3.0976862e-06 0.0 5.730698e-05 -4.5763645e-06 0.0 5.0802108e-05
2.703262e-07 0.0 5.0053404e-05 -4.5763645e-06 0.0 4.613333e-05 -4.5763645e-06 0.0
4.6138048e-05 -4.5763645e-06 0.0 4.3218643e-05 -4.5763645e-06 0.0 4.3218643e-05 -4.5763645e-06
0.0 4.1618194e-05 -4.5763645e-06 0.0 4.1618194e-05 -4.5763645e-06 0.0 4.110201e-05
-4.5763645e-06 0.0 4.110201e-05 9.5211935e-06 -1.1904922e-05 -1.0272386e-05 9.5211935e-06 -1.1904922e-05
-1.0396526e-05 0.0 -2.3837274e-06 -2.3837274e-06 9.5211935e-06 -1.1904922e-05 -1.0340093e-05 0.0
-2.3837274e-06 -2.3837274e-06 9.5211935e-06 -1.2735856e-05 -1.0396607e-05 0.0 -5.8488695e-07 -1.8022666e-06
5.58854e-06 -1.2719815e-05 -9.04417e-06 0.0 8.834754e-07 -8.251074e-07 1.0138598e-05 -1.7477247e-05
-1.1345525e-05 0.0 8.834754e-07 -5.363546e-07 1.1482097e-05 -1.3266457e-05 -1.2613718e-05 0.0
-3.653455e-06 -8.3396935e-07 5.324455e-07 -1.4290715e-05 -8.877175e-06 0.0 -3.653455e-06 -1.0942887e-06
-1.0642016e-06 -1.421996e-05 -8.144986e-06 0.0 -3.653455e-06 -1.2551055e-06 -3.0042106e-06 -1.5563955e-05
-6.807905e-06 0.0 -3.653455e-06 -1.3445091e-06 -4.7691415e-06 -1.2958992e-05 -6.604919e-06 0.0
-3.653455e-06 -1.3724195e-06 -1.8492523e-06 -1.0465014e-05 -9.4757825e-06 0.0 -8.655047e-06 -3.3223812e-06
-3.6517743e-06 -2.6429313e-06 -8.102942e-06 0.0 -5.072286e-06 -6.043378e-06 -1.4108582e-06 0.0
-5.1781844e-06 0.0 0.0 -4.3034665e-06 -2.3392026e-06 0.0 -3.570198e-06 8.309341e-07
0.0 -3.6549138e-06 -1.8458577e-06 0.0 -3.3086142e-06 8.309341e-07 0.0 -3.3179322e-06
8.1489173e-07 0.0 -2.972789e-06 3.3396483e-07 0.0 -2.8984978e-06 8.1489173e-07 0.0
-2.6996775e-06 8.1489173e-07 0.0 -2.7001843e-06 8.1489173e-07 0.0 -2.5292625e-06 8.1489173e-07
0.0 -2.5292625e-06 8.1489173e-07 0.0 -2.4358803e-06 8.1489173e-07 0.0 -2.4358803e-06
8.1489173e-07 0.0 -2.4051692e-06 8.1489173e-07 0.0 -2.4051692e-06 8.6299247e-07 5.5128967e-06
5.649292e-06 8.6299247e-07 5.5128967e-06 5.637923e-06 0.0 6.3758903e-06 6.3758903e-06 8.6299247e-07
00000000: e101 08b8 4038 1239 feab 0c39 e101 08b8
00000010: 4038 1239 3e1e 0d39 0000 0000 916f e038
00000020: 916f e038 e101 08b8 4038 1239 9ced 0c39
00000030: 0000 0000 916f e038 916f e038 e101 08b8
00000040: c877 1539 af34 0d39 0000 0000 f4f9 d038
00000050: 4c70 db38 0bbd b1b7 b604 1739 ecd7 0939
00000060: 0000 0000 45cb bc38 cf6e cf38 5bf5 7cb8
00000070: 01ac 4039 ad25 1c39 0000 0000 45cb bc38
00000080: 6a48 cc38 5abd 9db8 9824 1539 fe69 2639
00000090: 0000 0000 3fa1 fa38 44d3 d038 7e89 c2b6
000000a0: a7f2 2039 a63a 0939 0000 0000 3fa1 fa38
000000b0: ffae d438 40bd 8837 3d52 2039 e08b fb38
000000c0: 0000 0000 3fa1 fa38 1c12 d738 ce01 0838
000000d0: 5fd0 2639 28e9 e438 0000 0000 3fa1 fa38
000000e0: 4365 d838 0394 1538 856e 1539 2f01 e938
000000f0: 0000 0000 3fa1 fa38 fbce d838 a805 2037
00000100: 42da 0439 bb62 1339 0000 0000 1df9 1739
00000110: ed66 f338 cbd5 0b38 0c80 1338 dbb5 0139
00000120: 0000 0000 bd87 8138 6c1d fb38 6d6a 2837
00000130: 0000 0000 7a9d b738 0000 0000 0000 0000
00000140: a1a0 b038 8e10 a937 0000 0000 ce79 8a38
00000150: d8e1 4fb6 0000 0000 8d1c 8c38 7e18 7a37
00000160: 0000 0000 8750 7138 d8e1 4fb6 0000 0000
00000170: e75c 7038 ac8e 99b6 0000 0000 5914 5538
00000180: 5a21 9134 0000 0000 6ff0 5138 ac8e 99b6
00000190: 0000 0000 497f 4138 ac8e 99b6 0000 0000
000001a0: 5a84 4138 ac8e 99b6 0000 0000 aa45 3538
000001b0: ac8e 99b6 0000 0000 aa45 3538 ac8e 99b6
000001c0: 0000 0000 328f 2e38 ac8e 99b6 0000 0000
000001d0: 328f 2e38 ac8e 99b6 0000 0000 f264 2c38
000001e0: ac8e 99b6 0000 0000 f264 2c38 37bd 1f37
000001f0: 40bb 47b7 9057 2cb7 37bd 1f37 40bb 47b7
00000200: bd6c 2eb7 0000 0000 20f8 1fb6 20f8 1fb6
00000210: 37bd 1f37 40bb 47b7 5c7a 2db7 0000 0000
00000220: 20f8 1fb6 20f8 1fb6 37bd 1f37 16ac 55b7
00000230: 166d 2eb7 0000 0000 2001 1db5 69e5 f1b5
00000240: 3185 bb36 3067 55b7 6abc 17b7 0000 0000
00000250: f827 6d35 f37c 5db5 f218 2a37 1a9c 92b7
00000260: a958 3eb7 0000 0000 f827 6d35 02fa 0fb5
00000270: 3ba3 4037 0093 5eb7 829f 53b7 0000 0000
00000280: e12d 75b6 f0dd 5fb5 60ed 0e35 27c2 6fb7
00000290: 2def 14b7 0000 0000 e12d 75b6 79df 92b5
000002a0: b0d5 8eb5 4392 6eb7 73a6 08b7 0000 0000
000002b0: e12d 75b6 1975 a8b5 f29b 49b6 578f 82b7
000002c0: 756f e4b6 0000 0000 e12d 75b6 fb74 b4b5
000002d0: 9d06 a0b6 726a 59b7 d29f ddb6 0000 0000
000002e0: e12d 75b6 fa33 b8b5 d333 f8b5 e592 2fb7
000002f0: 2dfa 1eb7 0000 0000 2535 11b7 13f6 5eb6
00000300: 0111 75b6 375d 31b6 dff1 07b7 0000 0000
00000310: 9b32 aab6 39c8 cab6 b85c bdb5 0000 0000
00000320: 44c0 adb6 0000 0000 0000 0000 7f66 90b6
00000330: 32fb 1cb6 0000 0000 8997 6fb6 5b0d 5f35
00000340: 0000 0000 f146 75b6 30bf f7b5 0000 0000
00000350: 8f09 5eb6 5b0d 5f35 0000 0000 a4a9 5eb6
00000360: efbe 5a35 0000 0000 2080 47b6 c74b b334
00000370: 0000 0000 d083 42b6 efbe 5a35 0000 0000
00000380: 1b2c 35b6 efbe 5a35 0000 0000 d034 35b6
00000390: efbe 5a35 0000 0000 66bc 29b6 efbe 5a35
000003a0: 0000 0000 66bc 29b6 efbe 5a35 0000 0000
000003b0: 1b78 23b6 efbe 5a35 0000 0000 1b78 23b6
000003c0: efbe 5a35 0000 0000 7e68 21b6 efbe 5a35
000003d0: 0000 0000 7e68 21b6 64a8 6735 6cfb b836
000003e0: 0c8f bd36 64a8 6735 6cfb b836 642d bd36
000003f0: 0000 0000 7bf0 d536 7bf0 d536 64a8 6735

exp_avg_sq f4 [256, 123]
1.15659e-10 2.3734235e-09 2.3384226e-09 1.15659e-10 2.3734235e-09 2.3411508e-09 0.0 2.246808e-09
2.246808e-09 1.15659e-10 2.3734235e-09 2.3400644e-09 0.0 2.246808e-09 2.246808e-09 1.15659e-10
2.4042197e-09 2.34321e-09 0.0 2.2408377e-09 2.237371e-09 7.6148844e-11 2.4185685e-09 2.3380535e-09
0.0 2.2781508e-09 2.2445623e-09 2.474135e-10 2.5019244e-09 2.3289222e-09 0.0 2.2781508e-09
2.2475908e-09 2.9065264e-10 2.0125461e-09 2.2984012e-09 0.0 2.4149298e-09 2.250534e-09 1.2076375e-10
1.9918553e-09 2.1279936e-09 0.0 2.4149298e-09 2.254984e-09 3.465631e-10 1.9862638e-09 2.0568889e-09
0.0 2.4149298e-09 2.2588582e-09 3.4870204e-10 1.7818208e-09 2.055102e-09 0.0 2.4149298e-09
2.2613489e-09 2.2082224e-10 1.7525152e-09 2.0950712e-09 0.0 2.4149298e-09 2.2621707e-09 1.3553451e-10
1.4498425e-09 1.976181e-09 0.0 2.1499296e-09 2.071777e-09 2.6458782e-10 6.009271e-10 1.5860412e-09
0.0 7.214754e-10 1.640119e-09 1.9473158e-10 0.0 8.3231233e-10 0.0 0.0
8.5192314e-10 1.8023393e-10 0.0 4.9683063e-10 7.2078164e-12 0.0 5.119045e-10 1.1862447e-10
0.0 3.5335285e-10 7.2078164e-12 0.0 3.5569628e-10 2.766028e-11 0.0 2.7252092e-10
1.16049895e-11 0.0 2.7118238e-10 2.766028e-11 0.0 2.2469886e-10 2.766028e-11 0.0
2.24706e-10 2.766028e-11 0.0 1.9720733e-10 2.766028e-11 0.0 1.9720733e-10 2.766028e-11
0.0 1.828499e-10 2.766028e-11 0.0 1.828499e-10 2.766028e-11 0.0 1.7835336e-10
2.766028e-11 0.0 1.7835336e-10 2.7703432e-11 8.473199e-11 8.427151e-11 2.7703432e-11 8.473199e-11
8.418082e-11 0.0 1.0772067e-10 1.0772067e-10 2.7703432e-11 8.473199e-11 8.420832e-11 0.0
1.0772067e-10 1.0772067e-10 2.7703432e-11 8.354897e-11 8.374743e-11 0.0 1.0136569e-10 1.04628965e-10
1.3556874e-11 8.116616e-11 8.352122e-11 0.0 1.02233e-10 1.0345427e-10 1.5794773e-11 8.1566615e-11
8.18988e-11 0.0 1.02233e-10 1.0299407e-10 1.4640155e-11 5.9914414e-11 7.918635e-11 0.0
9.473091e-11 1.011522e-10 3.585527e-12 5.959677e-11 7.907705e-11 0.0 9.473091e-11 9.989461e-11
5.332056e-12 5.7739608e-11 7.737301e-11 0.0 9.473091e-11 9.918067e-11 1.0071994e-11 5.0774315e-11
7.205963e-11 0.0 9.473091e-11 9.880913e-11 1.02338355e-11 4.8474925e-11 7.1035906e-11 0.0
9.473091e-11 9.869711e-11 8.043069e-12 3.2784084e-11 5.44938e-11 0.0 5.755444e-11 7.634031e-11
1.1507719e-11 1.4332681e-11 4.1317935e-11 0.0 2.1407072e-11 5.1289206e-11 7.195971e-12 0.0
2.3706691e-11 0.0 0.0 2.6799545e-11 6.9364852e-12 0.0 1.4973628e-11 1.7667592e-12
0.0 1.5876795e-11 6.4682535e-12 0.0 1.056847e-11 1.7667592e-12 0.0 1.0998819e-11
3.143501e-12 0.0 8.196838e-12 1.8259493e-12 0.0 8.354529e-12 3.143501e-12 0.0
6.757554e-12 3.143501e-12 0.0 6.7575984e-12 3.143501e-12 0.0 5.931221e-12 3.143501e-12
0.0 5.931221e-12 3.143501e-12 0.0 5.4994364e-12 3.143501e-12 0.0 5.4994364e-12
3.143501e-12 0.0 5.3644827e-12 3.143501e-12 0.0 5.3644827e-12 1.9850073e-11 4.0600742e-10
4.0129403e-10 1.9850073e-11 4.0600742e-10 4.0128023e-10 0.0 4.1566936e-10 4.1566936e-10 1.9850073e-11
00000000: 3b56 fe2e b519 2331 f7b1 2031 3b56 fe2e
00000010: b519 2331 f6e1 2031 0000 0000 4466 1a31
00000020: 4466 1a31 3b56 fe2e b519 2331 d9ce 2031
00000030: 0000 0000 4466 1a31 4466 1a31 3b56 fe2e
00000040: 7b37 2531 3006 2131 0000 0000 3cfd 1931
00000050: 3fc0 1931 fd73 a72e e833 2631 79ab 2031
00000060: 0000 0000 a78d 1c31 c23e 1a31 5b04 882f
00000070: 52ee 2b31 d50a 2031 0000 0000 a78d 1c31
00000080: 0974 1a31 b9c9 9f2f 164d 0a31 e7f1 1d31
00000090: 0000 0000 e5f3 2531 d0a7 1a31 f9c7 042f
000000a0: 17e1 0831 0f3c 1231 0000 0000 e5f3 2531
000000b0: 19f6 1a31 6c86 be2f b97e 0831 2c59 0d31
000000c0: 0000 0000 e5f3 2531 413a 1b31 73b3 bf2f
000000d0: 3fe4 f430 bd39 0d31 0000 0000 e5f3 2531
000000e0: 1266 1b31 efcb 722f 26dd f030 e2f8 0f31
000000f0: 0000 0000 e5f3 2531 8774 1b31 9305 152f
00000100: cc43 c730 58cd 0731 0000 0000 f6bd 1331
00000110: 165f 0e31 6d75 912f 7c2e 2530 ddfb d930
00000120: 0000 0000 5151 4630 8f6a e130 111c 562f
00000130: 0000 0000 c6c8 6430 0000 0000 0000 0000
00000140: c32c 6a30 572b 462f 0000 0000 5991 0830
00000150: 3d9a fd2c 0000 0000 14b6 0c30 d26d 022f
00000160: 0000 0000 fe41 c22f 3d9a fd2c 0000 0000
00000170: cd8b c32f 6a4d f32d 0000 0000 e9d1 952f
00000180: 3a28 4c2d 0000 0000 8715 952f 6a4d f32d
00000190: 0000 0000 1b0f 772f 6a4d f32d 0000 0000
000001a0: 1e11 772f 6a4d f32d 0000 0000 eed4 582f
000001b0: 6a4d f32d 0000 0000 eed4 582f 6a4d f32d
000001c0: 0000 0000 ac0b 492f 6a4d f32d 0000 0000
000001d0: ac0b 492f 6a4d f32d 0000 0000 021a 442f
000001e0: 6a4d f32d 0000 0000 021a 442f 95ae f32d
000001f0: df53 ba2e a550 b92e 95ae f32d df53 ba2e
00000200: 971d b92e 0000 0000 59e1 ec2e 59e1 ec2e
00000210: 95ae f32d df53 ba2e 122d b92e 0000 0000
00000220: 59e1 ec2e 59e1 ec2e 95ae f32d e4b9 b72e
00000230: 9d29 b82e 0000 0000 cfe7 de2e df14 e62e
00000240: bc7e 6e2d 7c7c b22e 44aa b72e 0000 0000
00000250: 10d0 e02e 947f e32e abee 8a2d ec5d b32e
00000260: ed18 b42e 0000 0000 10d0 e02e 827c e22e
00000270: b3c6 802d d1c0 832e f421 ae2e 0000 0000
00000280: c350 d02e a06f de2e 1d4f 7c2c 000e 832e
00000290: 6ce4 ad2e 0000 0000 c350 d02e abab db2e
000002a0: e49a bb2c 05f1 7d2e 2225 aa2e 0000 0000
000002b0: c350 d02e c119 da2e 3a30 312d cc4e 5f2e
000002c0: f775 9e2e 0000 0000 c350 d02e 9848 d92e
000002d0: 1909 342d ea31 552e a935 9c2e 0000 0000
000002e0: c350 d02e 8909 d92e c37e 0d2d 992f 102e
000002f0: 90aa 6f2e 0000 0000 8a20 7d2e c6df a72e
00000300: 2972 4a2d a824 7c2d dcb7 352e 0000 0000
00000310: 714c bc2d 8392 612e 8b2f fd2c 0000 0000
00000320: b986 d02d 0000 0000 0000 0000 36bb eb2d
00000330: 4e0e f42c 0000 0000 9db5 832d 35a6 f82b
00000340: 0000 0000 5da7 8b2d d994 e32c 0000 0000
00000350: 28ec 392d 35a6 f82b 0000 0000 477e 412d
00000360: 4834 5d2c 0000 0000 4733 102d 617d 002c
00000370: 0000 0000 74f9 122d 4834 5d2c 0000 0000
00000380: a3c2 ed2c 4834 5d2c 0000 0000 09c3 ed2c
00000390: 4834 5d2c 0000 0000 b0af d02c 4834 5d2c
000003a0: 0000 0000 b0af d02c 4834 5d2c 0000 0000
000003b0: 857e c12c 4834 5d2c 0000 0000 857e c12c
000003c0: 4834 5d2c 0000 0000 f7be bc2c 4834 5d2c
000003d0: 0000 0000 f7be bc2c 649a ae2d 7734 df2f
000003e0: 1d9d dc2f 649a ae2d 7734 df2f 2c9b dc2f
000003f0: 0000 0000 4384 e42f 4384 e42f 649a ae2d

exp_avg f4 [256]
8.8055895e-05 4.6993855e-06 7.1242835e-06 -4.5067223e-05 7.6582415e-05 -5.4842435e-06 1.8936453e-05 6.520521e-05
2.2218344e-05 4.193909e-06 -1.0949846e-05 -3.304713e-05 -6.823389e-05 -1.1002181e-06 1.111206e-05 3.4993536e-05
6.258542e-05 1.3815933e-05 8.236722e-06 3.2925138e-05 -1.7087924e-06 2.948372e-05 -2.1043415e-06 1.8435736e-05
-1.5815712e-06 2.7769167e-06 -1.8281633e-05 4.418398e-05 -3.3179287e-05 -1.9201809e-05 -0.000103305894 -3.3524815e-05
8.944919e-06 2.6258936e-05 1.2832378e-06 -7.927593e-05 -2.367404e-06 -2.7661479e-06 1.4950588e-05 4.055504e-06
-5.9546123e-06 -5.2243076e-06 9.197279e-05 6.9245716e-06 -5.3918317e-05 1.155146e-05 -2.3957858e-07 -1.4479534e-05
7.267131e-05 -7.500195e-05 -7.906457e-06 -5.658717e-06 2.4463103e-05 6.6070214e-07 2.0996475e-05 1.2503504e-05
-1.904327e-05 -9.1346255e-06 -5.3548018e-05 1.0522164e-05 1.3759131e-08 -2.6785843e-05 -3.8238857e-05 -9.929307e-07
8.646372e-06 -4.4003886e-05 5.8799873e-05 -4.7839254e-05 -1.4774561e-05 -1.7410972e-06 6.1979215e-08 6.820954e-05
-3.0117428e-05 -1.1718882e-05 9.392138e-06 8.927556e-05 -3.328605e-05 -6.963856e-05 -3.5698847e-06 3.2749063e-05
-2.379049e-05 -1.0967739e-05 -5.1426443e-05 4.1858584e-05 -1.02555705e-05 1.0279356e-07 2.6372834e-06 4.3341173e-05
-3.4832297e-05 1.4154563e-06 -8.655899e-06 -4.139483e-06 4.167235e-05 6.644039e-07 1.2633063e-05 -1.9441244e-05
-7.930927e-06 1.1420161e-05 3.0540739e-06 -8.176204e-06 6.926856e-05 -7.883301e-06 -0.00012146182 3.485465e-06
-3.518604e-05 3.074695e-05 -1.8378238e-05 -2.3038381e-05 -1.933287e-05 -8.004685e-06 -1.886768e-06 4.6787595e-06
-1.6713268e-06 -5.085852e-06 2.1955684e-06 -7.800329e-07 2.9875247e-05 -6.5200824e-05 -7.3900315e-05 -2.1862046e-05
-2.8121174e-05 -5.1976698e-05 6.0207212e-06 1.1612939e-05 -7.0070964e-05 -3.2382793e-06 -2.259003e-05 1.2773827e-05
2.420553e-05 -9.141241e-07 1.5514224e-05 1.4345943e-05 -1.2988403e-05 -2.9441191e-05 -1.6548465e-05 -1.783545e-06
4.7308105e-05 2.584472e-05 0.00011785574 -0.00014167953 -1.29884265e-05 -1.2265325e-05 5.079503e-05 5.576138e-07
-8.797086e-05 -3.7976586e-06 2.4885298e-05 4.633958e-05 5.322729e-06 -3.611683e-05 -1.9564017e-05 0.00010094141
-1.4415763e-05 5.0855633e-05 -8.5049356e-07 -6.2367053e-06 -3.0177234e-06 7.537271e-05 5.8070116e-05 -1.0080179e-06
-1.4061879e-05 -1.5478296e-05 -1.6045911e-05 -2.7934444e-05 -1.47335e-06 -1.717771e-06 1.5978578e-05 2.0357893e-06
7.698695e-06 3.1478714e-06 -2.1780279e-05 -1.9435008e-06 5.04634e-07 -4.7379613e-06 4.637816e-06 1.3250612e-05
7.752306e-06 -2.7003014e-05 -1.7378761e-06 1.1151269e-07 -3.2991727e-06 -1.634393e-05 -3.1400963e-05 -2.006437e-06
3.9014635e-06 -2.1622964e-06 -4.705902e-05 3.0494915e-05 -7.3032684e-06 -3.1981165e-06 -2.5420566e-05 -1.334375e-05
-5.551467e-05 2.2411303e-05 -4.7301597e-08 -6.785546e-06 -7.455338e-05 -6.667588e-06 -4.117851e-06 5.5821853e-05
-1.1669791e-06 2.745756e-05 -4.3525422e-05 -3.3109714e-05 -6.4723616e-05 1.0666152e-05 1.7105286e-06 2.775228e-05
-2.5333193e-05 -3.2594146e-06 2.2590391e-05 -4.9471437e-05 -3.457327e-05 3.911044e-05 7.541854e-07 -3.0838062e-05
-6.8850754e-06 4.241842e-05 -1.1737284e-05 7.34165e-05 -5.9215204e-06 -2.5464164e-05 -1.0269121e-06 -1.2561373e-05
-5.720981e-06 9.7752145e-06 -5.4374614e-06 -9.999099e-05 -1.4796003e-05 -1.7496048e-05 2.880447e-06 9.146738e-05
-1.4040979e-05 1.60875e-05 -1.1975632e-06 8.8466567e-07 -1.2168125e-06 -1.4686905e-05 -2.8469608e-06 -2.0401105e-05
2.5046664e-05 -6.2633626e-05 2.6262365e-05 -1.688863e-05 -3.86264e-06 2.129033e-05 1.2786553e-05 5.3977263e-05
-1.3718547e-05 -2.3363094e-05 1.1625132e-05 -7.370003e-06 3.5341866e-06 1.194878e-06 -1.4318794e-05 3.8524418e-06
00000000: a6aa b838 6aaf 9d36 210d ef36 9006 3db8
00000010: df9a a038 4b05 b8b6 b9d9 9e37 c8be 8838
00000020: 8861 ba37 67b9 8c36 3bb5 37b7 169c 0ab8
00000030: ca18 8fb8 35ab 93b5 ef6d 3a37 06c6 1238
00000040: 4b40 8338 fbca 6737 7430 0a37 1919 0a38
00000050: a959 e5b5 ce53 f737 5038 0db6 71a6 9a37
00000060: 5f46 d4b5 115b 3a36 825b 99b7 3052 3938
00000070: fd29 0bb8 9213 a1b7 eea5 d8b8 ff9c 0cb8
00000080: 2212 1637 a346 dc37 b73b ac35 f140 a6b8
00000090: b1df 1eb6 0fa2 39b6 49d4 7a37 8414 8836
000000a0: bbcd c7b6 764c afb6 84e1 c038 9e59 e836
000000b0: 5a26 62b8 25cd 4137 6e9f 80b4 20ed 72b7
000000c0: 1d67 9838 5e4a 9db8 f9a5 04b7 02e0 bdb6
000000d0: 1d36 cd37 1b5b 3135 9621 b037 24c6 5137
000000e0: 1cbf 9fb7 eb40 19b7 bf98 60b8 5a88 3037
000000f0: 4c61 6c32 29b2 e0b7 a962 20b8 d744 85b5
00000100: e30f 1137 d090 38b8 e29f 7638 02a7 48b8
00000110: 42e0 77b7 a5af e9b5 6f19 8533 b80b 8f38
00000120: afa4 fcb7 379c 44b7 ed92 1d37 7439 bb38
00000130: a09c 0bb8 eb0a 92b8 2792 6fb6 0a5c 0938
00000140: b091 c7b7 1502 38b7 b9b2 57b8 5091 2f38
00000150: 570f 2cb7 5bbf dc33 2ffc 3036 3bc9 3538
00000160: e518 12b8 b5fa bd35 ce38 11b7 e3e5 8ab6
00000170: 58c9 2e38 7d59 3235 98f2 5337 c115 a3b7
00000180: 120f 05b7 3899 3f37 97f4 4c36 872c 09b7
00000190: 4644 9138 8542 04b7 51b9 feb8 d5e7 6936
000001a0: b994 13b8 49f6 0038 f72a 9ab7 8c42 c1b7
000001b0: 062d a2b7 dc4b 06b7 db3c fdb5 3dfe 9c36
000001c0: 5a52 e0b5 23a7 aab6 9457 1336 7463 51b5
000001d0: 9b9c fa37 6dbc 88b8 eefa 9ab8 6364 b7b7
000001e0: c3e5 ebb7 8e01 5ab8 9a05 ca36 31d5 4237
000001f0: 10f3 92b8 3751 59b6 b87f bdb7 2b4f 5637
00000200: fb0c cb37 2162 75b5 8b24 8237 5baf 7037
00000210: c4e8 59b7 7af8 f6b7 8fd1 8ab7 2462 efb5
00000220: b16c 4638 1dcd d837 5229 f738 cf8f 14b9
00000230: dee8 59b7 2bc7 4db7 c00c 5538 eeae 1535
00000240: ff7c b8b8 47db 7eb6 c5c0 d037 bf5c 4238
00000250: e599 b236 277c 17b8 681d a4b7 82b0 d338
00000260: 3bdb 71b7 d24d 5538 794d 64b5 e444 d1b6
00000270: 1884 4ab6 6a11 9e38 5090 7338 3b4b 87b5
00000280: 4feb 6bb7 63d7 81b7 559a 86b7 c354 eab7
00000290: ecbf c5b5 2a8e e6b5 bc09 8637 989e 0836
000002a0: a529 0137 0540 5336 cbb4 b6b7 176d 02b6
000002b0: 2f76 0735 c7fa 9eb6 899e 9b36 f24e 5e37
000002c0: e70f 0237 8884 e2b7 f840 e9b5 c078 ef33
000002d0: 5b67 5db6 531a 89b7 87b4 03b8 53a6 06b6
000002e0: 51e9 8236 f81b 11b6 3d61 45b8 55cf ff37
000002f0: 990e f5b6 399f 56b6 403e d5b7 f8de 5fb7
00000300: 6cd8 68b8 e8ff bb37 a828 4bb3 65af e3b6
00000310: 8b59 9cb8 25ba dfb6 122c 8ab6 4222 6a38
00000320: 19a1 9cb5 a954 e637 118f 36b8 49df 0ab8
00000330: 3abc 87b8 c6f2 3237 5195 e535 91cd e837
00000340: 9e82 d4b7 51bc 5ab6 7f80 bd37 8d7f 4fb8
00000350: c402 11b8 840a 2438 3a73 4a35 1e58 01b8
00000360: 5906 e7b6 6fea 3138 40eb 44b7 2ff7 9938
00000370: 79b1 c6b6 e09b d5b7 6ed4 89b5 b0be 52b7
00000380: daf6 bfb6 3a00 2437 7073 b6b6 41b2 d1b8
00000390: 593c 78b7 7ac4 92b7 b44d 4136 2dd2 bf38
000003a0: 8c91 6bb7 a5f3 8637 f5bb a0b5 c379 6d35
000003b0: 5c51 a3b5 c767 76b7 6a0e 3fb6 0a23 abb7
000003c0: 4d1b d237 2c5a 83b8 004e dc37 0fac 8db7
000003d0: d39b 81b6 a398 b237 d485 5637 a565 6238
000003e0: b628 66b7 ddfb c3b7 9009 4337 d84b f7b6
000003f0: dd2c 6d36 b25f a035 c03a 70b7 3944 8136

exp_avg_sq f4 [256]
2.353694e-09 1.1999174e-10 4.3085321e-10 8.9003105e-10 1.0045953e-09 1.5972441e-10 1.7248044e-09 1.7296113e-09
3.6376535e-10 3.7649207e-11 2.0264912e-10 1.9276085e-10 2.4652995e-09 4.6603145e-11 1.1828428e-09 5.850287e-10
7.43433e-10 1.1944243e-10 6.1690875e-11 3.1871286e-10 7.395762e-12 1.0150638e-09 2.8578804e-11 2.0854096e-10
6.341465e-12 7.433195e-11 3.6845302e-10 4.5686166e-10 3.1829015e-09 3.073319e-10 1.1714517e-08 1.2052392e-09
8.5437206e-11 3.9968004e-10 6.809701e-11 3.6381058e-09 3.1180832e-11 2.353964e-10 1.03077914e-10 3.1018924e-11
7.9226355e-11 2.3021574e-10 4.006846e-09 7.468519e-11 2.0456954e-09 2.4322136e-10 9.059171e-11 1.8563527e-10
3.5397774e-09 4.71681e-09 1.40798085e-11 1.39151945e-11 2.2447959e-10 1.8259198e-11 1.2068739e-10 4.378038e-11
5.5975813e-10 2.1130838e-11 7.452945e-10 8.685731e-11 1.0671596e-10 1.1890561e-09 7.0653833e-10 1.5388536e-10
2.925718e-10 5.986465e-10 2.4390105e-09 3.0353295e-09 5.6750906e-11 2.4118357e-11 1.2363381e-12 1.0611583e-09
1.3394698e-09 1.0492403e-10 1.463466e-11 3.2130094e-09 9.2689606e-10 2.4226254e-09 6.012575e-12 8.389032e-10
7.680874e-11 3.1942354e-10 1.7946776e-09 6.0639715e-10 8.470459e-10 1.100208e-11 9.970262e-11 4.88076e-10
1.9984121e-10 3.7436677e-12 1.5875256e-11 7.680074e-10 7.1712575e-10 8.658625e-11 3.8686124e-11 1.104441e-09
1.8757247e-10 1.4806095e-09 7.89741e-11 9.75686e-11 1.7450331e-09 8.706867e-10 1.3198214e-08 1.2105895e-10
2.1974795e-09 1.5760457e-10 4.765283e-10 3.9812847e-10 5.298949e-10 2.1299529e-10 2.7924805e-11 2.0241885e-10
1.7905154e-12 4.1217377e-11 3.086814e-11 3.4672938e-11 3.7080047e-10 7.074015e-09 1.8317166e-09 1.4131005e-09
3.184245e-10 2.0201991e-09 6.19184e-11 1.0600735e-10 9.094448e-09 3.011638e-11 9.960218e-10 4.261069e-10
1.7230531e-10 1.8311886e-12 7.908787e-11 9.2668656e-10 8.98818e-11 9.793076e-10 1.3688596e-10 7.979398e-12
8.7557217e-10 2.0383324e-10 3.73486e-09 1.900405e-08 4.4726634e-10 3.952918e-09 1.5845347e-09 2.9110714e-10
5.94083e-09 1.0493583e-11 5.1755217e-10 7.1546663e-10 8.755331e-11 3.2015604e-09 1.7076867e-09 4.4917527e-09
1.0462762e-09 7.683305e-10 1.2398686e-10 2.9199593e-10 2.3290225e-10 4.578338e-09 6.26916e-10 2.6946957e-11
8.285603e-10 3.19516e-11 3.428386e-10 4.7165966e-10 3.8332476e-11 1.0244963e-10 2.2630339e-10 6.764391e-11
6.693314e-10 1.236396e-10 9.539551e-10 2.6687775e-12 2.4570238e-11 2.2976896e-12 2.6093028e-10 2.0228307e-10
1.2681983e-10 1.056906e-09 2.3324062e-10 3.1086567e-10 2.860115e-10 4.8157045e-10 9.970971e-10 2.746985e-10
4.1913562e-10 6.026416e-11 3.1974847e-09 1.1922094e-10 1.2169171e-09 4.4509052e-10 1.0888237e-09 1.1347235e-10
5.9984835e-09 2.5456018e-10 8.2293734e-11 3.699797e-11 2.0667952e-09 6.933472e-11 4.6177215e-11 2.1876871e-09
1.365228e-10 8.9755904e-11 4.072988e-09 5.0095644e-10 3.2697456e-09 5.2617577e-10 4.544257e-10 6.1583877e-10
9.958891e-10 2.3964817e-12 1.1242523e-10 2.2659246e-09 1.1196853e-09 2.9547767e-10 2.0597586e-10 2.0493232e-09
1.3700412e-10 6.5338296e-10 2.3422836e-10 3.033405e-09 1.8970804e-10 1.5820147e-10 1.9517024e-10 5.044174e-10
9.8556215e-12 7.3699413e-10 2.9102712e-10 8.068285e-09 8.909203e-10 2.085563e-10 6.113361e-11 4.6777053e-09
2.3582112e-09 7.5423896e-11 3.8092727e-11 3.6877318e-10 1.9667568e-11 1.8848696e-10 2.3825317e-12 1.3583205e-09
4.5234444e-10 7.04657e-09 3.0150202e-10 2.0030713e-09 5.5881157e-11 7.2699063e-10 9.834409e-11 6.3213484e-10
7.4751655e-10 4.8964527e-10 3.4819713e-11 3.177422e-10 4.122082e-10 1.2612582e-10 7.3929374e-10 1.6156607e-10
00000000: 9fbe 2131 acee 032f 33dd ec2f 5ea6 7430
00000010: 0e12 8a30 6d9e 2f2f 290e ed30 4ab7 ed30
00000020: 6cfb c72f 3d95 252e a8d0 5e2f 5bf1 532f
00000030: 026a 2931 7af6 4c2e 9591 a230 bccf 2030
00000040: 725a 4c30 0e54 032f e0a8 872e d936 af2f
00000050: 8d1b 022d 6282 8b30 bf61 fb2d 104b 652f
00000060: d71e df2c 2b75 a32e 278f ca2f 9029 fb2f
00000070: 32ba 5a31 1ff5 a82f fe40 4932 96a5 a530
00000080: dfe0 bb2e f7b9 db2f 35bf 952e 3c02 7a31
00000090: 7f22 092e 1969 812f b5ab e22e 346c 082e
000000a0: 7938 ae2e f81f 7d2f 97ac 8931 063c a42e
000000b0: 4194 0c31 5db6 852f 9936 c72e af1b 4c2f
000000c0: 6c40 7331 8011 a231 d2b1 772d 77cc 742d
000000d0: 63d1 762f 0f9c a02d 7bb2 042f 538c 402e
000000e0: 7add 1930 6bde b92d 70dd 4c30 5200 bf2e
000000f0: bfab ea2e 316c a330 3736 4230 e132 292f
00000100: d2d7 a02f 018e 2430 879b 2731 1596 5031
00000110: d797 792e b625 d42d c6ff ad2b 30d8 9130
00000120: 6718 b830 faba e62e 53ba 802d dccb 5c31
00000130: 83c8 7e30 477b 2631 768c d32c 9198 6630
00000140: 7ae7 a82e de9a af2f 9ba8 f630 68af 2630
00000150: 8ed5 6830 f78c 412d 963f db2e 4c29 0630
00000160: 4dba 5b2f f6b7 832c e6a3 8b2d b71b 5330
00000170: 3d1f 4530 ba67 be2e b424 2a2e 10cb 9730
00000180: f53c 4e2f 517e cb30 77aa ad2e 3d8e d62e
00000190: e5d5 ef30 2155 6f30 5cbe 6232 111b 052f
000001a0: 7802 1731 be49 2d2f b3fc 0230 9adf da2f
000001b0: 0aa8 1130 d830 6a2f 12a1 f52d d78f 5e2f
000001c0: 1efe fb2b a446 352e 70c2 072e 427e 182e
000001d0: 87d9 cb2f b20f f331 ccbf fb30 0e37 c230
000001e0: 440e af2f b8d3 0a31 f628 882e d51c e92e
000001f0: ce3d 1c32 0874 042e 67e4 8830 3741 ea2f
00000200: a273 3d2f c3db 002c 83ea ad2e c5b9 7e30
00000210: f5a6 c52e 5398 8630 f981 162f 0460 0c2d
00000220: eaac 7030 f51d 602f 2d54 8031 593e a332
00000230: 24e3 f52f 3cd2 8731 dcc6 d930 b009 a02f
00000240: 1820 cc31 e69a 382d 7f43 0e30 7daa 4430
00000250: 2288 c02e 7202 5c31 e2b3 ea30 e055 9a31
00000260: 92cc 8f30 7432 5330 3353 082f c686 a02f
00000270: 140a 802f 7d4f 9d31 4b53 2c30 2707 ed2d
00000280: bfc0 6330 4e86 0c2e 3e7a bc2f 19a6 0130
00000290: 8896 282e 044a e12e bed2 782f 23c0 942e
000002a0: 03fc 3730 74f1 072f 501c 8330 6ccc 3b2c
000002b0: 421f d82d 7faf 212c ac72 8f2f 9f69 5e2f
000002c0: 9c70 0b2f 9342 9130 b339 802f 74e6 aa2f
000002d0: 8a3c 9d2f 825f 0430 3c0a 8930 6004 972f
000002e0: 186c e62f b585 842e bfba 5b31 b615 032f
000002f0: 7740 a730 ecb0 f42f 94a5 9530 4187 f92e
00000300: 381b ce31 29f2 8b2f 41f7 b42e 03b8 222e
00000310: 7207 0e31 fa77 982e ec16 4b2e 3356 1631
00000320: c01b 162f 1560 c52e 62f2 8b31 adb3 0930
00000330: f9b1 6031 54a2 1030 bbd2 f92f cd47 2930
00000340: bcdf 8830 2da3 282c c739 f72e 91b6 1b31
00000350: 6de3 9930 c970 a22f 0d79 622f 13d4 0c31
00000360: 3ba3 162f bd99 3330 b6c4 802f 3a74 5031
00000370: 1196 502f c1f1 2d2f 8a97 562f 38a7 0a30
00000380: c661 2d2d 5a95 4a30 6dfe 9f2f b19c 0a32
00000390: f1e4 7430 614f 652f 2a6f 862e 88b9 a031
000003a0: 170e 2231 e1db a52e 9988 272e 36bc ca2f
000003b0: 6dff ac2d 5d3e 4f2f e0a7 272c a7af ba30
000003c0: d2ad f82f 491e f231 a3c0 a52f 67a6 0931
000003d0: 97c4 752e 6bd5 4730 cd42 d82e 89c2 2d30
000003e0: cd79 4d30 b997 0630 8323 192e 3dae ae2f
000003f0: 269d e22f 43ad 0a2f 2c37 4b30 cea4 312f
