Chrome/ml-agents-release_20/results-force/dino/Dino/Dino-176754.pt (torch, 782887 bytes, 21 tensors)

network_body._body_endoder.seq_layers.0.weight f4 [256, 123]
00000000: b9bf 2d3c 3679 d63c 4369 74bd 0f9b b5bb
00000010: 4b7a bcbb 424d 8dbb 9e93 173d d06e 31bd
00000020: f78b 1abd 9e91 50bc 64b7 fb3d 6453 243e
00000030: 148f 523d 954d 2e3d bb71 44ba 132b e63d
00000040: 571b 633d 46ce 923d 41ae 663d 8549 153e
00000050: 52f5 023e defd 91bc c1bd aebd fc20 013e
00000060: dd53 1b3d 69f7 90bd 7617 b7bc dd01 133e
00000070: 4e30 4b3a b57a 3d3d 5202 983d 1788 9b3c
00000080: 1130 aebd e81f da3d a5fc 01bc 4ed2 5f3d
00000090: 4559 9cbc e465 bbbc e4b7 dc3b f4b4 343e
000000a0: 6c90 f5bd 12c4 833c 97d3 d4bd dbe7 b0bd
000000b0: 7fdf aabc bedf ec3d 0f69 a5bd 1be8 12be
000000c0: eabf b03c 5d30 363d 1fb8 1cbe 0542 fb3b
000000d0: e6ed 933d c9f3 3f3e 5587 263d 7509 043c
000000e0: f700 453d 1117 0cbe ca51 273e 6571 203e
000000f0: f44b b9bd 088b b53d 556f 033e a943 a63a
00000100: 2747 0a3c c5a2 4c3d 7208 be3d f7b3 643b
00000110: 0d51 35bd f5ed ffbc 8ece 103c 6159 37be
00000120: 0686 d9bc d798 97bc f247 b9bd c0b5 5ebd
00000130: 1251 c8bd d88d fdbc a5bc 6c3e a247 0b3e
00000140: aa79 313e 777a c7bd 1bc1 aa3d c18a a4be
00000150: 307e ffbd 1778 943d 2731 90bd 9aba 213d
00000160: 264a c7bd 9f9e 9f3d 29f0 01bd b706 953d
00000170: 5a03 23be 182f 45be 4a56 cb3b 8555 e638
00000180: fd70 173c 1b39 f0bc b6e8 dabb afb4 28bd
00000190: 6369 203e 5897 1e3d 78f5 cd3b 16ff 323b
000001a0: e5b1 7fbd 8a61 dbbd ab7b b8bb a2d6 9bbd
000001b0: 37c7 c4bd 1bde 773d e05e 18bd c6d5 b23d
000001c0: 2575 793d c715 1fbd 5eb9 bfbd a439 9abc
000001d0: 1002 44bc 0d3b 4f3d 450b bcbd acf0 2ebc
000001e0: 8558 38bc ce58 ccbc 4e64 0dbe f111 bdbd
000001f0: b0ec 943d fb5c 41bd 2851 093e 4e25 a9bc
00000200: 4a89 6abc f686 b53c 5795 1c3e 5002 6fbc
00000210: 9e25 8e3d 39bb e13d eb2b ba3d 16b2 d1bc
00000220: a007 063e 85dd 11be 16b0 363e dadb d63d
00000230: 4bd7 cb3c 9d24 1d3d 6bc2 5cbd 622c bdbc
00000240: 6b5a 8cbd 30ba 45bd f1b4 af3c 2af1 96bd
00000250: fb3b 42be 3ac2 80bd 862d e9bd 2faf 333c
00000260: b320 12bd 410e 67bc 35e8 1ebd e170 5bbd
00000270: 38b3 4dbe 8a77 db3c 8ccd c83d 6e45 593d
00000280: 21f1 323e 7865 0d3d 3aa4 9cbd 223d bf3c
00000290: 10bf 1c3e 5283 19bd 107f 053e d2d3 67bd
000002a0: dbe3 453d 7884 4cbe c41b 993d 56db 67bd
000002b0: d402 c03d 3a72 b6bd b269 c83d 66bb c8bd
000002c0: ec89 83bd 888d 91bd f4f1 f8bc 4c13 363c
000002d0: 6317 193e d209 3cbd 3c5a 10be d732 2bbd
000002e0: fdf0 8fba 1317 633e 5b97 6a3d 4c8e bcbc
000002f0: b652 6dbd 64df fa3d cd7e f4bb d2e8 483d
00000300: 9086 a7bc 592a 843d 9137 b03d 4c0e 193c
00000310: 100d a1bd 433e 82bd df7d c33a b1c4 bdbd
00000320: 7e48 fa3c d492 c6bd b5e1 a13c ba7d 04bc
00000330: f73e 14be a80f e33c 221d d13d 40ab e0bd
00000340: 492a 3b3d 0176 403e 1237 b0bc 867f 62bd
00000350: d34b 3c3a f9b0 1fbc 7701 513d 7e86 b739
00000360: e8a0 873d b910 46bd 5429 1f3e 5ce9 dcbd
00000370: 853d b6bd bf2b e83c e9db b53d 106f 823d
00000380: 01cb 343e 8477 c93d fc5e 1f3d e19a a8bd
00000390: 9d16 cb3c 0cb1 133e f388 67bd 7025 06bb
000003a0: 9519 223d 2d86 6cbd e1e8 18bd 8875 633d
000003b0: 0d51 b3ba 8003 10bd 67aa fb3a ff47 1abd
000003c0: cc06 04bc 9d7a bd3c dee0 313b df3f 7fbd
000003d0: d6bd 473d 2cd0 29bb 94a3 25bd c720 c43d
000003e0: 1d98 b63d 8a53 09bb b2a2 5cbc c7ef 41bd
000003f0: 9716 1f3d a79f c53c a4d7 e5ba 3fe9 cbbc
0.010604792 0.026180845 -0.059670698 -0.005542166 -0.005751883 -0.0043121884 0.037006013 -0.04331857
-0.037731137 -0.01273003 0.12290838 0.16047436 0.05140598 0.042554457 -0.0007493754 0.112386845
0.055445995 0.0716825 0.056318525 0.14578827 0.12788895 -0.017821249 -0.085322864 0.12610239
0.037921775 -0.0707844 -0.022350054 0.1435618 0.00077510334 0.0462596 0.074223176 0.018985791
-0.08505262 0.10650617 -0.00793377 0.05464392 -0.019085536 -0.022875734 0.0067357887 0.17647153
-0.11990437 0.016084705 -0.1039192 -0.08637973 -0.020858524 0.11566113 -0.08076679 -0.14346354
0.021575887 0.044479717 -0.15304612 0.0076677823 0.0722311 0.1874534 0.040656406 0.008058895
0.048096623 -0.13680674 0.16339794 0.15668257 -0.0904769 0.08864409 0.12835439 0.0012684959
0.008439816 0.049959917 0.092789546 0.0034897306 -0.04426675 -0.031241396 0.008838309 -0.17905189
-0.026553165 -0.018505497 -0.090469256 -0.05437255 -0.09781088 -0.030951425 0.23118837 0.13601544
0.17331567 -0.09740155 0.08337613 -0.3213711 -0.1247524 0.07249468 -0.07040625 0.039484598
-0.097309396 0.077939264 -0.031723175 0.072766714 -0.15919247 -0.19256246 0.006205355 0.00010983184
0.009243247 -0.029324105 -0.0066805733 -0.04118794 0.15665202 0.03871855 0.0062853657 0.0027312688
-0.062425513 -0.107119635 -0.0056299767 -0.07609297 -0.0960831 0.06051455 -0.037199855 0.0873218
0.060902733 -0.038839128 -0.09361528 -0.018826313 -0.011963382 0.050593425 -0.09181837 -0.010677498
-0.011251573 -0.02494469 -0.13807794 -0.09231938 0.07271707 -0.047207814 0.13409865 -0.020647671
-0.014314959 0.022159081 0.15291344 -0.014587954 0.06940769 0.11022038 0.09090408 -0.025597613
0.13088846 -0.14244659 0.17840609 0.10491152 0.024882933 0.038364995 -0.05389635 -0.023092452
-0.06853183 -0.048273265 0.021448584 -0.07370217 -0.18968193 -0.06287046 -0.11385636 0.01096706
-0.035675716 -0.0141025195 -0.03879567 -0.053574447 -0.20087898 0.0267904 0.0980483 0.05304473
0.17474796 0.034520596 -0.07648511 0.02334458 0.1530726 -0.037478752 0.13036752 -0.056598492
0.048313003 -0.19972408 0.07475999 -0.05660566 0.093755394 -0.08908506 0.09785785 -0.098013684
-0.06422791 -0.07107073 -0.03038881 0.011112999 0.14950328 -0.045907803 -0.14096922 -0.04179653
-0.0010981854 0.22176771 0.05727325 -0.023017071 -0.057940207 0.1224964 -0.007461405 0.04905016
-0.020449907 0.0645339 0.086043485 0.009341788 -0.078638196 -0.06359532 0.0014914832 -0.092660315
0.030552145 -0.09695974 0.019760946 -0.008086616 -0.14477144 0.027717426 0.10210635 -0.10970163
0.045694623 0.18795015 -0.021510635 -0.055297397 0.00071829295 -0.009746783 0.051026788 0.00035004684
0.06622487 -0.04835579 0.15543109 -0.10786697 -0.08898453 0.028341172 0.08879835 0.0636884
0.17655565 0.09837249 0.038908944 -0.08232666 0.024791056 0.14423007 -0.05652709 -0.0020469092
0.03957518 -0.057745147 -0.037331466 0.05553201 -0.0013680771 -0.035159588 0.0019200564 -0.037666317
-0.008058261 0.023129756 0.0027142088 -0.06231677 0.048765026 -0.0025911434 -0.040439203 0.09576564
0.08915732 -0.0020954334 -0.013466524 -0.04734781 0.038839903 0.02412398 -0.0017535579 -0.024891494

network_body._body_endoder.seq_layers.0.bias f4 [256]
00000000: 10f3 8b3c b402 ab3b 6f02 633b 439a de3c
00000010: eec5 223b 7c2d 903c 1e21 3e3b a4fe 133b
00000020: 50ea e93c 6f50 de3c 6367 0cb8 2e38 773c
00000030: 376b 043c f874 4e3c 8fae 4e3c 63af 643a
00000040: 3179 1a3a 408f be3c 3428 d9bb 7f80 8f3c
00000050: 2607 a23c 8d7a c83b 4110 dcba b28e 4bb9
00000060: 5828 8abb fb0b 693c 01cb febb 485b d03c
00000070: 7e09 273c bc6d d4bb 3ee2 853b fa5f 9b3b
00000080: a47f a93c 2da8 97bb 0fcf cb3b c969 a13c
00000090: 2961 a53a 4f9d 803b 7274 223c 3486 fd3b
000000a0: ebfd 15bb 160d a63c a0c9 dd3c cbb8 3fba
000000b0: 2200 8fbb 583e 583c 9721 393b ce54 413c
000000c0: 9ccf 423c 6133 393c 1a4b 513c 8b0a 333b
000000d0: 67f2 633a 8fcb 603c f94f 0f3d 5f6a 4abc
000000e0: 80ed cf3c 0dba 073c 80ba bf3b 05bb 843c
000000f0: e9c2 39bb 9adb d53b 196d 4139 cfe2 793b
00000100: a333 a5b9 1aee e03b f7ee 273d 8d58 e03b
00000110: 6ec3 02bb 6065 db3a 98fd 523c a364 81bb
00000120: e265 d83b 5360 0b3c 2fd2 f43b a3d1 573c
00000130: 51c9 f43c 659a b43c 57fb 263c 2e14 173b
00000140: b454 843a c5d9 9e3c d7bc 8e3b 114b c43b
00000150: 6127 6c3c 6a63 283c 8632 153d 55fc ffb9
00000160: 9629 c23c 1abc da3b 842b 5c3c 4e73 273c
00000170: 3363 ec3c 114a e33c 3c4f 9b3c 48a4 c4bb
00000180: a760 b83c 4580 d93c 89af 753b 8cce 193c
00000190: 68ad 04bc 2008 7eb9 fad4 b93b 648b 3738
000001a0: a05c 9d3c 5fd2 cf3b 2d5e ee3a 6469 4d3d
000001b0: 10d2 c53a 6c9e cf3c e261 a7ba d4ba 903b
000001c0: f0d7 803c be87 11ba 0edd 38bc 1061 8a3b
000001d0: 53b8 e83c b99f 413c 606e 7d3c a643 113d
000001e0: 113e 463c 816a 093d e2d5 5e3a 7ed2 af3a
000001f0: 2bc8 1abb fd84 f23c 065d 04bc 136f 233c
00000200: 3a9c cc3c 7273 293d 744c 603b 2744 913b
00000210: 6562 ddbb 66c2 c23b d15e 5b3c a092 203c
00000220: 5986 8e3c 99df 7b3c a538 1d3c f034 bfbb
00000230: 43b5 0c3c 32e7 35bb 80e4 5c3c 8414 e03b
00000240: 23c7 8eba 1444 d43c d463 483c 3c6d 023c
00000250: 7dcb fb3c e7b0 943c 1ac8 8f3b 245a f33c
00000260: 0b05 8b3c 4cc5 e4ba 3a11 4eba fd97 b83b
00000270: bcae 303c 0e4a 083c f377 38ba 19a8 093b
00000280: cff3 32bc 09e9 1c3c 4b7d 52ba 240b 073d
00000290: 53c6 a13c 588e 84ba 0b86 7c3b 4bc8 4b3c
000002a0: ab47 723c b439 eb3c e3d1 cd3b 2a6b ce3a
000002b0: 3754 273b 26c3 253c f693 b73c 7ff0 0b3b
000002c0: e2b9 a43b 4b7a 1e3d 0566 c03b 6363 06bc
000002d0: c2fe efbb 261f 423c 8f52 cc3c 0890 cc3c
000002e0: 31a2 6c3a c9fa e63b 0ee8 dd3a a691 bf3b
000002f0: 0f3c a03c 3967 e63b c850 f2b9 8544 c0ba
00000300: da85 8d3a c1d6 db3c 70b8 473b b5af b63c
00000310: a1b3 e03b 8505 10bc e240 243c bc81 1f3c
00000320: b84d 86bb 5929 fb3b 337e 383c 449b 013c
00000330: ec41 713c 3b53 363c 2cfd 3abc 3c4a 4c3c
00000340: 65e7 813c af53 5e3c fd67 2c3c de10 943b
00000350: bea2 c83a 6047 6c3c f874 8339 b2b4 613c
00000360: fe6a 1d3c acb9 4f3c b521 133b 62a6 8a3b
00000370: 0333 6e3c f938 453c 8c4a 743b c19d 543b
00000380: 4d48 e73c 71a4 60bc 72af 273c caf0 163d
00000390: 6b52 2f3c f439 a4ba 975a fe3b 3d4b 633b
000003a0: 2d61 87bb 177d 8c3c 8d4a 90bb 4cc3 7f3b
000003b0: 473e ec3b 5358 79ba f7ff 89bb 063d 8d3c
000003c0: ae52 9e3c c776 233c 3394 9f3a b40c 4e3b
000003d0: 4519 8c3c 2950 20bc d5cc 573b b11a 893c
000003e0: d9f2 993c 03f3 0c3c ce7e 0b3b a9aa a53c
000003f0: d8b9 323b c8c4 9e3b 21a7 c53b d059 223d
0.017083675 0.005218828 0.0034638902 0.027173167 0.0024837214 0.017599814 0.0029011439 0.0022582198
0.028554112 0.027137963 -3.3474887e-05 0.015089078 0.008082203 0.01260113 0.01261486 0.00087236444
0.0005892693 0.023261666 -0.006627107 0.017517326 0.0197788 0.006118125 -0.0016789512 -0.00019412747
-0.004216235 0.014224048 -0.007775665 0.025434151 0.010195134 -0.006482808 0.004085808 0.004741666
0.020690747 -0.0046282024 0.0062197517 0.019703763 0.0012617457 0.0039250026 0.009915458 0.0077369455
-0.0022886943 0.020269912 0.027073681 -0.0007313608 -0.0043640295 0.013198458 0.002824878 0.011800004
0.011890318 0.011303754 0.012774253 0.0027319517 0.00086954836 0.013720407 0.034988377 -0.012354462
0.025381804 0.008284104 0.00585109 0.01620246 -0.0028344935 0.0065264227 0.00018446556 0.0038129573
-0.00031509725 0.0068643214 0.04099938 0.0068464936 -0.001995291 0.0016738586 0.012877844 -0.0039487644
0.0066039423 0.008506852 0.007471345 0.01317254 0.029881151 0.022046277 0.01019176 0.00230528
0.0010096044 0.01939095 0.0043560076 0.005990394 0.014413686 0.010277608 0.036425136 -0.00048825392
0.02370147 0.0066752555 0.013438109 0.010220362 0.028855896 0.027745279 0.01895868 -0.006001029
0.022507025 0.026550421 0.003748866 0.0093876235 -0.008097984 -0.00024226354 0.0056711407 4.3760418e-05
0.019209206 0.006342217 0.0018186026 0.050149336 0.0015092511 0.025344096 -0.001277026 0.004416803
0.015727967 -0.0005551538 -0.011283172 0.0042229965 0.028408205 0.011817866 0.01546821 0.035464905
0.012099759 0.033548836 0.0008500499 0.0013414172 -0.0023617845 0.02960443 -0.008078819 0.009975213
0.024976838 0.041369863 0.0034225257 0.004433173 -0.0067561143 0.0059435843 0.013389305 0.009800583
0.017398046 0.015373134 0.009596025 -0.005835168 0.008588138 -0.0027756211 0.013482213 0.006838383
-0.0010893088 0.025911368 0.012230832 0.007960614 0.03073668 0.01815076 0.0043878676 0.029706068
0.016970178 -0.0017453819 -0.00078608433 0.005633353 0.010783847 0.008318437 -0.0007036917 0.0021004735
-0.010922386 0.009577044 -0.00080295344 0.03296961 0.019747889 -0.0010113223 0.0038532044 0.01243789
0.014787595 0.028714038 0.006281124 0.001574849 0.0025532374 0.010117328 0.02240942 0.0021353064
0.005027042 0.038690846 0.0058715367 -0.008202407 -0.0073240707 0.011848247 0.02494171 0.024971023
0.0009026854 0.007048939 0.001693012 0.00584622 0.019559888 0.007031348 -0.00046218024 -0.0014668858
0.0010797337 0.026835801 0.0030474924 0.02230058 0.006857351 -0.008790378 0.010025235 0.009735521
-0.0040986203 0.007664841 0.011260557 0.007910553 0.01472519 0.011128242 -0.0114129 0.012468871
0.015857408 0.013569756 0.01052284 0.0045186123 0.001530729 0.014421314 0.00025073416 0.013775991
0.009608028 0.012678545 0.002245051 0.00423126 0.014538529 0.012037509 0.0037275879 0.0032442661
0.028232718 -0.013711081 0.0102347005 0.036850728 0.010700802 -0.0012529478 0.007762264 0.0034682297
-0.0041314573 0.017149491 -0.0044034184 0.0039026318 0.0072095725 -0.00095117575 -0.0042114216 0.017241012
0.019326534 0.009977049 0.0012174904 0.0031440677 0.017101893 -0.009784737 0.0032928486 0.01673636
0.018792557 0.00860286 0.0021285298 0.020222979 0.0027271416 0.0048452355 0.006031886 0.039636433

action_model._discrete_distribution.branches.0.weight f4 [2, 256]
00000000: 40f7 4d3d 471a 0dbd 0f07 05bd 4e98 043d
00000010: d404 5bbd 50d8 78bc a261 cabc fdd1 7a3b
00000020: d89c 813d 34ad ee3c a54b 783c 2d70 2d3c
00000030: 89db c73c 82d1 36bd fac7 a7bc 3a32 6fbc
00000040: 070f 8bbc 768e 1e3d 3872 74ba e58b acbc
00000050: ed18 1a3d c40b 13bd 65ca 5cbc 2e70 3cbc
00000060: f74c ffbb 60a2 0abd 6178 8ebc 0f7a 21bd
00000070: aaea 28bc 79ca 39ba 0c68 07bd 0e14 0dbd
00000080: ca28 9d3c f0ac cbbb 98c0 1dbd b8a4 4f3c
00000090: c5cc 8bbc 7586 b5bc 61c7 c83c ebf7 34bd
000000a0: df18 83bc 2f42 623d 2906 fd3c 8a68 8abc
000000b0: 2e3c 08bc 77bc 43bc f988 4a3b 94c1 eabc
000000c0: 092d 0abd 3868 a9bc fb2d 003d 1b2b 903c
000000d0: 82fe dfbc 507a 2b3d 7d98 25bd 8883 0fbb
000000e0: bcf6 833d 07d2 d43c 69e2 8dbc e8f4 26bd
000000f0: d7b9 7fbc 6709 71bd 9ba3 a0bc c76f d7bb
00000100: a1f1 4fbc 2bd2 8d3c d2bb 023d 5af4 ad3c
00000110: 829a 5d3a 2074 17bd f142 25bd ac5e 2b37
00000120: b384 9e3c aedb 33ba 3aac 4a3c 86c8 ea3c
00000130: c4ac ac3d 4b9f 213c d1bf ee3c 2dfe 0c3c
00000140: 0687 9ebc 4481 4b3d 9a73 8dbb abb7 bbbc
00000150: 09e5 2bbd 3e18 2c3c a9d2 613d a8aa c0bc
00000160: c1e6 f43c c8d3 ccbc 95d0 51bd e3f2 7a3c
00000170: a6cb bb3c 2a75 b33c 956d 013d c861 03bc
00000180: ca82 443d 27ab c13d ee72 583c b503 75bd
00000190: c6fa 7bbb b58c 85bc 4d48 59bd d207 cdbc
000001a0: b368 6e3d 456f 6438 3561 403c f699 863d
000001b0: d7e0 4cbc b381 933d 93f8 49bc 0c41 06bd
000001c0: 61ae abbc 2c1b b3bc 77be e5bb b7c9 95bb
000001d0: 9d42 be3c a714 4fbd 49ce 4f3d 2d30 573d
000001e0: 907c 63bd 1cf2 873d 5f38 8cbc 518e 3f3c
000001f0: e3f6 483c 77fb 1d3d 65b5 ea3b 9259 debc
00000200: 521c 583d f9c1 463d 0d57 5dbb 4a2a 08bb
00000210: 714f 35bb 7f06 843c 90ee 123d 3346 bebc
00000220: dc67 2f3d 15cb 0d3d 8e7f 86bc 226e 51bc
00000230: 4305 d338 7185 eabb 01bd 44bd 7c31 96bc
00000240: 6ed4 acbc fb99 f73c c60f 1e3d 6549 c43c
00000250: 50e4 ba3c c4f3 22bd a1ec 00bd 2fc4 5a3d
00000260: 4372 483d a1dd 86bc f412 77bc eceb bb3c
00000270: 92da 8abc 5e67 943c 546e 90bc 043d d43b
00000280: 5329 e23a 7146 ca3c 6f92 2fbc bb5f 983c
00000290: ea09 aa3c 6c4d eb3a 427d 94bc 9414 6bbd
000002a0: 3941 65bd e14d d53c 6767 ad3c 2057 a4bc
000002b0: 7fb9 f8bc d0c5 c63c 1a3f 763d e473 413c
000002c0: d55e f2bc f81d f63c bd87 7ebc 3368 19ba
000002d0: 8590 40bc 2fbf 0d3d 8a8a 8d3d b999 883d
000002e0: 0cd6 84bc 7966 2bbd 2b10 e6bc 48da 843c
000002f0: 9910 413d d35b 713c 71f9 2e3c 0f27 f63b
00000300: 9ab7 733c b309 3c3d 2357 8cbc 6084 e8bc
00000310: a24c cfbc ac27 3fba cccd 06bd 0b14 92bc
00000320: e529 0bbc dc54 39bd 9385 ce3b 1e78 8e3c
00000330: af40 ac3c 79f2 2cbd f9b6 b03b cfec 353d
00000340: 581d 8ebd e31d f5bc 6127 bfbc 31ae 45bd
00000350: cb84 a7bc 4117 30bd 3dd6 0cbc 497a b23c
00000360: a711 2ebd 3f0e 003d 72ba fd38 2f46 8e3c
00000370: 1e3e 63bd 9d23 0a3d 29d3 763c 5690 413c
00000380: 2798 3d3d 37fa 81bc b5ba d3bc b8ce d33c
00000390: 069b bcbc d3d9 01b9 fe84 f8bc ad6a 44bd
000003a0: 4a3c 4bbc 37b3 61bc 7c8d 6fbc d992 0cbd
000003b0: 22dd d63c 9071 a8bc b47a 4d3c 6641 92bc
000003c0: ff24 243d c5ef b0bc caa8 23bc 0d8b 0abd
000003d0: 7e7b 2fbd 1948 26bc 0576 533c 27b1 93bc
000003e0: 22c6 49bd 7949 bfbc ee25 e1ba f66a 743c
000003f0: 5d43 9fbc 4474 24bd b158 6e3b f766 2b3d
0.050284624 -0.03444889 -0.032477435 0.03237181 -0.0534714 -0.015188292 -0.024704758 0.0038272135
0.06328744 0.029135324 0.015154754 0.010585827 0.024396675 -0.044633396 -0.020481098 -0.014599377
-0.016974939 0.03871008 -0.0009324881 -0.0210628 0.037621427 -0.035899892 -0.013475989 -0.011501355
-0.0077911573 -0.03384626 -0.017391386 -0.039423045 -0.0103098545 -0.0007087361 -0.03305821 -0.034442954
0.019184489 -0.006215684 -0.03851375 0.012673549 -0.017065415 -0.02215884 0.024509134 -0.044181745
-0.01600307 0.0552389 0.030886726 -0.016895551 -0.008315129 -0.011946789 0.0030904396 -0.028656758
-0.033734355 -0.020679578 0.03129385 0.01759868 -0.027343038 0.041864693 -0.040428627 -0.0021898467
0.06443545 0.025979055 -0.017319875 -0.040760905 -0.0156082725 -0.058846857 -0.019609263 -0.006574604
-0.012691886 0.01731213 0.0319174 0.02123468 0.00084535044 -0.03697598 -0.040347043 1.0214437e-05
0.019350385 -0.0006861043 0.012370164 0.02866007 0.0843139 0.009864639 0.0291442 0.008605522
-0.019351494 0.049683824 -0.0043167593 -0.022914728 -0.04196647 0.010503827 0.05513254 -0.023518875
0.029895188 -0.025003329 -0.05122431 0.015316698 0.022924256 0.021906454 0.031598646 -0.008018918
0.047976293 0.09456473 0.013210995 -0.05981799 -0.0038449033 -0.016302446 -0.053047467 -0.025028143
0.058205318 5.4463064e-05 0.011741926 0.065723345 -0.012504778 0.072024725 -0.012327331 -0.032776877
-0.020957174 -0.021863542 -0.0070112306 -0.0045711654 0.023225123 -0.050556805 0.05073384 0.05253618
-0.055538714 0.066379756 -0.017116724 0.011691646 0.012265894 0.038569894 0.007162737 -0.02714232
0.052761383 0.04852483 -0.003377381 -0.002077716 -0.002766576 0.016116379 0.035872042 -0.023226833
0.042823657 0.034617502 -0.016418245 -0.012782605 0.00010062244 -0.0071570207 -0.04803181 -0.018334143
-0.021097388 0.03022479 0.03858926 0.023960778 0.022813946 -0.039783254 -0.031475667 0.05340975
0.048937093 -0.016463103 -0.015080202 0.022939645 -0.016949926 0.018115696 -0.017630734 0.006477
0.0017254747 0.024691792 -0.010716065 0.018600335 0.02075668 0.0017952151 -0.018126134 -0.05739267
-0.055970404 0.026038112 0.02116747 -0.020061076 -0.030361889 0.024264246 0.060118772 0.011807416
-0.029586235 0.030043587 -0.015535292 -0.0005852014 -0.011753206 0.034606155 0.0691119 0.06669945
-0.016215347 -0.041845772 -0.028083881 0.016217366 0.04713497 0.014731365 0.010679589 0.0075119804
0.014875317 0.045907687 -0.017131394 -0.028383434 -0.025305096 -0.00072919833 -0.032911107 -0.017831823
-0.008493875 -0.045246944 0.0063025444 0.01739126 0.021026937 -0.042223427 0.005392906 0.04441529
-0.069391906 -0.029921478 -0.023334207 -0.048261825 -0.020449063 -0.042990927 -0.008596 0.021786826
-0.042497303 0.031263586 0.00012098708 0.01736745 -0.05547916 0.03372537 0.015064993 0.0118141975
0.046287682 -0.015866382 -0.025845865 0.025855407 -0.02302314 -0.00012383545 -0.030336853 -0.047953296
-0.012404511 -0.013775638 -0.014621135 -0.034319732 0.026228491 -0.020561963 0.012541462 -0.01785345
0.040074345 -0.021598706 -0.009988973 -0.033824015 -0.04284238 -0.010149025 0.012906556 -0.018028809
-0.04926122 -0.023350464 -0.0017177442 0.01491808 -0.019441301 -0.040149942 0.0036368782 0.04184624

action_model._discrete_distribution.branches.0.bias f4 [2]
00000000: 62bf 843b 63bf 84bb
0.004051135 -0.0040511354

exp_avg f4 [256, 123]
00000000: a73b a8b7 3859 5339 4fe7 5a39 a73b a8b7
00000010: 3859 5339 8951 5b39 0000 0000 c651 3e39
00000020: c651 3e39 a73b a8b7 3859 5339 e5a2 5b39
00000030: 0000 0000 c651 3e39 c651 3e39 a73b a8b7
00000040: 0fab 3839 66ff 5639 0000 0000 e46a a539
00000050: 70bd 6b39 864f c0b8 bb1a 5b39 ffff 7439
00000060: 0000 0000 941c 5c39 2488 4c39 67dc aab8
00000070: 1aa1 6339 d0f4 6a39 0000 0000 941c 5c39
00000080: 2e2a 4f39 81ef 3cb8 5045 6b39 6be5 5d39
00000090: 0000 0000 dad0 4c39 3a30 4f39 72b5 5638
000000a0: a950 8539 1da8 3039 0000 0000 dad0 4c39
000000b0: 5af7 4e39 3695 1739 d990 de38 e20e 3839
000000c0: 0000 0000 dad0 4c39 33d6 4e39 1d4f 3a39
000000d0: 901b 0c39 3145 2439 0000 0000 dad0 4c39
000000e0: 8bc2 4e39 6214 b738 4896 6a39 85df 2539
000000f0: 0000 0000 dad0 4c39 0fbc 4e39 250e e5b8
00000100: b699 6d39 b318 8b39 0000 0000 7652 ac38
00000110: 94d0 0d39 7506 27b5 49ee 2b39 34e6 2439
00000120: 0000 0000 7fa6 cd38 7af7 b838 df1a bab7
00000130: 0000 0000 5bcb dc38 0000 0000 0000 0000
00000140: 1ea7 9538 f201 41b8 0000 0000 bfcf ae38
00000150: 4a71 d537 0000 0000 5bd0 6038 41fe 7db8
00000160: 0000 0000 79ad 8538 4a71 d537 0000 0000
00000170: ef74 6538 1c30 f8b6 0000 0000 146f 6738
00000180: 9a53 6fb7 0000 0000 e6e6 6b38 1c30 f8b6
00000190: 0000 0000 291a 5238 1c30 f8b6 0000 0000
000001a0: 5038 5238 1c30 f8b6 0000 0000 05e3 4438
000001b0: 1c30 f8b6 0000 0000 05e3 4438 1c30 f8b6
000001c0: 0000 0000 2997 3d38 1c30 f8b6 0000 0000
000001d0: 2997 3d38 1c30 f8b6 0000 0000 0148 3b38
000001e0: 1c30 f8b6 0000 0000 0148 3b38 1f5c 9237
000001f0: a74c 06b9 a02a 0bb9 1f5c 9237 a74c 06b9
00000200: d681 0bb9 0000 0000 4602 e8b8 4602 e8b8
00000210: 1f5c 9237 a74c 06b9 03b7 0bb9 0000 0000
00000220: 4602 e8b8 4602 e8b8 1f5c 9237 6f41 d8b8
00000230: ccf8 06b9 0000 0000 33b3 45b9 7369 0eb9
00000240: 6a7c 9438 406f 0fb9 15d9 1fb9 0000 0000
00000250: 411d 02b9 9a78 f5b8 6594 7638 ef75 13b9
00000260: 2626 17b9 0000 0000 411d 02b9 11f7 f7b8
00000270: 1c87 fa37 bb8e 1cb9 cf68 0db9 0000 0000
00000280: 8a55 e2b8 43f3 f5b8 e2d3 1bb8 0930 2bb9
00000290: 91bf e1b8 0000 0000 8a55 e2b8 6b23 f4b8
000002a0: 255f b6b8 9ae9 8cb8 dfbb f4b8 0000 0000
000002b0: 8a55 e2b8 5505 f3b8 8b9e 02b9 1846 bab8
000002c0: 68fe c7b8 0000 0000 8a55 e2b8 0566 f2b8
000002d0: d7ab 90b8 c77d 1eb9 ae6f c5b8 0000 0000
000002e0: 8a55 e2b8 3334 f2b8 38b1 9d38 57da 0bb9
000002f0: b54f 18b9 0000 0000 0894 00b8 ee4c 4eb8
00000300: 779f 90b6 0483 d4b8 529e 9ab8 0000 0000
00000310: ad77 a2b8 3431 d6b7 8f18 c837 0000 0000
00000320: 779c 43b8 0000 0000 0000 0000 70b0 d4b7
00000330: 596b 5d38 0000 0000 b33d 28b8 7c5f d1b7
00000340: 0000 0000 2de1 8ab7 e427 5438 0000 0000
00000350: 6ce8 eab7 7c5f d1b7 0000 0000 4041 a7b7
00000360: 8029 1237 0000 0000 6191 c9b7 7851 9337
00000370: 0000 0000 0014 d5b7 8029 1237 0000 0000
00000380: 60f9 b6b7 8029 1237 0000 0000 5740 b7b7
00000390: 8029 1237 0000 0000 737a abb7 8029 1237
000003a0: 0000 0000 737a abb7 8029 1237 0000 0000
000003b0: 0921 a5b7 8029 1237 0000 0000 0921 a5b7
000003c0: 8029 1237 0000 0000 2522 a3b7 8029 1237
000003d0: 0000 0000 2522 a3b7 e858 6637 bb43 16b9
000003e0: 6ada 1bb9 e858 6637 bb43 16b9 ac24 1cb9
000003f0: 0000 0000 2bde 07b9 2bde 07b9 e858 6637
-2.0054938e-05 0.00020155765 0.00020876269 -2.0054938e-05 0.00020155765 0.00020915842 0.0 0.00018150275
0.00018150275 -2.0054938e-05 0.00020155765 0.0002094615 0.0 0.00018150275 0.00018150275 -2.0054938e-05
0.00017611332 0.00020503774 0.0 0.00031550892 0.00022481917 -9.170086e-05 0.00020895425 0.0002336502
0.0 0.00020991481 0.00019505672 -8.147285e-05 0.00021708422 0.00022407179 0.0 0.00020991481
0.00019756772 -4.504575e-05 0.00022437167 0.00021161667 0.0 0.0001953276 0.00019759024 5.119056e-05
0.00025427833 0.00016847295 0.0 0.0001953276 0.00019737837 0.00014456068 0.00010612765 0.00017553152
0.0 0.0001953276 0.00019725486 0.00017767814 0.00013361708 0.00015666035 0.0 0.0001953276
0.00019718164 8.7299166e-05 0.00022371963 0.00015818894 0.0 0.0001953276 0.00019715748 -0.000109222055
0.00022659343 0.00026530548 0.0 8.216959e-05 0.00013524509 -6.2221744e-07 0.00016396599 0.00015726016
0.0 9.806174e-05 8.8199e-05 -2.218544e-05 0.0 0.000105282954 0.0 0.0
7.136002e-05 -4.6016597e-05 0.0 8.335662e-05 2.5444333e-05 0.0 5.3599808e-05 -6.0556693e-05
0.0 6.374246e-05 2.5444333e-05 0.0 5.4706758e-05 -7.3965766e-06 0.0 5.517814e-05
-1.4264975e-05 0.0 5.6243407e-05 -7.3965766e-06 0.0 5.0092265e-05 -7.3965766e-06 0.0
5.0120347e-05 -7.3965766e-06 0.0 4.694147e-05 -7.3965766e-06 0.0 4.694147e-05 -7.3965766e-06
0.0 4.520189e-05 -7.3965766e-06 0.0 4.520189e-05 -7.3965766e-06 0.0 4.4651333e-05
-7.3965766e-06 0.0 4.4651333e-05 1.7447454e-05 -0.00012807791 -0.00013271952 1.7447454e-05 -0.00012807791
-0.0001330444 0.0 -0.000110630455 -0.000110630455 1.7447454e-05 -0.00012807791 -0.0001332425 0.0
-0.000110630455 -0.000110630455 1.7447454e-05 -0.000103118706 -0.0001287192 0.0 -0.00018854141 -0.00013581458
7.080364e-05 -0.00013678987 -0.00015244291 0.0 -0.00012408664 -0.00011704974 5.8789174e-05 -0.00014062946
-0.00014414694 0.0 -0.00012408664 -0.000118238975 2.9865238e-05 -0.0001493049 -0.00013485852 0.0
-0.00010792453 -0.000117278214 -3.715221e-05 -0.00016325725 -0.00010764518 0.0 -0.00010792453 -0.00011641424
-8.696158e-05 -6.719232e-05 -0.000116698204 0.0 -0.00010792453 -0.00011588136 -0.00012456828 -8.882227e-05
-9.536446e-05 0.0 -0.00010792453 -0.00011558462 -6.898463e-05 -0.0001511491 -9.414494e-05 0.0
-0.00010792453 -0.00011549182 7.519353e-05 -0.00013337411 -0.00014525543 0.0 -3.0655443e-05 -4.9185874e-05
-4.3100986e-06 -0.00010133351 -7.372782e-05 0.0 -7.747053e-05 -2.55337e-05 2.3853294e-05 0.0
-4.6637342e-05 0.0 0.0 -2.535453e-05 5.279048e-05 0.0 -4.0111783e-05 -2.4959205e-05
0.0 -1.6555738e-05 5.058189e-05 0.0 -2.8003204e-05 -2.4959205e-05 0.0 -1.9938336e-05
8.711941e-06 0.0 -2.4028765e-05 1.7561702e-05 0.0 -2.5400892e-05 8.711941e-06 0.0
-2.1812215e-05 8.711941e-06 0.0 -2.184526e-05 8.711941e-06 0.0 -2.0441808e-05 8.711941e-06
0.0 -2.0441808e-05 8.711941e-06 0.0 -1.9684916e-05 8.711941e-06 0.0 -1.9684916e-05
8.711941e-06 0.0 -1.9447014e-05 8.711941e-06 0.0 -1.9447014e-05 1.3729768e-05 -0.00014330346
-0.00014863317 1.3729768e-05 -0.00014330346 -0.0001489098 0.0 -0.00012957367 -0.00012957367 1.3729768e-05

exp_avg_sq f4 [256, 123]
00000000: 7ead c931 5ea8 6b34 0f4e 6c34 7ead c931
00000010: 5ea8 6b34 863f 6c34 0000 0000 4f07 7434
00000020: 4f07 7434 7ead c931 5ea8 6b34 f547 6c34
00000030: 0000 0000 4f07 7434 4f07 7434 7ead c931
00000040: d056 6834 1f84 6b34 0000 0000 ab74 5d34
00000050: 4ee2 6a34 fd9e 8531 3fd9 5e34 fd16 6734
00000060: 0000 0000 f97a 5a34 610f 6534 a0b9 2532
00000070: 9527 4934 b1f5 5a34 0000 0000 f97a 5a34
00000080: 12d8 6234 6071 1132 7727 1334 5d13 5534
00000090: 0000 0000 bb63 1f34 d53e 5834 28f5 5332
000000a0: ba76 0134 05e8 5034 0000 0000 bb63 1f34
000000b0: b2a6 5034 ff81 c032 9ae1 f533 2c54 4734
000000c0: 0000 0000 bb63 1f34 ed2a 4c34 3994 d032
000000d0: 6500 0634 642c 4434 0000 0000 bb63 1f34
000000e0: 21c6 4934 244a 1f32 9c2b 1034 59b7 4834
000000f0: 0000 0000 bb63 1f34 280b 4934 2ef7 8632
00000100: 647e 6433 e764 dd33 0000 0000 aa93 a633
00000110: 3057 fb33 9373 c532 c347 8e32 b9a9 8d33
00000120: 0000 0000 cece ad32 6609 a433 66e5 9032
00000130: 0000 0000 d616 1733 0000 0000 0000 0000
00000140: 911c 2933 0359 7d32 0000 0000 426e bc32
00000150: af80 9930 0000 0000 99b7 ca32 e0d9 6432
00000160: 0000 0000 cace 8932 af80 9930 0000 0000
00000170: 1afb 8e32 b6e3 be31 0000 0000 ace4 5632
00000180: e564 3131 0000 0000 6c9c 5a32 b6e3 be31
00000190: 0000 0000 f72a 3132 b6e3 be31 0000 0000
000001a0: 792c 3132 b6e3 be31 0000 0000 627e 1b32
000001b0: b6e3 be31 0000 0000 627e 1b32 b6e3 be31
000001c0: 0000 0000 242b 1032 b6e3 be31 0000 0000
000001d0: 242b 1032 b6e3 be31 0000 0000 36a4 0c32
000001e0: b6e3 be31 0000 0000 36a4 0c32 33e9 4631
000001f0: e6fe 9f33 bcfd a033 33e9 4631 e6fe 9f33
00000200: f1ec a033 0000 0000 5b26 a933 5b26 a933
00000210: 33e9 4631 e6fe 9f33 baf8 a033 0000 0000
00000220: 5b26 a933 5b26 a933 33e9 4631 8c95 9b33
00000230: 5fe3 9f33 0000 0000 a5fc 9a33 c373 a333
00000240: 5b5e 0331 d294 8c33 fdc9 9733 0000 0000
00000250: 28a1 9833 3783 9f33 8c65 4831 7e79 8433
00000260: 2e11 9133 0000 0000 28a1 9833 3a14 9e33
00000270: f3ca 0b31 1404 2033 6878 8c33 0000 0000
00000280: 2d55 8333 79e1 9933 1015 5c31 4088 1433
00000290: 5c90 8433 0000 0000 2d55 8333 6ce9 9633
000002a0: 7e92 1132 d69d 0a33 0844 7533 0000 0000
000002b0: 2d55 8333 8227 9533 75bf 5b32 145a 0733
000002c0: 8add 6733 0000 0000 2d55 8333 4f37 9433
000002d0: 56f3 ad31 8d47 1a33 b894 7133 0000 0000
000002e0: 2d55 8333 0aee 9333 29df fc31 64ef a332
000002f0: 7677 2033 0000 0000 ff4a 2333 2443 5433
00000300: 72af 5032 42ca e131 8504 dd32 0000 0000
00000310: 399f 3b32 3933 1333 33c4 2c32 0000 0000
00000320: b6be 7332 0000 0000 0000 0000 2b15 9632
00000330: deaf 2a32 0000 0000 2600 1b32 ec87 8530
00000340: 0000 0000 d644 3232 908a 3732 0000 0000
00000350: eea8 e431 ec87 8530 0000 0000 48de fa31
00000360: f979 d831 0000 0000 f9c1 b331 b7b0 2f31
00000370: 0000 0000 2372 bd31 f979 d831 0000 0000
00000380: a834 9431 f979 d831 0000 0000 4239 9431
00000390: f979 d831 0000 0000 3412 8231 f979 d831
000003a0: 0000 0000 3412 8231 f979 d831 0000 0000
000003b0: 6b32 7131 f979 d831 0000 0000 6b32 7131
000003c0: f979 d831 0000 0000 234c 6b31 f979 d831
000003d0: 0000 0000 234c 6b31 72b7 5331 af4e e833
000003e0: 1361 e933 72b7 5331 af4e e833 264f e933
000003f0: 0000 0000 d000 f233 d000 f233 72b7 5331
5.8695937e-09 2.1947332e-07 2.200761e-07 5.8695937e-09 2.1947332e-07 2.2002322e-07 0.0 2.272693e-07
2.272693e-07 5.8695937e-09 2.1947332e-07 2.200539e-07 0.0 2.272693e-07 2.272693e-07 5.8695937e-09
2.1638266e-07 2.1934146e-07 0.0 2.0624672e-07 2.1875277e-07 3.8888843e-09 2.0754395e-07 2.1521915e-07
0.0 2.034757e-07 2.1332882e-07 9.64647e-09 1.8733984e-07 2.0392214e-07 0.0 2.034757e-07
2.1126496e-07 8.465889e-09 1.3704799e-07 1.9844215e-07 0.0 1.484431e-07 2.0139426e-07 1.23375585e-08
1.2057254e-07 1.9455918e-07 0.0 1.484431e-07 1.9432153e-07 2.2410857e-08 1.1449738e-07 1.8563941e-07
0.0 1.484431e-07 1.9014597e-07 2.428179e-08 1.2479866e-07 1.8270072e-07 0.0 1.484431e-07
1.8791663e-07 9.271876e-09 1.342691e-07 1.8693153e-07 0.0 1.484431e-07 1.8723642e-07 1.5712057e-08
5.320034e-08 1.03094685e-07 0.0 7.756837e-08 1.17039576e-07 2.2986375e-08 1.656361e-08 6.5966965e-08
0.0 2.0233895e-08 7.638555e-08 1.6868125e-08 0.0 3.5178196e-08 0.0 0.0
3.937436e-08 1.4746777e-08 0.0 2.193622e-08 1.1168789e-09 0.0 2.3599386e-08 1.3320886e-08
0.0 1.6042936e-08 1.1168789e-09 0.0 1.6645163e-08 5.5556155e-09 0.0 1.2508433e-08
2.5814242e-09 0.0 1.2724836e-08 5.5556155e-09 0.0 1.0312525e-08 5.5556155e-09 0.0
1.0312868e-08 5.5556155e-09 0.0 9.050924e-09 5.5556155e-09 0.0 9.050924e-09 5.5556155e-09
0.0 8.391712e-09 5.5556155e-09 0.0 8.391712e-09 5.5556155e-09 0.0 8.18641e-09
5.5556155e-09 0.0 8.18641e-09 2.894535e-09 7.45038e-08 7.4967346e-08 2.894535e-09 7.45038e-08
7.49368e-08 0.0 7.8766526e-08 7.8766526e-08 2.894535e-09 7.45038e-08 7.495824e-08 0.0
7.8766526e-08 7.8766526e-08 2.894535e-09 7.2449524e-08 7.445373e-08 0.0 7.2171396e-08 7.611336e-08
1.9116644e-09 6.546328e-08 7.068227e-08 0.0 7.107366e-08 7.427882e-08 2.9161553e-09 6.168828e-08
6.7552136e-08 0.0 7.107366e-08 7.3611275e-08 2.0342525e-09 3.7256612e-08 6.54116e-08 0.0
6.115656e-08 7.165631e-08 3.2026186e-09 3.4582854e-08 6.172988e-08 0.0 6.115656e-08 7.0273785e-08
8.473419e-09 3.227418e-08 5.710538e-08 0.0 6.115656e-08 6.9455396e-08 1.279101e-08 3.1514062e-08
5.3985367e-08 0.0 6.115656e-08 6.9018476e-08 5.0626268e-09 3.5920994e-08 5.6247444e-08 0.0
6.115656e-08 6.88852e-08 7.3595356e-09 1.908456e-08 3.7361552e-08 0.0 3.8019603e-08 4.942116e-08
1.2147085e-08 6.571356e-09 2.5729841e-08 0.0 1.0921036e-08 3.427269e-08 1.0056328e-08 0.0
1.4187824e-08 0.0 0.0 1.7471924e-08 9.93529e-09 0.0 9.022221e-09 9.715655e-10
0.0 1.0376615e-08 1.0683507e-08 0.0 6.6548784e-09 9.715655e-10 0.0 7.301228e-09
6.300294e-09 0.0 5.231638e-09 2.5566302e-09 0.0 5.5136e-09 6.300294e-09 0.0
4.3133532e-09 6.300294e-09 0.0 4.3138764e-09 6.300294e-09 0.0 3.7855674e-09 6.300294e-09
0.0 3.7855674e-09 6.300294e-09 0.0 3.5098775e-09 6.300294e-09 0.0 3.5098775e-09
6.300294e-09 0.0 3.424028e-09 6.300294e-09 0.0 3.424028e-09 3.0808818e-09 1.0817654e-07
1.0867566e-07 3.0808818e-09 1.0817654e-07 1.0864305e-07 0.0 1.1269151e-07 1.1269151e-07 3.0808818e-09

exp_avg f4 [256]
00000000: cad1 6439 6592 0cb9 e2fa 1eb9 d454 f038
00000010: 9fab 27b9 1a72 c9b8 aedb bbb8 be05 bd36
00000020: beb6 9839 c095 2739 78be ff37 89e3 f837
00000030: fdc4 af38 1293 3fb9 d86b 4cb8 00d8 eeb8
00000040: 3599 1fb8 4c95 0139 b61c 0036 3850 32b8
00000050: eaaf 0539 3acf afb8 df4c d5b7 b5e4 eeb6
00000060: 8f78 f835 027f c3b8 8811 5bb8 130b 33b9
00000070: 2054 dab7 48f6 cbb6 76c0 e0b8 fc71 15b9
00000080: 5697 8e38 369a 3ab8 b98c 20b9 8c04 1738
00000090: a23a b0b8 4343 91b8 5378 bb38 6034 71b9
000000a0: 3670 51b8 b1d5 1c39 57fd b538 d9ce 93b8
000000b0: c344 68b7 348d d3b6 880f fdb5 7dd1 9cb8
000000c0: bc7e 4ab9 e41c 60b8 5f54 aa38 6d91 2538
000000d0: f1ba c5b8 cfbf 4439 d609 2db9 8c5d 9335
000000e0: e884 9a39 7807 df38 8ef2 1fb8 f3a9 29b9
000000f0: 75b8 80b8 8214 8db9 46ae b2b8 daff 8535
00000100: 30fe 6fb7 0494 b938 d6aa 1239 e8a8 9738
00000110: 9d7a e5b6 ca14 11b9 19c2 39b9 89db ff35
00000120: 24cf 8a38 68c4 b836 bf08 5038 4f0d 0639
00000130: 537d aa39 392a 0e38 93bb c138 8c51 eb37
00000140: ee7e b2b8 3edb 3d39 904d 3536 0d39 d7b8
00000150: 38d1 39b9 6dc2 2938 e790 5c39 bddd b2b8
00000160: d96e 1839 95fa feb8 62c3 17b9 f089 c137
00000170: a70a 4338 5faf 7338 4f8d b538 4132 37b8
00000180: 7e9d d438 7706 c239 bb51 1f38 46dd 76b9
00000190: 2003 2535 0014 81b6 1432 34b9 c2a8 63b8
000001a0: 56f0 7e39 822c 14b7 0483 0838 2621 8439
000001b0: fedd 5eb8 46cd a439 0615 56b8 ecce 0cb9
000001c0: 21f1 95b8 ca39 9ab8 9b8a b5b5 aa72 32b7
000001d0: 4197 7638 7a88 45b9 d71f 5139 e01f 1d39
000001e0: 31e4 38b9 b276 4a39 8575 bfb8 1c7f 5138
000001f0: 3cf5 0c38 7c78 9638 c62b 6237 78d0 f1b8
00000200: 9bfd 1339 3eab 1a39 45a6 72b5 8a12 b5b6
00000210: 58d4 11b8 bd3f 2938 300b 0939 4dd4 b2b8
00000220: 89c7 2b39 4cf7 d238 192e 5ab8 fdb9 2eb8
00000230: ea0d 94b6 1fd8 31b8 4759 5fb9 357f 29b8
00000240: bc2d abb8 4fea 1d39 3620 0e39 338b ae38
00000250: c2a7 8238 041c 3fb9 f9f6 0bb9 f683 5939
00000260: 2774 5239 a758 9bb8 fe28 c6b7 775f 9938
00000270: 3209 e6b7 f790 b738 8d3b 27b8 cd30 ef37
00000280: 8a72 a4b7 05b6 0c39 78a0 43b8 bd2d 7038
00000290: ac2e 6f38 e995 2b37 fb3e d3b8 f271 6ab9
000002a0: 36ee 99b9 2f9f 8838 880b 7038 759c ffb8
000002b0: e0da 10b9 78d0 8c38 6698 4d39 c159 ab37
000002c0: e3b1 05b9 e070 0639 c55a 6bb8 902d 8ab7
000002d0: 4755 2bb7 932a 6738 2b2a 8139 b412 8b39
000002e0: 48c0 feb7 7970 38b9 0422 b3b8 31c6 1b38
000002f0: 1393 8339 5783 bf38 366f 5338 da70 0238
00000300: ad67 3a38 ff2a 0e39 4006 bfb7 84dd d0b8
00000310: db39 b8b8 a5c7 7936 4761 37b9 237f 9cb8
00000320: b017 1ab4 deb7 52b9 4451 2737 5007 b238
00000330: 4067 a938 d1e5 14b9 7c68 b136 35ca 1c39
00000340: 04d0 a2b9 7f36 beb8 12fe 00b9 7bbf f3b8
00000350: 1f6c a6b8 d526 19b9 e481 b5b7 9865 3238
00000360: db5e 0fb9 2756 0639 bccd 9d36 70c8 4838
00000370: 1e29 7cb9 5333 ec38 5639 5e38 a0e7 1038
00000380: a627 e038 813f 7234 624c dfb8 f4c4 b938
00000390: bb45 8eb8 4bae e2b6 d42a 0fb9 217f 2eb9
000003a0: e469 66b8 e1fe bdb7 a79a 6eb8 7274 17b9
000003b0: c65d 9538 9e9a a9b8 c29f 0438 ab55 90b8
000003c0: dd77 a838 676f 4ab8 ab41 2ab8 6ca8 ffb8
000003d0: 45e9 1cb9 11bf bdb4 a707 0d38 a683 d4b7
000003e0: 146d 80b9 149b c8b8 61dd d6b5 f80b 6a38
000003f0: d8fd 8fb8 cbc8 4bb9 69c0 9eb6 4a2d 0539
0.00021821927 -0.00013405977 -0.00015161515 0.00011459892 -0.00015990295 -9.60568e-05 -8.9577734e-05 5.6333074e-06
0.00029127853 0.00015982147 3.0487063e-05 2.9669858e-05 8.381342e-05 -0.00018269967 -4.8737827e-05 -0.000113889575
-3.805124e-05 0.00012358016 1.9090198e-06 -4.2513217e-05 0.00012749402 -8.383249e-05 -2.5427375e-05 -7.1195777e-06
1.8512527e-06 -9.3219816e-05 -5.2229996e-05 -0.00017074896 -2.6026799e-05 -6.0785424e-06 -0.00010717001 -0.0001425221
6.799276e-05 -4.4489476e-05 -0.00015311212 3.600544e-05 -8.403255e-05 -6.926667e-05 8.939267e-05 -0.00023003062
-4.9933988e-05 0.00014956926 8.677941e-05 -7.0480346e-05 -1.3844287e-05 -6.3047282e-06 -1.8854489e-06 -7.47768e-05
-0.00019311433 -5.343267e-05 8.121947e-05 3.9474504e-05 -9.4285126e-05 0.00018763471 -0.0001650223 1.0979579e-06
0.00029472192 0.0001063486 -3.813445e-05 -0.00016180407 -6.1378734e-05 -0.00026908895 -8.5201624e-05 9.983735e-07
-1.4304693e-05 8.8490575e-05 0.00013987286 7.231702e-05 -6.839006e-06 -0.00013836022 -0.00017715282 1.9062874e-06
6.618936e-05 5.506492e-06 4.959921e-05 0.00012784194 0.000325183 3.389476e-05 9.2378956e-05 2.8052156e-05
-8.511344e-05 0.00018106119 2.701625e-06 -0.000102626254 -0.00017720915 4.0473813e-05 0.00021034815 -8.5290034e-05
0.00014537144 -0.00012158338 -0.00014473268 2.3071625e-05 4.6501544e-05 5.809904e-05 8.657073e-05 -4.3677403e-05
0.00010138283 0.0003700738 3.798467e-05 -0.00023542819 6.147184e-07 -3.846828e-06 -0.00017184793 -5.4278185e-05
0.0002431286 -8.83185e-06 3.2546945e-05 0.000252017 -5.313567e-05 0.00031433458 -5.1041156e-05 -0.00013428525
-7.1497874e-05 -7.354056e-05 -1.352589e-06 -1.0636324e-05 5.8791837e-05 -0.00018838226 0.00019943654 0.00014984561
-0.00017632615 0.00019308439 -9.1294794e-05 4.9947863e-05 3.3606993e-05 7.174999e-05 1.34808415e-05 -0.00011530606
0.00014113488 0.00014750377 -9.039398e-07 -5.3963786e-06 -3.4768454e-05 4.03521e-05 0.00013069506 -8.5272455e-05
0.00016382163 0.00010059643 -5.2018182e-05 -4.1658048e-05 -4.4123635e-06 -4.2401367e-05 -0.00021300196 -4.041121e-05
-8.162434e-05 0.00015059974 0.00013554175 8.3228944e-05 6.2301304e-05 -0.00018225616 -0.00013348077 0.00020743892
0.00020070431 -7.407489e-05 -2.3622528e-05 7.31339e-05 -2.7422418e-05 8.753122e-05 -3.9871364e-05 2.8513745e-05
-1.960366e-05 0.00013419248 -4.664107e-05 5.7263056e-05 5.7025507e-05 1.0227298e-05 -0.00010072995 -0.00022358427
-0.00029359915 6.5146356e-05 5.72312e-05 -0.0001218849 -0.00013814447 6.7145505e-05 0.00019607096 2.0426583e-05
-0.00012750136 0.00012821285 -5.61129e-05 -1.6472099e-05 -1.0212249e-05 5.5114342e-05 0.00024636215 0.0002652608
-3.0368697e-05 -0.00017589507 -8.541721e-05 3.713946e-05 0.00025095846 9.132054e-05 5.0409893e-05 3.1099516e-05
4.444241e-05 0.00013558193 -2.2771885e-05 -9.9594734e-05 -8.78458e-05 3.72201e-06 -0.00017488479 -7.462341e-05
-1.4350985e-07 -0.00020095657 9.972897e-06 8.4890635e-05 8.07778e-05 -0.00014199993 5.2871746e-06 0.00014952647
-0.00031054032 -9.070057e-05 -0.0001230168 -0.00011622809 -7.935636e-05 -0.00014605683 -2.1637366e-05 4.2533124e-05
-0.00013672879 0.0001281133 4.7029152e-06 4.7870388e-05 -0.0002404791 0.00011262917 5.2982323e-05 3.4547993e-05
0.000106885374 2.2561109e-07 -0.00010647696 8.858173e-05 -6.784076e-05 -6.7556152e-06 -0.00013653497 -0.00016641292
-5.493489e-05 -2.2649243e-05 -5.6887653e-05 -0.00014443861 7.12234e-05 -8.087348e-05 3.162004e-05 -6.882412e-05
8.0331905e-05 -4.8264304e-05 -4.0592317e-05 -0.000121907186 -0.00014964219 -3.5343012e-07 3.3624146e-05 -2.5333673e-05
-0.00024495332 -9.565629e-05 -1.6008672e-06 5.5801094e-05 -6.8660534e-05 -0.0001943439 -4.7311664e-06 0.0001270074

exp_avg_sq f4 [256]
00000000: 476a 7e34 2409 b133 a1e3 f933 1e7a 8433
00000010: 1742 3934 11c7 1133 68e3 0833 5f0c ac30
00000020: 62b4 bf34 83f9 a533 0d8e cb31 0c8d 8932
00000030: ad5b c633 a641 5334 adc2 2432 e86c c833
00000040: 8ed8 cb31 4313 9733 07a8 9d2f 36ec cd31
00000050: b99d cf33 c3b5 7333 a4c2 2432 fe12 2431
00000060: d123 6531 3b39 8633 30ff b832 dc7d 0334
00000070: c009 2732 e5f0 0f31 b591 7833 3d69 d433
00000080: f58e 7232 32dc 0633 f7f3 8134 2b6c ab32
00000090: 4540 a433 7638 0133 3d28 c133 202a 6334
000000a0: 94af 6a32 2288 ad34 a760 0833 5e65 d932
000000b0: efea 8b31 5a93 be2e 5418 752e 3e5e b932
000000c0: 14cb 5834 346c 6932 eb6f d733 6238 fe32
000000d0: 42f5 7633 9439 a634 cfca ca33 9396 be2f
000000e0: dcbb 3035 0691 2934 9ea1 2332 205d b733
000000f0: 4174 1e33 433a cd34 52d4 8233 938a b32f
00000100: a37a a831 1652 8133 d7d5 a833 36fb 0133
00000110: b322 0f30 725b 2d34 10e5 4434 ecd1 3530
00000120: 254d bc33 ad67 f92f a621 1d33 4631 0234
00000130: 21b5 8e35 4a16 7f31 0fb0 f933 a509 3732
00000140: 459f 5833 c1a6 a134 23f7 902e 1842 e833
00000150: 6364 0a34 256d a532 eae0 8934 5050 1933
00000160: 8f3e b833 36ee 2334 e73d 4034 bc11 8931
00000170: 14a1 e432 493a ed31 4d52 6033 df79 1032
00000180: 7fb7 6e34 20d5 9835 7866 5332 acd4 b034
00000190: c711 002f 745a ef2f 39f0 3934 20cf d532
000001a0: 322a af34 5608 3c30 1bba 5d32 16d6 a034
000001b0: 32c7 2c32 0fdb 4835 67c9 fb32 0a89 c133
000001c0: 159d 5432 0c16 0e33 819b fd30 5411 5730
000001d0: 861a e732 ebeb 4e34 3295 8b34 70fe 5d34
000001e0: 4430 7134 e206 d134 0896 2d33 36e4 9c32
000001f0: 9e80 7931 e8d8 ab33 4fc0 7730 5f46 f433
00000200: 900d d833 6925 3b34 d032 b02f 7451 4c30
00000210: fd8a de32 be72 cc32 cf3b 1d34 a0ae a132
00000220: bbc0 2134 f546 7a34 6902 8931 7c79 1832
00000230: 5c92 842e 6c2b 1432 b679 0a34 4f67 1c32
00000240: 3f71 6033 01bb 8c33 be54 d533 9130 6e33
00000250: 1e08 af32 0237 3234 010b 1934 90f1 8434
00000260: d2b6 9234 f063 8633 d225 c131 11c9 3633
00000270: 5eda 8031 fb87 3d33 c53f 0632 2d2d 6232
00000280: 1ebf c130 4dbf 2734 74a3 1532 bb06 8632
00000290: 5fe6 0332 309a e331 9912 3333 ae74 a234
000002a0: 4e7b e134 ebbd d132 0d0e 9633 7493 1134
000002b0: 0a33 3a34 0e93 c132 2233 8234 63a4 ce31
000002c0: 3c93 8333 b533 8e33 fd9a 8932 b659 c131
000002d0: 4511 1530 733c 1733 7de0 3b35 0c8d 2335
000002e0: f8c9 4c32 5600 0634 8958 0833 7d1f 7d32
000002f0: 7f98 cb34 ae76 7a33 15a5 5732 9293 9131
00000300: e41f 7f32 2da8 0834 c3d3 b132 7cc6 f132
00000310: 15b1 c732 2f6c 4730 7238 7734 6d13 aa32
00000320: fef0 632c 8a55 8e34 c1a1 a62f be28 3433
00000330: c571 1833 d358 2c34 f18e 652f fc7c 5634
00000340: fb6b 1f35 e22c 7033 8805 0133 78de 0034
00000350: e3ea 7233 2cf9 ae33 fe25 db31 e292 2b33
00000360: 79a4 e233 8d18 ad33 0ad5 9831 09e1 6032
00000370: 7bc1 8034 c10a c133 658c 1833 ac73 7b32
00000380: 9489 1934 a5e7 2830 b2f1 f532 fc5c 0f33
00000390: b2a3 8932 d8ee 872f 90ab 8433 53e9 4234
000003a0: 608e dd31 325c e730 0c61 e332 397b 2934
000003b0: b6ec dd32 24ad 4633 c619 8a31 ac60 2632
000003c0: 19af ef33 27b1 5d32 75fe 1732 4d08 9e33
000003d0: 5a89 0634 6b03 cc2f 043d 4e32 4190 8d31
000003e0: 2620 7c34 c157 1233 9386 5d2f 532e 6932
000003f0: c0dc f232 20a7 8d34 2840 bc2e 0831 4b34
2.3694257e-07 8.2438675e-08 1.16363715e-07 6.168942e-08 1.7253511e-07 3.3941493e-08 3.1871792e-08 1.2518163e-09
3.5707768e-07 7.728797e-08 5.924227e-09 1.601304e-08 9.236769e-08 1.9674789e-07 9.5903205e-09 9.333036e-08
5.932697e-09 7.034989e-08 2.8677524e-10 5.9931393e-09 9.667878e-08 5.6743158e-08 9.5903125e-09 2.3875937e-09
3.3344245e-09 6.2502714e-08 2.1536465e-08 1.2246113e-07 9.722896e-09 2.0946171e-09 5.787452e-08 9.891162e-08
1.4118759e-08 3.1399573e-08 2.420563e-07 1.995621e-08 7.648536e-08 3.0086504e-08 8.994582e-08 2.1156347e-07
1.36605145e-08 3.232281e-07 3.1752872e-08 2.5308221e-08 4.0721413e-09 8.6663746e-11 5.5728158e-11 2.1579691e-08
2.0190447e-07 1.35869875e-08 1.00320754e-07 2.9595132e-08 5.74994e-08 3.0961803e-07 9.443249e-08 3.4667788e-10
6.583848e-07 1.5792111e-07 9.524596e-09 8.538541e-08 3.6892974e-08 3.8226617e-07 6.0922176e-08 3.2658373e-10
4.9033857e-09 6.021962e-08 7.862007e-08 3.0263628e-08 5.207241e-10 1.6145148e-07 1.8337255e-07 6.6145733e-10
8.768465e-08 4.5366502e-10 3.6585014e-08 1.2125119e-07 1.063254e-06 3.7120054e-09 1.1626991e-07 1.0654195e-08
5.0436274e-08 3.0109916e-07 6.592262e-11 1.0815364e-07 1.2888772e-07 1.9258161e-08 2.5681885e-07 3.5696132e-08
8.579547e-08 1.5267219e-07 1.7903913e-07 3.989241e-09 2.6615943e-08 6.904234e-09 5.2228916e-08 8.4096135e-09
2.2232233e-07 1.138691e-06 1.2305115e-08 3.2937294e-07 1.1647848e-10 4.3538118e-10 1.731686e-07 2.4890653e-08
3.262699e-07 6.840585e-10 1.29062085e-08 2.995809e-07 1.00570094e-08 7.482458e-07 2.9311833e-08 9.01219e-08
1.237574e-08 3.3082003e-08 1.845237e-09 7.824117e-10 2.6904e-08 1.9271071e-07 2.5999321e-07 2.0674793e-07
2.2462433e-07 3.8934292e-07 4.0416154e-08 1.8264569e-08 3.630738e-09 8.002263e-08 9.0131363e-10 1.1374936e-07
1.0060751e-07 1.7429342e-07 3.2050318e-10 7.433052e-10 2.5907406e-08 2.3800904e-08 1.4643523e-07 1.8822277e-08
1.5064408e-07 2.3308878e-07 3.9874988e-09 8.875187e-09 6.028664e-11 8.624607e-09 1.289653e-07 9.103885e-09
5.225706e-08 6.553274e-08 9.934e-08 5.5457864e-08 2.0376373e-08 1.6597554e-07 1.4253239e-07 2.4762676e-07
2.7327638e-07 6.25804e-08 5.621339e-09 4.2558046e-08 3.7501158e-09 4.4128665e-08 7.814326e-09 1.3165203e-08
1.4096917e-09 1.5622682e-07 8.710106e-09 1.5602714e-08 7.677584e-09 6.6240986e-09 4.16936e-08 3.0259747e-07
4.1999232e-07 2.4417167e-08 6.987475e-08 1.355782e-07 1.7341168e-07 2.253503e-08 2.425159e-07 6.0140777e-09
6.1269446e-08 6.621796e-08 1.601938e-08 5.6272382e-09 5.4230426e-10 3.5212405e-08 6.99896e-07 6.092748e-07
1.1920285e-08 1.2479845e-07 3.174549e-08 1.4733698e-08 3.7922652e-07 5.83156e-08 1.2552182e-08 4.236832e-09
1.4850205e-08 1.2727169e-07 2.070181e-08 2.8146353e-08 2.3247177e-08 7.2549516e-10 2.3024202e-07 1.9799439e-08
3.2392418e-12 2.65118e-07 3.0310157e-10 4.194657e-08 3.549373e-08 1.6051062e-07 2.0878212e-10 1.9975772e-07
5.938925e-07 5.5920175e-08 3.0040184e-08 1.2001863e-07 5.6558644e-08 8.1478305e-08 6.378058e-09 3.994763e-08
1.05538625e-07 8.060406e-08 4.448002e-09 1.3089683e-08 2.3982633e-07 8.989219e-08 3.5517946e-08 1.4636424e-08
1.4299286e-07 6.144723e-10 2.8631664e-08 3.337935e-08 1.6023339e-08 2.4726066e-10 6.177936e-08 1.8152541e-07
6.4481327e-09 1.6833666e-09 2.647041e-08 1.578418e-07 2.583543e-08 4.6257938e-08 4.0192587e-09 9.684452e-09
1.1161155e-07 1.2904173e-08 8.847214e-09 7.358958e-08 1.252969e-07 3.7109812e-10 1.20046515e-08 4.12004e-09
2.3481024e-07 3.4073086e-08 2.0147643e-10 1.3572918e-08 2.8272893e-08 2.6384896e-07 8.5606466e-11 1.8923686e-07
