AI/Assets/BallOnFloor.onnx (onnx, 73994 bytes, 9 tensors)

50 f4 [8]
0	0x3d07e61e	0.03317844
1	0x3d0f723c	0.03502105
2	0x3f008a5b	0.50211114
3	0x3f0c8356	0.548879
4	0x3eec6abe	0.46175188
5	0x3f3b326c	0.7312381
6	0x3e269d60	0.16270971
7	0x3f2b3a58	0.668859

action_model._continuous_distribution.log_sigma f4 [1, 2]
0	0xbd5d151a	-0.053975202
1	0xbd902181	-0.0703764

action_model._continuous_distribution.mu.bias f4 [2]
0	0xbc066d36	-0.008204749
1	0xba798046	-0.00095177104

action_model._continuous_distribution.mu.weight f4 [2, 128]
0	0x3cbc03b8	0.022950992
1	0xbd147f77	-0.036254372
2	0xbb4d8f42	-0.0031365906
3	0xbcfceebd	-0.030875558
4	0x3d17a6ce	0.03702431
5	0x3cc13212	0.023583446
6	0x3c6cef6a	0.014461378
7	0xbd52a2c8	-0.05142477
8	0x3c8d8715	0.017276326
9	0xbbb61c5b	-0.0055575795
10	0xb9da0f4c	-0.00041591597
11	0x3c805960	0.015667617
12	0x3dc23938	0.0948357
13	0xbd6f7e7d	-0.058470238
14	0x3b779e6d	0.0037783638
15	0x3d79da67	0.0609993
16	0x3c980852	0.018558655
17	0xbd6574c6	-0.056019567
18	0x3c15ec8e	0.009150637
19	0xbd8021aa	-0.06256421
20	0x3c8204b7	0.015871389
21	0xbd17c36e	-0.03705161
22	0x3c367614	0.01113655
23	0xbd882f08	-0.066495955
24	0x3bf3a0c4	0.0074349362
25	0xbd3162f4	-0.04330726
26	0x3bfc0dfc	0.0076920968
27	0xbd2093a7	-0.039203312
28	0x3d0f9516	0.03505429
29	0x3d655bc5	0.05599572
30	0xbc7ebd10	-0.015548006
31	0x3c504d88	0.012713797
32	0xbc9f33dd	-0.01943391
33	0xbd0c1473	-0.03419919
34	0x3cc1554a	0.02360024
35	0xbc692d8e	-0.0142320525
36	0xbc7de7c3	-0.015497151
37	0x3cf722fc	0.030168049
38	0x3c0732ca	0.008251855
39	0x3d4f40de	0.05059897
40	0xbcc64882	-0.024204496
41	0x3c97105d	0.01844042
42	0x3cff62a3	0.031174963
43	0xbd60ff21	-0.05493081
44	0xbbddfdec	-0.0067746546
45	0x3b0189e6	0.0019766032
46	0x3d1829df	0.037149306
47	0xbc825531	-0.015909763
48	0xbc9321f0	-0.017960519
49	0xbd279840	-0.04091668
50	0xb8beeed0	-9.104388e-05
51	0xbc3d2671	-0.01154481
52	0x3d1e7271	0.03868336
53	0x3cf66c55	0.030080954
54	0xbd44840a	-0.047977485
55	0x3ca80b97	0.020513339
56	0xbd9ced2f	-0.07662427
57	0x3bd1f883	0.0064077987
58	0x3c83929a	0.016061116
59	0x3c626720	0.013818532
60	0xbd8b3312	-0.0679685
61	0xbd020f07	-0.031752612
62	0x3d619f55	0.05508359
63	0xbd1d775c	-0.038443908
64	0x3c1bb5fd	0.009503839
65	0x3bf2b3ae	0.0074066734
66	0x3bbc8594	0.0057532284
67	0x3d0764f9	0.03305528
68	0x3cf90d49	0.030401843
69	0xbad2f6a7	-0.0016095237
70	0xbb7911f2	-0.003800508
71	0xbdd1050c	-0.10206041
72	0xbd317c5c	-0.04333149
73	0x3bd642ac	0.0065387096
74	0x3cc85486	0.024454366
75	0x3d368c14	0.044567183
76	0x39225371	0.00015480608
77	0xbd695a32	-0.056970783
78	0x3cc47d5a	0.023985554
79	0xbc64ce90	-0.013965264
80	0x3d5b8070	0.053589284
81	0x3db5bf80	0.08874416
82	0xbcf97ac5	-0.030454049
83	0x3d5de948	0.054177552
84	0xbcf6c123	-0.030121392
85	0x3aee6a62	0.0018189664
86	0x3d62e278	0.05539176
87	0xbbb8f7e6	-0.005644786
88	0xbd18b87f	-0.037285324
89	0xbda45d5a	-0.08025618
90	0x3cbbceff	0.022925852
91	0x3c9768a1	0.018482508
92	0x3d1a6d40	0.037701845
93	0xbd40cadd	-0.047068466
94	0xbd2332cc	-0.039843366
95	0x3c9e098c	0.019291662
96	0xbb002c11	-0.0019557516
97	0xbaf45f47	-0.0018644118
98	0xbcf46071	-0.029831143
99	0xbbdb2437	-0.0066876668
100	0x3be2d119	0.006921899
101	0xbc0f6499	-0.008752012
102	0xbd3afc00	-0.045650482
103	0xbc38a0fd	-0.011268851
104	0x3d208707	0.039191272
105	0xbd50d099	-0.050980184
106	0xbd164487	-0.036686447
107	0xbd341d8a	-0.043973483
108	0xbbaf10ef	-0.005342595
109	0x3ccee879	0.025257336
110	0xbd1b419d	-0.03790437
111	0xbc8ade36	-0.016951662
112	0x3da21370	0.07913864
113	0x3cbea11e	0.023270186
114	0xbd8f6796	-0.07002179
115	0x3c965b6a	0.018354136
116	0xbad1f5dd	-0.0016018708
117	0xbaf42382	-0.0018626305
118	0xbcd1a98b	-0.02559354
119	0x3c7dd402	0.015492441
120	0xbc544226	-0.012955224
121	0xbc0f1f10	-0.008735433
122	0x3d3022e0	0.04300201
123	0x3d94ee83	0.07272055
124	0xbc0023f1	-0.007821069
125	0xbd1217e5	-0.03566732
126	0xbc8d4a7a	-0.017247427
127	0x3be0513a	0.0068456205
128	0x3cce1e74	0.025161006
129	0x3d9a9ab0	0.075490355
130	0x39c066e8	0.00036697765
131	0x3d45b1dc	0.048265323
132	0xbc3ace2f	-0.011401697
133	0xbc10c40a	-0.008835802
134	0x3c094204	0.008377556
135	0xbd1dc7d9	-0.038520668
136	0x3d146abc	0.036234602
137	0xbc9d12ac	-0.019173943
138	0x3d420393	0.04736669
139	0x3d6ce3be	0.05783438
140	0x3d40af8e	0.047042422
141	0xbc862f06	-0.016379844
142	0xbb9273bd	-0.0044693635
143	0x3b504ffe	0.003178596
144	0xbc538494	-0.012910027
145	0xbc25e2b7	-0.010124854
146	0x3b902bf4	0.004399771
147	0xbc4323ba	-0.011910373
148	0xbd4507e7	-0.04810324
149	0x3c62eb1e	0.013850002
150	0xbba5f913	-0.0050650924
151	0x3d01ea09	0.031717334
152	0xbd161558	-0.03664145
153	0xbca157c3	-0.019695168
154	0xbd305922	-0.043053754
155	0x3aa6cbd3	0.0012725539
156	0xbd379f87	-0.04482987
157	0xbbf87af9	-0.007583019
158	0xbd8acd67	-0.06777459
159	0xbc17783e	-0.009244977
160	0x3bf6b05e	0.007528349
161	0x3d04f4e3	0.032460105
162	0x3cd186c9	0.025576966
163	0xbcf4fc85	-0.029905567
164	0x3d2657fc	0.040611252
165	0xbcc66a6d	-0.02422067
166	0xbbb15508	-0.005411748
167	0xbd106b19	-0.035258386
168	0xbc691792	-0.014226811
169	0xbd07faab	-0.03319804
170	0xba56ced1	-0.000819427
171	0x3b28c2b6	0.0025750822
172	0xbb6f4c83	-0.003651411
173	0xbc4d4079	-0.0125275785
174	0xbb288183	-0.002571196
175	0x3d809502	0.06278421
176	0x3d552f98	0.052047342
177	0x3c296c1e	0.010340719
178	0xbd440920	-0.047860265
179	0xbc9a07e1	-0.018802585
180	0x3ccd0ca7	0.025030447
181	0xbce00935	-0.02734814
182	0x3d2eb879	0.042656396
183	0xbd017344	-0.031604066
184	0xbc3db974	-0.01157986
185	0xbc624fda	-0.013812983
186	0x3d842b74	0.064536005
187	0x3b469e97	0.003030693
188	0x3d3c3fb8	0.045959204
189	0x3c18ae2f	0.009318872
190	0x3acc632b	0.0015593519
191	0xbc813ac5	-0.015775094
192	0x3da6dc87	0.08147531
193	0x3c72395e	0.014784185
194	0xbcb5933e	-0.022164937
195	0xbbd3d9ed	-0.0064651878
196	0xbd767872	-0.06017346
197	0xbbb47e16	-0.0055081947
198	0xbd1e658e	-0.03867107
199	0x3c824523	0.015902108
200	0x3d888ca4	0.0666745
201	0x3d9cec35	0.076622404
202	0xbcc5430f	-0.024079828
203	0xbd05d9cb	-0.032678407
204	0xbb9a5c86	-0.0047107367
205	0xbd625cef	-0.05526441
206	0xbaf6b8ed	-0.0018823423
207	0xbdbc363f	-0.09190034
208	0xbcc79142	-0.024361257
209	0x3cc28031	0.023742767
210	0xbc1132df	-0.008862226
211	0xbcd475f8	-0.025935158
212	0xba74c17c	-0.0009336693
213	0x3d1e9a99	0.038721655
214	0x3d14db44	0.03634192
215	0x39e169b3	0.00042994096
216	0xbd1b3da1	-0.03790057
217	0x3d80dc62	0.06292035
218	0x3d8356b7	0.06413024
219	0x3c980140	0.018555284
220	0x3d6b5a23	0.057459008
221	0xbbb98a26	-0.0056622205
222	0x3d9de46b	0.07709583
223	0xbca69044	-0.020332463
224	0xbc74e674	-0.014947522
225	0x3ce141c9	0.02749719
226	0x3c7e7504	0.015530828
227	0x3c86e1b4	0.016465046
228	0xbcc835aa	-0.024439652
229	0x3d58faf7	0.052973714
230	0x3b170ecd	0.0023049593
231	0x3cc2b8a3	0.023769682
232	0x3cdd5041	0.027015807
233	0xbdc26359	-0.09491605
234	0x3d0751a4	0.033036843
235	0xbd17280a	-0.03690342
236	0x3c128ce8	0.0089447275
237	0x3d0d48c9	0.03449324
238	0xbcd3e81a	-0.02586751
239	0x3ac7e131	0.0015249607
240	0x3c86f6a3	0.016475027
241	0x385f0d84	5.317993e-05
242	0x3d4341ff	0.04767036
243	0x3c373eb5	0.011184384
244	0xbbe8c85a	-0.007103962
245	0xbd89ecb1	-0.067345984
246	0xbd195b8d	-0.037440825
247	0xbcebb945	-0.028774867
248	0xbd367f53	-0.04455502
249	0x3cad914b	0.021187445
250	0xbd079f34	-0.033110812
251	0x3d882746	0.06648116
252	0xbd3c169f	-0.04592001
253	0xbd2a518b	-0.04158167
254	0x3ce8ea16	0.028431933
255	0xbd04d52f	-0.03242987

network_body._body_endoder.seq_layers.0.bias f4 [128]
0	0xbd639c12	-0.055568762
1	0x3a8d989f	0.0010802931
2	0xbc674ca8	-0.014117397
3	0xbcb1a095	-0.021683017
4	0xbc82d1cb	-0.015969178
5	0xba808e9d	-0.0009808127
6	0xbc008195	-0.007843395
7	0x3b719a3c	0.0036865612
8	0x39b42cc7	0.00034365637
9	0x3c0c686b	0.008569817
10	0x3c641d63	0.013923022
11	0x3d04b64f	0.032400426
12	0x3d1039fd	0.035211552
13	0x3cadac61	0.02120036
14	0xbd68ec3f	-0.056865927
15	0xbd28e6b1	-0.04123563
16	0x3cc90aaa	0.024541218
17	0xbd02c3b9	-0.031924937
18	0xbd4b5ec0	-0.049650908
19	0xbb588662	-0.0033039083
20	0x3cda4677	0.026644928
21	0xbbc5b8de	-0.006034001
22	0xbc3d7f80	-0.011566043
23	0xbc078d87	-0.008273489
24	0xbd0d21ef	-0.03445619
25	0x3c17a356	0.009255251
26	0xbc7e873c	-0.015535172
27	0xbc58ef45	-0.01324064
28	0xbc8ba25a	-0.017045189
29	0xbb829a94	-0.0039857123
30	0xbbe524b6	-0.0069929017
31	0xbc34b1d1	-0.011028723
32	0x3cf4715e	0.029839214
33	0x3d25a235	0.040437896
34	0x3c005643	0.007833066
35	0x3ced1fd1	0.028945835
36	0x3c4ba2df	0.012428968
37	0xbd28e840	-0.041237116
38	0xbd09aea6	-0.033613823
39	0xbd3df27b	-0.046373826
40	0xbcb0eb80	-0.02159667
41	0x3c88be26	0.016692232
42	0x3be593fd	0.007006167
43	0x3be33141	0.0069333618
44	0x3b3c7953	0.0028758838
45	0x3c94e918	0.018177554
46	0x3b2b4b5e	0.0026137452
47	0xbad2d437	-0.0016084973
48	0x3c5af43f	0.013363897
49	0x3c7b65ea	0.015344122
50	0x3aa60410	0.0012666006
51	0xbd047a01	-0.032342914
52	0xbc4afa6a	-0.012388805
53	0x3b5f63b2	0.0034086523
54	0xbc12152b	-0.00891618
55	0x3a930457	0.0011216503
56	0x3c836333	0.016038513
57	0x3d012c40	0.03153634
58	0x3bb084ff	0.005386948
59	0x3bd6b951	0.006552853
60	0x3c59861e	0.013276605
61	0xbc953445	-0.0182134
62	0xbabc7aa3	-0.001437981
63	0x3cb04237	0.021515949
64	0x3910bc67	0.00013803095
65	0x3b02238d	0.0019857616
66	0xbc652ed6	-0.013988217
67	0x3d002c9d	0.031292547
68	0xbcd4f150	-0.025993973
69	0xbc6da5a2	-0.014504822
70	0xbd066f46	-0.032820962
71	0x3c89ca43	0.016820079
72	0xbc1c0847	-0.009523458
73	0xbcb0ecd2	-0.0215973
74	0x3c334e36	0.01094394
75	0xbb988832	-0.0046549076
76	0xbcdf22c6	-0.027238261
77	0x3be08a0e	0.006852395
78	0x3d2f88aa	0.042854942
79	0x3c867dd9	0.01641743
80	0x3d3fec06	0.04685595
81	0x3cdc3742	0.026881818
82	0x3d16a4cd	0.03677826
83	0xbc486bf3	-0.012232768
84	0xbc28045d	-0.010254947
85	0xbc9745f6	-0.018465977
86	0xbb31c223	-0.002712377
87	0xbd0d822c	-0.03454797
88	0x3bb9881b	0.005661977
89	0x3c4c7458	0.01247891
90	0xbd10a1d5	-0.035310585
91	0x3cac11dd	0.021004612
92	0xbab29cf4	-0.0013627098
93	0xbd6ae29e	-0.057345025
94	0x3ca3c48f	0.019991187
95	0xbc68d360	-0.014210552
96	0x3c476302	0.012169601
97	0xbcde7e5d	-0.027159864
98	0xbb3988a0	-0.0028310195
99	0xbd76a237	-0.060213294
100	0xbbecf55b	-0.007231397
101	0xbc5fdd70	-0.013663635
102	0xbc2d3928	-0.010572709
103	0xbc45d5ed	-0.01207493
104	0xbcfe7c34	-0.031065084
105	0x3cb0d07b	0.021583786
106	0x3ca85648	0.020548955
107	0xbb8d4101	-0.0043107276
108	0xbcd271b6	-0.025688987
109	0xbd22770e	-0.03966432
110	0x3d0bc68f	0.034124907
111	0xbcec04ae	-0.028810825
112	0xbba916fd	-0.005160211
113	0xbc74b4f2	-0.014935719
114	0xbcaa6566	-0.020800304
115	0xbcf3f1c6	-0.029778372
116	0xbc81e392	-0.015855584
117	0xbc6d4461	-0.014481635
118	0x3c88d4b7	0.016702993
119	0xbc0adea8	-0.008475937
120	0x3a58cca7	0.00082702417
121	0xbc542794	-0.012948889
122	0xbc017c26	-0.007903134
123	0x3b8d3a2d	0.0043099136
124	0xbd231e64	-0.039823905
125	0xbd19d10a	-0.03755287
126	0x3c12405b	0.008926476
127	0xbc845e53	-0.016158259

network_body._body_endoder.seq_layers.0.weight f4 [128, 8]
0	0x3e2651db	0.16242163
1	0xbdf43fe6	-0.1192625
2	0x3ed76c33	0.42074737
3	0xbc93110a	-0.01795246
4	0xbecc133c	-0.39858425
5	0xbed2f3c3	-0.412016
6	0xbf2087c7	-0.6270718
7	0xbef9d876	-0.4879796
8	0xbe025a0c	-0.12729663
9	0x3e046439	0.12928857
10	0xbe71e390	-0.23621964
11	0xbf8f5d82	-1.1200411
12	0x3f3abe9a	0.72947085
13	0xbed08f00	-0.407341
14	0xbe608bb9	-0.219283
15	0xbe4f4028	-0.20239317
16	0x3eb9eeda	0.36315042
17	0xbeafa01a	-0.34301835
18	0xbe20d236	-0.15705189
19	0xbe737c65	-0.23777921
20	0x3ee43dcc	0.44578397
21	0xbed93b94	-0.42428267
22	0xbe8ccd09	-0.2750018
23	0xbea13a11	-0.31489614
24	0xbececc18	-0.40390086
25	0xbdbf9311	-0.093542226
26	0xbf1a31b2	-0.6023208
27	0xbf4b1ef2	-0.79344094
28	0x3e7caa65	0.24674375
29	0xbf0d0270	-0.55081844
30	0x3d478431	0.048710052
31	0xbe9fe08f	-0.31226012
32	0xbeb9ce40	-0.3629017
33	0x3e954518	0.29154277
34	0xbe135139	-0.14386453
35	0xbf11e4b9	-0.5698963
36	0x3ec856ba	0.39128667
37	0x3e8e35af	0.27775332
38	0xbe727291	-0.23676516
39	0xbe20fe35	-0.15721972
40	0xbd965bb1	-0.073417075
41	0x3ec90237	0.39259502
42	0x3e15a8e6	0.14615211
43	0xbe9bddd9	-0.30442694
44	0xbf056ace	-0.52116096
45	0x3e623d15	0.22093613
46	0xbea4c796	-0.32183522
47	0x3e8c1d45	0.2736608
48	0x3e1babf3	0.15202312
49	0xbd0956f0	-0.033530176
50	0x3ecc61df	0.3991842
51	0xbdd25f71	-0.1027211
52	0x3f343e69	0.7040773
53	0x3ea10e68	0.31456304
54	0xbe59eaf6	-0.21281037
55	0xbd2db41a	-0.042408086
56	0x3ddfca7d	0.109272934
57	0xbf0c6731	-0.5484496
58	0xbe4eafc9	-0.20184244
59	0x3e70996d	0.23496027
60	0xbe8cdfc2	-0.27514464
61	0x3d8608e6	0.06544666
62	0xbe7f5327	-0.24934064
63	0x3ec99f0d	0.3937916
64	0x3f435b70	0.763114
65	0xbf0b6c0a	-0.5446173
66	0xbd400bf6	-0.046886407
67	0x3ec4478c	0.38335836
68	0x3e7f7a7a	0.24949065
69	0x3e0e564a	0.13900104
70	0xbd6f82dd	-0.05847441
71	0x3aa732df	0.001275625
72	0xbeee5615	-0.4655005
73	0xbce9eae6	-0.028554391
74	0x3e8d14a9	0.27554825
75	0xbe7bdc33	-0.24595718
76	0xbf79d2e7	-0.97587436
77	0xbe172626	-0.14760646
78	0xbe557c8a	-0.20848289
79	0xbe59c344	-0.21265894
80	0xbed2f23f	-0.41200444
81	0x3eacbe42	0.33738905
82	0x3e3a779e	0.18209693
83	0xbf2fc7e4	-0.68664384
84	0xbd86d519	-0.06583614
85	0x3de8bc42	0.11364032
86	0xbe9abacd	-0.30220643
87	0xbeb83d5d	-0.35984316
88	0xbca022f2	-0.019547913
89	0x3c8ffd95	0.017576972
90	0xbe955cec	-0.29172456
91	0x38b166c5	8.45916e-05
92	0x3ec208fa	0.37897474
93	0xbd8358f6	-0.06413452
94	0xbe82a33b	-0.2551516
95	0xbe23cab4	-0.15995294
96	0xbe285787	-0.16439639
97	0x3f2cef8c	0.6755302
98	0xbe820ab3	-0.25398788
99	0xbe90874a	-0.28228217
100	0xbde3203a	-0.11090131
101	0xbe3f2feb	-0.18670623
102	0x3e8cff1c	0.27538383
103	0x3eaba3be	0.33523363
104	0x3eee22e1	0.46510985
105	0xbf54e8ec	-0.8316791
106	0xbe590256	-0.21192297
107	0xbde471e6	-0.11154537
108	0xbe86b150	-0.26307154
109	0x3e145aa7	0.14487706
110	0xbe7fd1e6	-0.24982414
111	0x3ebe463e	0.37162966
112	0x3d88be23	0.06676891
113	0xbda9d15b	-0.082918845
114	0x3eda92c4	0.42690098
115	0xbe301186	-0.17194185
116	0xbe851dab	-0.25999197
117	0x3f3c626d	0.73587686
118	0xbf08f741	-0.5350228
119	0xbea832d1	-0.3285127
120	0x3ead69ee	0.3386988
121	0x3dc6eb93	0.09712901
122	0xbe86e5c0	-0.2634716
123	0xbe5490f8	-0.20758426
124	0xbe5ea436	-0.21742329
125	0x3e11ccb1	0.1423824
126	0xbec05bc3	-0.3757001
127	0xbe9c89b1	-0.305738
128	0x3e93db0a	0.2887805
129	0x3dfbfeba	0.123044446
130	0xbea6ef56	-0.32604474
131	0x3da03315	0.07822243
132	0x3dac76b8	0.08421081
133	0x3e73d208	0.2381059
134	0xbd8db2a7	-0.06918841
135	0x3f650bb6	0.89470994
136	0x3eba2f03	0.36363992
137	0x3e89b5aa	0.2689641
138	0x3f3f3c62	0.7470151
139	0x3da63e82	0.08117391
140	0x3cfad2f6	0.030618172
141	0xbe65005a	-0.22363415
142	0x3e6eb30f	0.23310493
143	0xbf5ce09b	-0.8628022
144	0xbf1123d7	-0.5669531
145	0xbd11cdca	-0.035596646
146	0xbd079404	-0.033100143
147	0x3e190585	0.14943512
148	0x3f0bf9b9	0.5467792
149	0x3f0314bd	0.5120352
150	0xbd747583	-0.05968238
151	0x3eb30d31	0.34971002
152	0x3d4e9810	0.050437987
153	0x3dec2cb3	0.11531963
154	0x3ec9a8ba	0.3938654
155	0xbe3e3988	-0.18576634
156	0x3f5e169e	0.8675326
157	0x3ecc9227	0.39955255
158	0x3e936aea	0.28792506
159	0xbd94bda5	-0.07262734
160	0xbce82a40	-0.028340459
161	0x3eb6caba	0.35701543
162	0xbf7fec2f	-0.9996976
163	0x3e4ebbf9	0.20188893
164	0x3e12d349	0.14338411
165	0x3dbf5815	0.09342972
166	0x3f1bdc5b	0.6088311
167	0x3ee739bb	0.45161232
168	0x3ebcf966	0.36909026
169	0xbedc9605	-0.43083206
170	0x3e294648	0.16530716
171	0xbe05e860	-0.13076925
172	0x3d0998ac	0.033592865
173	0xbe9101b8	-0.28321624
174	0x3e5ba9fc	0.21451563
175	0x3d86a8af	0.065751426
176	0x3d509240	0.050920725
177	0xbebce4d8	-0.36893344
178	0x3f329bad	0.6976879
179	0xbf079481	-0.52960974
180	0xbd5cb057	-0.05387911
181	0xbe60bafd	-0.2194633
182	0xbd4d733e	-0.05015873
183	0x3e53db3a	0.20689097
184	0xbd0cd1f4	-0.034379914
185	0xbdf00a48	-0.11720711
186	0xbe1bb196	-0.15204462
187	0x3e9b84a5	0.30374637
188	0xbea9ecf3	-0.3318859
189	0xbe53abda	-0.20671025
190	0x3dc33529	0.09531624
191	0x3e1d3385	0.15351684
192	0x3e2d2e9c	0.16912311
193	0xbe589571	-0.21150757
194	0xbe13d1a1	-0.14435436
195	0xbb38c5f9	-0.0028194173
196	0xbf59f23d	-0.8513525
197	0x3e6ef605	0.23336037
198	0xbef2f4f2	-0.47452503
199	0x3e83b4ff	0.25724027
200	0x3efc40f6	0.4926831
201	0x3e669251	0.22516753
202	0x3f0fa7f5	0.5611566
203	0x3ef3c4eb	0.47611174
204	0x3e2056bd	0.15658088
205	0xbe366c12	-0.17814663
206	0x3e751956	0.23935446
207	0x3ec7737e	0.389553
208	0xbb8a92fb	-0.004228947
209	0xbe1d852c	-0.15382832
210	0x3f4f8e12	0.8107616
211	0x3c52fc84	0.012877587
212	0xbe9b046c	-0.3027681
213	0x3cf8ba02	0.030362133
214	0xbda95439	-0.08268017
215	0x3e7394db	0.23787253
216	0x3eacd9c2	0.33759886
217	0x3e7e6db8	0.24846542
218	0x3c9c3116	0.019066375
219	0xbd8819fb	-0.066455804
220	0x3e09275b	0.13393919
221	0x3ee060e7	0.4382393
222	0xbce12fbc	-0.027488582
223	0x3e89b527	0.2689602
224	0xbe4b552b	-0.19856708
225	0xbea0130f	-0.3126454
226	0x3d97fb1f	0.074209444
227	0x3f02549e	0.50910366
228	0xbe35cd11	-0.17754008
229	0xbdd1585d	-0.10221932
230	0xbf6c3f34	-0.9228394
231	0xbf04d18c	-0.51882243
232	0x3e827480	0.25479507
233	0x3dc40895	0.095719494
234	0x3f3d6846	0.73987234
235	0xbee5037d	-0.44729224
236	0x3c8f6fec	0.017509423
237	0x3e107241	0.14106084
238	0xbc63f1d2	-0.013912635
239	0xbe63e662	-0.22255853
240	0xbe85f099	-0.26160124
241	0xbf104bbe	-0.56365573
242	0xbec912bd	-0.3927211
243	0xbb28cb8c	-0.002575609
244	0xbdbb9947	-0.09160095
245	0xbecc3904	-0.3988725
246	0x3ed7c188	0.4213984
247	0xbed98305	-0.42482772
248	0x3eadb7da	0.3392933
249	0xbeecfbe1	-0.46285918
250	0x3f17fed6	0.59373224
251	0xbe7433a0	-0.23847818
252	0xbe2f57cb	-0.17123334
253	0x3dff73bd	0.12473247
254	0xbdf9e52b	-0.122019134
255	0x3ea7bba7	0.32760355

network_body._body_endoder.seq_layers.2.bias f4 [128]
0	0xbb9a2392	-0.0047039473
1	0x3d0a8606	0.03381922
2	0xbbf446c1	-0.0074547236
3	0x3cff823f	0.031190036
4	0xbc0faa59	-0.008768641
5	0xbc0fe444	-0.00878245
6	0xbb8ac59b	-0.004234982
7	0x3d037321	0.032092217
8	0xbb245e36	-0.0025080568
9	0xbb5ccbcb	-0.0033690806
10	0x3c9d1a74	0.019177653
11	0x3c138f20	0.009006292
12	0x3ca6a98d	0.02034452
13	0x3c2d15a9	0.010564246
14	0xbc5b62f4	-0.0133902915
15	0x3c15f754	0.009153206
16	0xbc09bf79	-0.008407467
17	0x3cdf82fe	0.027284142
18	0xbccb637a	-0.024827708
19	0x3cebfce0	0.028807104
20	0x3c0dc6f3	0.00865339
21	0xbbb19298	-0.0054190867
22	0xbc0058fc	-0.0078337155
23	0x3d71bddd	0.05901896
24	0x3b966da4	0.004590707
25	0x3d005e24	0.03133978
26	0x3b51fc9a	0.0032041431
27	0x3c764edb	0.015033449
28	0x3bf71eee	0.007541529
29	0x3a08117f	0.00051905954
30	0x3ceb4ddc	0.02872365
31	0xbc23554f	-0.00996907
32	0xbc33d34d	-0.010975671
33	0x3c4764c3	0.01217002
34	0xbc7ed8c1	-0.015554608
35	0x3b3f0132	0.0029145
36	0x3bd4cba7	0.006494004
37	0xba6b45fb	-0.00089749665
38	0xbbfad23c	-0.0076544564
39	0x3bf3876b	0.0074319146
40	0x3bc0716c	0.005872896
41	0x3c1661e3	0.009178611
42	0xbb8c4bce	-0.0042814976
43	0x3cd4c1d2	0.025971327
44	0xbc22d605	-0.009938722
45	0x3c16e245	0.00920922
46	0xbc279bb0	-0.01022999
47	0x3d1a5528	0.037678868
48	0x3c4759f8	0.012167446
49	0x3cb30f37	0.021857841
50	0x3c134eab	0.008990924
51	0x3a2317f2	0.00062215247
52	0x3c1d80d0	0.009613231
53	0x3a09fdb8	0.00052639423
54	0x3ce215d0	0.027598292
55	0x3a93fc2a	0.0011290361
56	0x3cd8aa76	0.02644847
57	0xbc10050e	-0.008790268
58	0x3d14b04f	0.036300953
59	0xbca9f14d	-0.020744944
60	0x3d1bf18d	0.038072158
61	0x3c1957d5	0.00935932
62	0xbbc7aba6	-0.00609346
63	0x3c8587f7	0.016300185
64	0x3d30ee2f	0.0431959
65	0xbc4b32cb	-0.012402247
66	0x3aca5673	0.0015437141
67	0xbb630d56	-0.00346454
68	0x3c1d7ccd	0.009612274
69	0xbbe0bc94	-0.0068584178
70	0x3b8ace7c	0.0042360406
71	0x3d2c844f	0.042118367
72	0x3c61e762	0.013788076
73	0x3cd690b4	0.026192047
74	0xba34bef0	-0.0006894907
75	0xbad4c336	-0.0016232494
76	0x3ba6acf3	0.005086535
77	0x3ce741af	0.028229563
78	0xbc624024	-0.013809238
79	0x3d05b620	0.03264439
80	0x3b12a2a2	0.0022374769
81	0x3b5e11f6	0.0033885217
82	0x3c07f6d9	0.008298599
83	0xbabaddc7	-0.0014256769
84	0x3c858f10	0.01630357
85	0xb9443520	-0.00018711807
86	0x3be98a53	0.0071270852
87	0xbc0048dd	-0.007829872
88	0x3cdc5c8b	0.026899597
89	0x3d0f6c48	0.035015374
90	0x3c4a3629	0.012342014
91	0xbc8527a5	-0.016254256
92	0x3bacd1f4	0.005274052
93	0x3d1e66dd	0.038672317
94	0x3d2cde5f	0.042204257
95	0xbc2e39b7	-0.0106338775
96	0xbc9f8e78	-0.019477114
97	0xbb90e3f4	-0.0044217054
98	0x3c047259	0.008083903
99	0xbc0355fd	-0.008016107
100	0xbab136bc	-0.001352034
101	0x3d13cc73	0.03608365
102	0x3cef7a92	0.02923325
103	0x3c4a4452	0.01234539
104	0xbb5a9a72	-0.0033356217
105	0x3d3a2097	0.045441236
106	0x3b067ea4	0.002052226
107	0x3c995116	0.018715423
108	0xba9ae865	-0.0011818527
109	0x3b84de10	0.004054792
110	0x3c5e3ea4	0.013564739
111	0x3b92ed00	0.004483819
112	0x3c33a222	0.010963948
113	0xbc6e377d	-0.014539597
114	0x3cd3e903	0.025867945
115	0xbc1d3688	-0.009595521
116	0xbc49bf15	-0.012313624
117	0x3cf074af	0.029352514
118	0x3cdbe3a6	0.02684195
119	0x3b4d624c	0.0031339107
120	0x3ba07e9c	0.0048979055
121	0x3a617e14	0.0008601856
122	0x3a467f59	0.0007572077
123	0x3c3cfb1f	0.011534481
124	0x3c88dbd7	0.01670639
125	0x3ca1b17b	0.01973795
126	0xb9f6adcf	-0.00047050274
127	0x3bba2936	0.0056811823

network_body._body_endoder.seq_layers.2.weight f4 [128, 128]
0	0xbdb464c1	-0.0880828
1	0xbe09fafc	-0.13474649
2	0xbd3fe9a7	-0.046853688
3	0xbdf938a8	-0.121690094
4	0x3d810c54	0.063011795
5	0xbc1292ce	-0.008946134
6	0xbb0bd75c	-0.002133808
7	0x3bcea1a2	0.006305889
8	0x3c02c653	0.0079818545
9	0x3d9b6f63	0.07589605
10	0x3d80f1b5	0.06296102
11	0xbe52c124	-0.2058149
12	0xbe756ede	-0.23968074
13	0xbe78f109	-0.24310698
14	0xbc326b28	-0.010889806
15	0x3d228585	0.039678115
16	0xbe7cf79a	-0.24703828
17	0xbdec5fd6	-0.11541717
18	0x3e242397	0.16029201
19	0x3da46c69	0.0802849
20	0x3dbed22d	0.093174316
21	0xbd589862	-0.0528797
22	0x3dcf95eb	0.101360165
23	0xbde0ed44	-0.10982755
24	0xbd8bcb25	-0.06825856
25	0xbc84d930	-0.016216844
26	0xbbf12e78	-0.007360276
27	0xbd6c1772	-0.057639547
28	0x3da0654b	0.0783182
29	0x3d9353b7	0.07193702
30	0xbc5e0bfe	-0.013552664
31	0xbd8c39fd	-0.06846998
32	0xbda35aca	-0.07976301
33	0xbdb36d57	-0.08761089
34	0xbe11ee84	-0.14251143
35	0x3cefde38	0.029280767
36	0xbcfbc6df	-0.030734478
37	0xbe2f8ed2	-0.17144325
38	0x3e39d4f7	0.18147646
39	0x3e3f4b06	0.18680963
40	0xbe01b988	-0.12668431
41	0x3c47545b	0.012166108
42	0xbdf816c9	-0.12113721
43	0xbd1e4764	-0.038642302
44	0x3e0f6120	0.14001894
45	0xbda20378	-0.07910818
46	0xbd7d361c	-0.06181918
47	0xbd8ef4a7	-0.069802575
48	0x3dfbe728	0.12299949
49	0xbda2ed23	-0.079553865
50	0xbd1ecca2	-0.03876937
51	0xbd866151	-0.065615304
52	0xbd779ddb	-0.060453277
53	0x3da2f330	0.079565406
54	0x3d872531	0.065988906
55	0xbdb82b36	-0.08992617
56	0xbcd081a7	-0.025452448
57	0xbbaa364f	-0.0051944624
58	0xbe21a7c9	-0.15786661
59	0xbdfa1749	-0.122114725
60	0xbc8e40f7	-0.017364962
61	0xbd0c891b	-0.03431044
62	0x3b95fb58	0.0045770817
63	0x3db160df	0.08661055
64	0x3cbd7c92	0.023130689
65	0x3d339e62	0.043852217
66	0x3dec8a5c	0.115498275
67	0x3e27d6d0	0.16390538
68	0x3d9b1a48	0.07573372
69	0x3da109bd	0.078631856
70	0xbcc3936a	-0.023874003
71	0x3dff1c46	0.124565646
72	0x3dd1985a	0.10234137
73	0xbcd69a14	-0.026196517
74	0x3ca8a31f	0.020585595
75	0x3e114d85	0.14189728
76	0x3dccae5c	0.09994194
77	0x3d360cef	0.04444593
78	0xbe132fb5	-0.14373668
79	0x3e05bca4	0.13060242
80	0x3dba2c40	0.09090471
81	0x3c50d4b6	0.012746027
82	0x3c23917e	0.0099834185
83	0xbcc2e3f1	-0.023790332
84	0x3dc9e050	0.09857237
85	0x3c8b8b9c	0.017034344
86	0xbd5c932e	-0.0538513
87	0xbc19d098	-0.0093881115
88	0x3d81b071	0.06332482
89	0x3a8b489f	0.0010626501
90	0xbdba90d2	-0.091096535
91	0xbdf9502f	-0.12173497
92	0xbdcd7bf5	-0.100334086
93	0xbe5a0809	-0.21292128
94	0xbd174009	-0.036926303
95	0xbd04771b	-0.03234015
96	0xbb8e2b4d	-0.004338658
97	0x3d012d53	0.031537365
98	0xbdc240ea	-0.094850376
99	0xbd57ed26	-0.052716397
100	0x3ddfc2b6	0.1092581
101	0xbc6e672b	-0.014550964
102	0x3d70f438	0.058826655
103	0x3d36d887	0.04464009
104	0xbcd3472b	-0.025790771
105	0x3d0672b4	0.032824233
106	0xbd832128	-0.064028084
107	0x3d420dd3	0.047376465
108	0x3ca3577c	0.019939177
109	0x3bb5a127	0.0055428925
110	0x3d8da82b	0.06916841
111	0x3d223049	0.03959683
112	0x3d115511	0.035481516
113	0x3d6e4420	0.058170438
114	0x3d187e93	0.037230086
115	0x3cdf8ab8	0.027287826
116	0xbd791d5f	-0.060819026
117	0x3dd2eb9d	0.10298846
118	0x3d382d33	0.04496498
119	0x3e21ea37	0.15812002
120	0x3d56e379	0.05246303
121	0x3d81e564	0.06342581
122	0xbd9baba6	-0.07601099
123	0xbd723a3f	-0.05913758
124	0xbbead11d	-0.0071660415
125	0xbdd33945	-0.10313658
126	0x3bc69352	0.0060600424
127	0x3d8339dc	0.0640752
128	0x3d547e69	0.051878367
129	0x3e08b511	0.13350321
130	0xbddfd9c0	-0.109302044
131	0x3cb030f2	0.021507714
132	0xbcb55ecd	-0.022139931
133	0xbc7fd206	-0.015614038
134	0xbe719658	-0.23592508
135	0xbcc551b8	-0.024086818
136	0xbdd7b4c1	-0.10532523
137	0xbcb1c098	-0.021698281
138	0xbcb3444b	-0.02188315
139	0x3c0a16cc	0.008428287
140	0xbe9b3981	-0.3031731
141	0xbd4bdccd	-0.04977112
142	0x3b6b1016	0.0035867742
143	0x3daf6ec3	0.08566048
144	0xbe22617a	-0.15857497
145	0xbc9ab744	-0.018886216
146	0xbbb9d605	-0.005671265
147	0xbd5158f8	-0.051110238
148	0xbe6b281a	-0.22964516
149	0xbcad7c89	-0.021177547
150	0xbd20fa7e	-0.039301388
151	0xbca84229	-0.02053936
152	0xbd020747	-0.03174522
153	0xbcf224ef	-0.029558627
154	0xbe3158da	-0.1731905
155	0xbe1f6a34	-0.15567857
156	0xbdc620f8	-0.09674257
157	0xbe3c71c7	-0.18402778
158	0x388b2dce	6.636568e-05
159	0xbd9bfeb1	-0.07616938
160	0xbc163f88	-0.0091704205
161	0x3e02a9f2	0.12760141
162	0xbe2a15ba	-0.1660985
163	0xbe63eef7	-0.22259127
164	0xbc020a1b	-0.00793698
165	0xbd53647e	-0.05160951
166	0xbd256394	-0.04037817
167	0x3cd4c658	0.025973484
168	0xbc0adc98	-0.008475445
169	0x3d9c0a0f	0.07619106
170	0x3e7d29d0	0.24722981
171	0xbd1ad8ce	-0.037804417
172	0x3d5ea223	0.054353844
173	0xbe0dcaa7	-0.13846837
174	0xbdaa2dfa	-0.083095506
175	0x3d991254	0.07474199
176	0x3e3c7e9a	0.1840767
177	0xbc091087	-0.008365757
178	0xbcc1cfcb	-0.023658654
179	0xbc3a826f	-0.011383637
180	0xbd4d4e33	-0.050123405
181	0x3d986c93	0.07442584
182	0x3d20ee52	0.03928978
183	0xbcb1b0bc	-0.021690719
184	0xbdef834c	-0.11694965
185	0xbd7d0302	-0.061770447
186	0xbd92969d	-0.071576335
187	0xbb4dbd44	-0.0031393329
188	0x3ddf7f35	0.10912935
189	0xbe82a2be	-0.25514787
190	0x3d9cde9f	0.07659649
191	0x3d6aa264	0.057283774
192	0x3df82f28	0.12118369
193	0x3bde6f71	0.006788187
194	0x3d81936b	0.06326946
195	0x3d8fbb7f	0.07018184
196	0x3d0d9f0d	0.03457551
197	0xbd42c04f	-0.04754668
198	0xbc52f457	-0.012875638
199	0xbc8dfa1a	-0.017331172
200	0xbc5c135a	-0.013432348
201	0xbe1f3fb7	-0.15551649
202	0x3d9e27fd	0.07722471
203	0x3d56f160	0.052476287
204	0x3cc93fd5	0.02456657
205	0xbcb4804f	-0.022033839
206	0x3df739cd	0.120715715
207	0xbdb6945a	-0.089150146
208	0xbbb5a8e1	-0.0055438136
209	0xbe26f697	-0.16305004
210	0x3d7c11a9	0.06154028
211	0x3cf74802	0.030185703
212	0x3c6b5c2d	0.014365238
213	0x3dd273a7	0.10275965
214	0xbd766f8f	-0.060164984
215	0x3cc475c1	0.02398193
216	0xbd1b98c2	-0.037987478
217	0x3d5eaf48	0.05436638
218	0xbd3b8893	-0.045784544
219	0x3d605798	0.054771036
220	0x3de716f2	0.11283673
221	0xbd2fc563	-0.042912852
222	0x3d82b5c6	0.06382327
223	0xbccfefa3	-0.025382822
224	0xbdbdf456	-0.09275119
225	0xbdef8798	-0.11695784
226	0xbe18ce5d	-0.14922471
227	0xbd6954a8	-0.0569655
228	0xbd5f66ad	-0.05454128
229	0x3e18f071	0.14935471
230	0x3c562689	0.013070711
231	0x3ca9fe17	0.020751042
232	0xbdf6bf44	-0.120482
233	0xbd9f31d6	-0.07773177
234	0xbd4e2c8c	-0.050335452
235	0xbe342e14	-0.17595702
236	0x3d5f7c38	0.054561824
237	0x3d94022b	0.07226976
238	0xbcb7771c	-0.022395663
239	0xbbdaf175	-0.006681616
240	0x3da53365	0.08066443
241	0xbc4ce9d3	-0.01250692
242	0xbe0106d0	-0.12600255
243	0x3c1d3ae7	0.009596563
244	0x3d0748c5	0.033028383
245	0xbc8c1302	-0.017098907
246	0xbcdca676	-0.026934844
247	0x3c484e45	0.012225692
248	0xbd7ad761	-0.061240558
249	0x3ba154cb	0.004923438
250	0x3d9dbddc	0.077022284
251	0x3b5da7c0	0.003382191
252	0x3e1fa3e7	0.15589868
253	0x3d6e0afd	0.058115948
254	0xbe2d05eb	-0.16896789
255	0x3cb358f6	0.021893006

network_body.observation_encoder.processors.0.normalizer.running_mean f4 [8]
0	0xb9a16b42	-0.00030788226
1	0xb7b17caa	-2.1158095e-05
2	0x3afcd49a	0.0019289434
3	0xbe5d99b8	-0.2164067
4	0xbc53e045	-0.012931888
5	0x3d738ebf	0.059462305
6	0x3f0fb92d	0.5614193
7	0x3d332976	0.043740712
