Chrome/ml-agents-release_20/results-force/dino/Dino.onnx (onnx, 130817 bytes, 4 tensors)

action_model._discrete_distribution.branches.0.bias f4 [2]
0	0x3b84bf62	0.004051135
1	0xbb84bf63	-0.0040511354

action_model._discrete_distribution.branches.0.weight f4 [2, 256]
0	0x3d4df740	0.050284624
1	0xbd0d1a47	-0.03444889
2	0xbd05070f	-0.032477435
3	0x3d04984e	0.03237181
4	0xbd5b04d4	-0.0534714
5	0xbc78d850	-0.015188292
6	0xbcca61a2	-0.024704758
7	0x3b7ad1fd	0.0038272135
8	0x3d819cd8	0.06328744
9	0x3ceead34	0.029135324
10	0x3c784ba5	0.015154754
11	0x3c2d702d	0.010585827
12	0x3cc7db89	0.024396675
13	0xbd36d182	-0.044633396
14	0xbca7c7fa	-0.020481098
15	0xbc6f323a	-0.014599377
16	0xbc8b0f07	-0.016974939
17	0x3d1e8e76	0.03871008
18	0xba747238	-0.0009324881
19	0xbcac8be5	-0.0210628
20	0x3d1a18ed	0.037621427
21	0xbd130bc4	-0.035899892
22	0xbc5cca65	-0.013475989
23	0xbc3c702e	-0.011501355
24	0xbbff4cf7	-0.0077911573
25	0xbd0aa260	-0.03384626
26	0xbc8e7861	-0.017391386
27	0xbd217a0f	-0.039423045
28	0xbc28eaaa	-0.0103098545
29	0xba39ca79	-0.0007087361
30	0xbd07680c	-0.03305821
31	0xbd0d140e	-0.034442954
32	0x3c9d28ca	0.019184489
33	0xbbcbacf0	-0.006215684
34	0xbd1dc098	-0.03851375
35	0x3c4fa4b8	0.012673549
36	0xbc8bccc5	-0.017065415
37	0xbcb58675	-0.02215884
38	0x3cc8c761	0.024509134
39	0xbd34f7eb	-0.044181745
40	0xbc8318df	-0.01600307
41	0x3d62422f	0.0552389
42	0x3cfd0629	0.030886726
43	0xbc8a688a	-0.016895551
44	0xbc083c2e	-0.008315129
45	0xbc43bc77	-0.011946789
46	0x3b4a88f9	0.0030904396
47	0xbceac194	-0.028656758
48	0xbd0a2d09	-0.033734355
49	0xbca96838	-0.020679578
50	0x3d002dfb	0.03129385
51	0x3c902b1b	0.01759868
52	0xbcdffe82	-0.027343038
53	0x3d2b7a50	0.041864693
54	0xbd25987d	-0.040428627
55	0xbb0f8388	-0.0021898467
56	0x3d83f6bc	0.06443545
57	0x3cd4d207	0.025979055
58	0xbc8de269	-0.017319875
59	0xbd26f4e8	-0.040760905
60	0xbc7fb9d7	-0.0156082725
61	0xbd710967	-0.058846857
62	0xbca0a39b	-0.019609263
63	0xbbd76fc7	-0.006574604
64	0xbc4ff1a1	-0.012691886
65	0x3c8dd22b	0.01731213
66	0x3d02bbd2	0.0319174
67	0x3cadf45a	0.02123468
68	0x3a5d9a82	0.00084535044
69	0xbd177420	-0.03697598
70	0xbd2542f1	-0.040347043
71	0x372b5eac	1.0214437e-05
72	0x3c9e84b3	0.019350385
73	0xba33dbae	-0.0006861043
74	0x3c4aac3a	0.012370164
75	0x3ceac886	0.02866007
76	0x3dacacc4	0.0843139
77	0x3c219f4b	0.009864639
78	0x3ceebfd1	0.0291442
79	0x3c0cfe2d	0.008605522
80	0xbc9e8706	-0.019351494
81	0x3d4b8144	0.049683824
82	0xbb8d739a	-0.0043167593
83	0xbcbbb7ab	-0.022914728
84	0xbd2be509	-0.04196647
85	0x3c2c183e	0.010503827
86	0x3d61d2a9	0.05513254
87	0xbcc0aaa8	-0.023518875
88	0x3cf4e6c1	0.029895188
89	0xbcccd3c8	-0.025003329
90	0xbd51d095	-0.05122431
91	0x3c7af2e3	0.015316698
92	0x3cbbcba6	0.022924256
93	0x3cb3752a	0.021906454
94	0x3d016d95	0.031598646
95	0xbc0361c8	-0.008018918
96	0x3d4482ca	0.047976293
97	0x3dc1ab27	0.09456473
98	0x3c5872ee	0.013210995
99	0xbd7503b5	-0.05981799
100	0xbb7bfac6	-0.0038449033
101	0xbc858cb5	-0.016302446
102	0xbd59484d	-0.053047467
103	0xbccd07d2	-0.025028143
104	0x3d6e68b3	0.058205318
105	0x38646f45	5.4463064e-05
106	0x3c406135	0.011741926
107	0x3d8699f6	0.065723345
108	0xbc4ce0d7	-0.012504778
109	0x3d9381b3	0.072024725
110	0xbc49f893	-0.012327331
111	0xbd06410c	-0.032776877
112	0xbcabae61	-0.020957174
113	0xbcb31b2c	-0.021863542
114	0xbbe5be77	-0.0070112306
115	0xbb95c9b7	-0.0045711654
116	0x3cbe429d	0.023225123
117	0xbd4f14a7	-0.050556805
118	0x3d4fce49	0.05073384
119	0x3d57302d	0.05253618
120	0xbd637c90	-0.055538714
121	0x3d87f21c	0.066379756
122	0xbc8c385f	-0.017116724
123	0x3c3f8e51	0.011691646
124	0x3c48f6e3	0.012265894
125	0x3d1dfb77	0.038569894
126	0x3beab565	0.007162737
127	0xbcde5992	-0.02714232
128	0x3d581c52	0.052761383
129	0x3d46c1f9	0.04852483
130	0xbb5d570d	-0.003377381
131	0xbb082a4a	-0.002077716
132	0xbb354f71	-0.002766576
133	0x3c84067f	0.016116379
134	0x3d12ee90	0.035872042
135	0xbcbe4633	-0.023226833
136	0x3d2f67dc	0.042823657
137	0x3d0dcb15	0.034617502
138	0xbc867f8e	-0.016418245
139	0xbc516e22	-0.012782605
140	0x38d30543	0.00010062244
141	0xbbea8571	-0.0071570207
142	0xbd44bd01	-0.04803181
143	0xbc96317c	-0.018334143
144	0xbcacd46e	-0.021097388
145	0x3cf799fb	0.03022479
146	0x3d1e0fc6	0.03858926
147	0x3cc44965	0.023960778
148	0x3cbae450	0.022813946
149	0xbd22f3c4	-0.039783254
150	0xbd00eca1	-0.031475667
151	0x3d5ac42f	0.05340975
152	0x3d487243	0.048937093
153	0xbc86dda1	-0.016463103
154	0xbc7712f4	-0.015080202
155	0x3cbbebec	0.022939645
156	0xbc8ada92	-0.016949926
157	0x3c94675e	0.018115696
158	0xbc906e54	-0.017630734
159	0x3bd43d04	0.006477
160	0x3ae22953	0.0017254747
161	0x3cca4671	0.024691792
162	0xbc2f926f	-0.010716065
163	0x3c985fbb	0.018600335
164	0x3caa09ea	0.02075668
165	0x3aeb4d6c	0.0017952151
166	0xbc947d42	-0.018126134
167	0xbd6b1494	-0.05739267
168	0xbd654139	-0.055970404
169	0x3cd54de1	0.026038112
170	0x3cad6767	0.02116747
171	0xbca45720	-0.020061076
172	0xbcf8b97f	-0.030361889
173	0x3cc6c5d0	0.024264246
174	0x3d763f1a	0.060118772
175	0x3c4173e4	0.011807416
176	0xbcf25ed5	-0.029586235
177	0x3cf61df8	0.030043587
178	0xbc7e87bd	-0.015535292
179	0xba196833	-0.0005852014
180	0xbc409085	-0.011753206
181	0x3d0dbf2f	0.034606155
182	0x3d8d8a8a	0.0691119
183	0x3d8899b9	0.06669945
184	0xbc84d60c	-0.016215347
185	0xbd2b6679	-0.041845772
186	0xbce6102b	-0.028083881
187	0x3c84da48	0.016217366
188	0x3d411099	0.04713497
189	0x3c715bd3	0.014731365
190	0x3c2ef971	0.010679589
191	0x3bf6270f	0.0075119804
192	0x3c73b79a	0.014875317
193	0x3d3c09b3	0.045907687
194	0xbc8c5723	-0.017131394
195	0xbce88460	-0.028383434
196	0xbccf4ca2	-0.025305096
197	0xba3f27ac	-0.00072919833
198	0xbd06cdcc	-0.032911107
199	0xbc92140b	-0.017831823
200	0xbc0b29e5	-0.008493875
201	0xbd3954dc	-0.045246944
202	0x3bce8593	0.0063025444
203	0x3c8e781e	0.01739126
204	0x3cac40af	0.021026937
205	0xbd2cf279	-0.042223427
206	0x3bb0b6f9	0.005392906
207	0x3d35eccf	0.04441529
208	0xbd8e1d58	-0.069391906
209	0xbcf51de3	-0.029921478
210	0xbcbf2761	-0.023334207
211	0xbd45ae31	-0.048261825
212	0xbca784cb	-0.020449063
213	0xbd301741	-0.042990927
214	0xbc0cd63d	-0.008596
215	0x3cb27a49	0.021786826
216	0xbd2e11a7	-0.042497303
217	0x3d000e3f	0.031263586
218	0x38fdba72	0.00012098708
219	0x3c8e462f	0.01736745
220	0xbd633e1e	-0.05547916
221	0x3d0a239d	0.03372537
222	0x3c76d329	0.015064993
223	0x3c419056	0.0118141975
224	0x3d3d9827	0.046287682
225	0xbc81fa37	-0.015866382
226	0xbcd3bab5	-0.025845865
227	0x3cd3ceb8	0.025855407
228	0xbcbc9b06	-0.02302314
229	0xb901d9d3	-0.00012383545
230	0xbcf884fe	-0.030336853
231	0xbd446aad	-0.047953296
232	0xbc4b3c4a	-0.012404511
233	0xbc61b337	-0.013775638
234	0xbc6f8d7c	-0.014621135
235	0xbd0c92d9	-0.034319732
236	0x3cd6dd22	0.026228491
237	0xbca87190	-0.020561963
238	0x3c4d7ab4	0.012541462
239	0xbc924166	-0.01785345
240	0x3d2424ff	0.040074345
241	0xbcb0efc5	-0.021598706
242	0xbc23a8ca	-0.009988973
243	0xbd0a8b0d	-0.033824015
244	0xbd2f7b7e	-0.04284238
245	0xbc264819	-0.010149025
246	0x3c537605	0.012906556
247	0xbc93b127	-0.018028809
248	0xbd49c622	-0.04926122
249	0xbcbf4979	-0.023350464
250	0xbae125ee	-0.0017177442
251	0x3c746af6	0.01491808
252	0xbc9f435d	-0.019441301
253	0xbd247444	-0.040149942
254	0x3b6e58b1	0.0036368782
255	0x3d2b66f7	0.04184624

network_body._body_endoder.seq_layers.0.bias f4 [256]
0	0x3c8bf310	0.017083675
1	0x3bab02b4	0.005218828
2	0x3b63026f	0.0034638902
3	0x3cde9a43	0.027173167
4	0x3b22c5ee	0.0024837214
5	0x3c902d7c	0.017599814
6	0x3b3e211e	0.0029011439
7	0x3b13fea4	0.0022582198
8	0x3ce9ea50	0.028554112
9	0x3cde506f	0.027137963
10	0xb80c6763	-3.3474887e-05
11	0x3c77382e	0.015089078
12	0x3c046b37	0.008082203
13	0x3c4e74f8	0.01260113
14	0x3c4eae8f	0.01261486
15	0x3a64af63	0.00087236444
16	0x3a1a7931	0.0005892693
17	0x3cbe8f40	0.023261666
18	0xbbd92834	-0.006627107
19	0x3c8f807f	0.017517326
20	0x3ca20726	0.0197788
21	0x3bc87a8d	0.006118125
22	0xbadc1041	-0.0016789512
23	0xb94b8eb2	-0.00019412747
24	0xbb8a2858	-0.004216235
25	0x3c690bfb	0.014224048
26	0xbbfecb01	-0.007775665
27	0x3cd05b48	0.025434151
28	0x3c27097e	0.010195134
29	0xbbd46dbc	-0.006482808
30	0x3b85e23e	0.004085808
31	0x3b9b5ffa	0.004741666
32	0x3ca97fa4	0.020690747
33	0xbb97a82d	-0.0046282024
34	0x3bcbcf0f	0.0062197517
35	0x3ca169c9	0.019703763
36	0x3aa56129	0.0012617457
37	0x3b809d4f	0.0039250026
38	0x3c227472	0.009915458
39	0x3bfd8634	0.0077369455
40	0xbb15fdeb	-0.0022886943
41	0x3ca60d16	0.020269912
42	0x3cddc9a0	0.027073681
43	0xba3fb8cb	-0.0007313608
44	0xbb8f0022	-0.0043640295
45	0x3c583e58	0.013198458
46	0x3b392197	0.002824878
47	0x3c4154ce	0.011800004
48	0x3c42cf9c	0.011890318
49	0x3c393361	0.011303754
50	0x3c514b1a	0.012774253
51	0x3b330a8b	0.0027319517
52	0x3a63f267	0.00086954836
53	0x3c60cb8f	0.013720407
54	0x3d0f4ff9	0.034988377
55	0xbc4a6a5f	-0.012354462
56	0x3ccfed80	0.025381804
57	0x3c07ba0d	0.008284104
58	0x3bbfba80	0.00585109
59	0x3c84bb05	0.01620246
60	0xbb39c2e9	-0.0028344935
61	0x3bd5db9a	0.0065264227
62	0x39416d19	0.00018446556
63	0x3b79e2cf	0.0038129573
64	0xb9a533a3	-0.00031509725
65	0x3be0ee1a	0.0068643214
66	0x3d27eef7	0.04099938
67	0x3be0588d	0.0068464936
68	0xbb02c36e	-0.001995291
69	0x3adb6560	0.0016738586
70	0x3c52fd98	0.012877844
71	0xbb8164a3	-0.0039487644
72	0x3bd865e2	0.0066039423
73	0x3c0b6053	0.008506852
74	0x3bf4d22f	0.007471345
75	0x3c57d1a3	0.01317254
76	0x3cf4c951	0.029881151
77	0x3cb49a65	0.022046277
78	0x3c26fb57	0.01019176
79	0x3b17142e	0.00230528
80	0x3a8454b4	0.0010096044
81	0x3c9ed9c5	0.01939095
82	0x3b8ebcd7	0.0043560076
83	0x3bc44b11	0.005990394
84	0x3c6c2761	0.014413686
85	0x3c28636a	0.010277608
86	0x3d153286	0.036425136
87	0xb9fffc55	-0.00048825392
88	0x3cc22996	0.02370147
89	0x3bdabc1a	0.0066752555
90	0x3c5c2b84	0.013438109
91	0x3c27734e	0.010220362
92	0x3cec6333	0.028855896
93	0x3ce34a11	0.027745279
94	0x3c9b4f3c	0.01895868
95	0xbbc4a448	-0.006001029
96	0x3cb860a7	0.022507025
97	0x3cd98045	0.026550421
98	0x3b75af89	0.003748866
99	0x3c19ce8c	0.0093876235
100	0xbc04ad68	-0.008097984
101	0xb97e0820	-0.00024226354
102	0x3bb9d4fa	0.0056711407
103	0x38378b64	4.3760418e-05
104	0x3c9d5ca0	0.019209206
105	0x3bcfd25f	0.006342217
106	0x3aee5e2d	0.0018186026
107	0x3d4d6964	0.050149336
108	0x3ac5d210	0.0015092511
109	0x3ccf9e6c	0.025344096
110	0xbaa761e2	-0.001277026
111	0x3b90bad4	0.004416803
112	0x3c80d7f0	0.015727967
113	0xba1187be	-0.0005551538
114	0xbc38dd0e	-0.011283172
115	0x3b8a6110	0.0042229965
116	0x3ce8b853	0.028408205
117	0x3c419fb9	0.011817866
118	0x3c7d6e60	0.01546821
119	0x3d1143a6	0.035464905
120	0x3c463e11	0.012099759
121	0x3d096a81	0.033548836
122	0x3a5ed5e2	0.0008500499
123	0x3aafd27e	0.0013414172
124	0xbb1ac82b	-0.0023617845
125	0x3cf284fd	0.02960443
126	0xbc045d06	-0.008078819
127	0x3c236f13	0.009975213
128	0x3ccc9c3a	0.024976838
129	0x3d297372	0.041369863
130	0x3b604c74	0.0034225257
131	0x3b914427	0.004433173
132	0xbbdd6265	-0.0067561143
133	0x3bc2c266	0.0059435843
134	0x3c5b5ed1	0.013389305
135	0x3c2092a0	0.009800583
136	0x3c8e8659	0.017398046
137	0x3c7bdf99	0.015373134
138	0x3c1d38a5	0.009596025
139	0xbbbf34f0	-0.005835168
140	0x3c0cb543	0.008588138
141	0xbb35e732	-0.0027756211
142	0x3c5ce480	0.013482213
143	0x3be01484	0.006838383
144	0xba8ec723	-0.0010893088
145	0x3cd44414	0.025911368
146	0x3c4863d4	0.012230832
147	0x3c026d3c	0.007960614
148	0x3cfbcb7d	0.03073668
149	0x3c94b0e7	0.01815076
150	0x3b8fc81a	0.0043878676
151	0x3cf35a24	0.029706068
152	0x3c8b050b	0.016970178
153	0xbae4c54c	-0.0017453819
154	0xba4e113a	-0.00078608433
155	0x3bb897fd	0.005633353
156	0x3c30aebc	0.010783847
157	0x3c084a0e	0.008318437
158	0xba3877f3	-0.0007036917
159	0x3b09a819	0.0021004735
160	0xbc32f3cf	-0.010922386
161	0x3c1ce909	0.009577044
162	0xba527d4b	-0.00080295344
163	0x3d070b24	0.03296961
164	0x3ca1c653	0.019747889
165	0xba848e58	-0.0010113223
166	0x3b7c860b	0.0038532044
167	0x3c4bc84b	0.01243789
168	0x3c7247ab	0.014787595
169	0x3ceb39b4	0.028714038
170	0x3bcdd1e3	0.006281124
171	0x3ace6b2a	0.001574849
172	0x3b275437	0.0025532374
173	0x3c25c326	0.010117328
174	0x3cb793f6	0.02240942
175	0x3b0bf07f	0.0021353064
176	0x3ba4b9e2	0.005027042
177	0x3d1e7a4b	0.038690846
178	0x3bc06605	0.0058715367
179	0xbc066363	-0.008202407
180	0xbbeffec2	-0.0073240707
181	0x3c421f26	0.011848247
182	0x3ccc528f	0.02494171
183	0x3ccc9008	0.024971023
184	0x3a6ca231	0.0009026854
185	0x3be6fac9	0.007048939
186	0x3adde80e	0.001693012
187	0x3bbf91a6	0.00584622
188	0x3ca03c0f	0.019559888
189	0x3be66739	0.007031348
190	0xb9f250c8	-0.00046218024
191	0xbac04485	-0.0014668858
192	0x3a8d85da	0.0010797337
193	0x3cdbd6c1	0.026835801
194	0x3b47b870	0.0030474924
195	0x3cb6afb5	0.02230058
196	0x3be0b3a1	0.006857351
197	0xbc100585	-0.008790378
198	0x3c2440e2	0.010025235
199	0x3c1f81bc	0.009735521
200	0xbb864db8	-0.0040986203
201	0x3bfb2959	0.007664841
202	0x3c387e33	0.011260557
203	0x3c019b44	0.007910553
204	0x3c7141ec	0.01472519
205	0x3c36533b	0.011128242
206	0xbc3afd2c	-0.0114129
207	0x3c4c4a3c	0.012468871
208	0x3c81e765	0.015857408
209	0x3c5e53af	0.013569756
210	0x3c2c67fd	0.01052284
211	0x3b9410de	0.0045186123
212	0x3ac8a2be	0.001530729
213	0x3c6c4760	0.014421314
214	0x398374f8	0.00025073416
215	0x3c61b4b2	0.013775991
216	0x3c1d6afe	0.009608028
217	0x3c4fb9ac	0.012678545
218	0x3b1321b5	0.002245051
219	0x3b8aa662	0.00423126
220	0x3c6e3303	0.014538529
221	0x3c4538f9	0.012037509
222	0x3b744a8c	0.0037275879
223	0x3b549dc1	0.0032442661
224	0x3ce7484d	0.028232718
225	0xbc60a471	-0.013711081
226	0x3c27af72	0.0102347005
227	0x3d16f0ca	0.036850728
228	0x3c2f526b	0.010700802
229	0xbaa439f4	-0.0012529478
230	0x3bfe5a97	0.007762264
231	0x3b634b3d	0.0034682297
232	0xbb87612d	-0.0041314573
233	0x3c8c7d17	0.017149491
234	0xbb904a8d	-0.0044034184
235	0x3b7fc34c	0.0039026318
236	0x3bec3e47	0.0072095725
237	0xba795853	-0.00095117575
238	0xbb89fff7	-0.0042114216
239	0x3c8d3d06	0.017241012
240	0x3c9e52ae	0.019326534
241	0x3c2376c7	0.009977049
242	0x3a9f9433	0.0012174904
243	0x3b4e0cb4	0.0031440677
244	0x3c8c1945	0.017101893
245	0xbc205029	-0.009784737
246	0x3b57ccd5	0.0032928486
247	0x3c891ab1	0.01673636
248	0x3c99f2d9	0.018792557
249	0x3c0cf303	0.00860286
250	0x3b0b7ece	0.0021285298
251	0x3ca5aaa9	0.020222979
252	0x3b32b9d8	0.0027271416
253	0x3b9ec4c8	0.0048452355
254	0x3bc5a721	0.006031886
255	0x3d2259d0	0.039636433

network_body._body_endoder.seq_layers.0.weight f4 [256, 123]
0	0x3c2dbfb9	0.010604792
1	0x3cd67936	0.026180845
2	0xbd746943	-0.059670698
3	0xbbb59b0f	-0.005542166
4	0xbbbc7a4b	-0.005751883
5	0xbb8d4d42	-0.0043121884
6	0x3d17939e	0.037006013
7	0xbd316ed0	-0.04331857
8	0xbd1a8bf7	-0.037731137
9	0xbc50919e	-0.01273003
10	0x3dfbb764	0.12290838
11	0x3e245364	0.16047436
12	0x3d528f14	0.05140598
13	0x3d2e4d95	0.042554457
14	0xba4471bb	-0.0007493754
15	0x3de62b13	0.112386845
16	0x3d631b57	0.055445995
17	0x3d92ce46	0.0716825
18	0x3d66ae41	0.056318525
19	0x3e154985	0.14578827
20	0x3e02f552	0.12788895
21	0xbc91fdde	-0.017821249
22	0xbdaebdc1	-0.085322864
23	0x3e0120fc	0.12610239
24	0x3d1b53dd	0.037921775
25	0xbd90f769	-0.0707844
26	0xbcb71776	-0.022350054
27	0x3e1301dd	0.1435618
28	0x3a4b304e	0.00077510334
29	0x3d3d7ab5	0.0462596
30	0x3d980252	0.074223176
31	0x3c9b8817	0.018985791
32	0xbdae3011	-0.08505262
33	0x3dda1fe8	0.10650617
34	0xbc01fca5	-0.00793377
35	0x3d5fd24e	0.05464392
36	0xbc9c5945	-0.019085536
37	0xbcbb65e4	-0.022875734
38	0x3bdcb7e4	0.0067357887
39	0x3e34b4f4	0.17647153
40	0xbdf5906c	-0.11990437
41	0x3c83c412	0.016084705
42	0xbdd4d397	-0.1039192
43	0xbdb0e7db	-0.08637973
44	0xbcaadf7f	-0.020858524
45	0x3decdfbe	0.11566113
46	0xbda5690f	-0.08076679
47	0xbe12e81b	-0.14346354
48	0x3cb0bfea	0.021575887
49	0x3d36305d	0.044479717
50	0xbe1cb81f	-0.15304612
51	0x3bfb4205	0.0076677823
52	0x3d93ede6	0.0722311
53	0x3e3ff3c9	0.1874534
54	0x3d268755	0.040656406
55	0x3c040975	0.008058895
56	0x3d4500f7	0.048096623
57	0xbe0c1711	-0.13680674
58	0x3e2751ca	0.16339794
59	0x3e207165	0.15668257
60	0xbdb94bf4	-0.0904769
61	0x3db58b08	0.08864409
62	0x3e036f55	0.12835439
63	0x3aa643a9	0.0012684959
64	0x3c0a4727	0.008439816
65	0x3d4ca2c5	0.049959917
66	0x3dbe0872	0.092789546
67	0x3b64b3f7	0.0034897306
68	0xbd35510d	-0.04426675
69	0xbcffedf5	-0.031241396
70	0x3c10ce8e	0.008838309
71	0xbe375961	-0.17905189
72	0xbcd98606	-0.026553165
73	0xbc9798d7	-0.018505497
74	0xbdb947f2	-0.090469256
75	0xbd5eb5c0	-0.05437255
76	0xbdc85112	-0.09781088
77	0xbcfd8dd8	-0.030951425
78	0x3e6cbca5	0.23118837
79	0x3e0b47a2	0.13601544
80	0x3e3179aa	0.17331567
81	0xbdc77a77	-0.09740155
82	0x3daac11b	0.08337613
83	0xbea48ac1	-0.3213711
84	0xbdff7e30	-0.1247524
85	0x3d947817	0.07249468
86	0xbd903127	-0.07040625
87	0x3d21ba9a	0.039484598
88	0xbdc74a26	-0.097309396
89	0x3d9f9e9f	0.077939264
90	0xbd01f029	-0.031723175
91	0x3d9506b7	0.072766714
92	0xbe23035a	-0.15919247
93	0xbe452f18	-0.19256246
94	0x3bcb564a	0.006205355
95	0x38e65585	0.00010983184
96	0x3c1770fd	0.009243247
97	0xbcf0391b	-0.029324105
98	0xbbdae8b6	-0.0066805733
99	0xbd28b4af	-0.04118794
100	0x3e206963	0.15665202
101	0x3d1e9758	0.03871855
102	0x3bcdf578	0.0062853657
103	0x3b32ff16	0.0027312688
104	0xbd7fb1e5	-0.062425513
105	0xbddb618a	-0.107119635
106	0xbbb87bab	-0.0056299767
107	0xbd9bd6a2	-0.07609297
108	0xbdc4c737	-0.0960831
109	0x3d77de1b	0.06051455
110	0xbd185ee0	-0.037199855
111	0x3db2d5c6	0.0873218
112	0x3d797525	0.060902733
113	0xbd1f15c7	-0.038839128
114	0xbdbfb95e	-0.09361528
115	0xbc9a39a4	-0.018826313
116	0xbc440210	-0.011963382
117	0x3d4f3b0d	0.050593425
118	0xbdbc0b45	-0.09181837
119	0xbc2ef0ac	-0.010677498
120	0xbc385885	-0.011251573
121	0xbccc58ce	-0.02494469
122	0xbe0d644e	-0.13807794
123	0xbdbd11f1	-0.09231938
124	0x3d94ecb0	0.07271707
125	0xbd415cfb	-0.047207814
126	0x3e095128	0.13409865
127	0xbca9254e	-0.020647671
128	0xbc6a894a	-0.014314959
129	0x3cb586f6	0.022159081
130	0x3e1c9557	0.15291344
131	0xbc6f0250	-0.014587954
132	0x3d8e259e	0.06940769
133	0x3de1bb39	0.11022038
134	0x3dba2beb	0.09090408
135	0xbcd1b216	-0.025597613
136	0x3e0607a0	0.13088846
137	0xbe11dd85	-0.14244659
138	0x3e36b016	0.17840609
139	0x3dd6dbda	0.10491152
140	0x3ccbd74b	0.024882933
141	0x3d1d249d	0.038364995
142	0xbd5cc26b	-0.05389635
143	0xbcbd2c62	-0.023092452
144	0xbd8c5a6b	-0.06853183
145	0xbd45ba30	-0.048273265
146	0x3cafb4f1	0.021448584
147	0xbd96f12a	-0.07370217
148	0xbe423bfb	-0.18968193
149	0xbd80c23a	-0.06287046
150	0xbde92d86	-0.11385636
151	0x3c33af2f	0.01096706
152	0xbd1220b3	-0.035675716
153	0xbc670e41	-0.0141025195
154	0xbd1ee835	-0.03879567
155	0xbd5b70e1	-0.053574447
156	0xbe4db338	-0.20087898
157	0x3cdb778a	0.0267904
158	0x3dc8cd8c	0.0980483
159	0x3d59456e	0.05304473
160	0x3e32f121	0.17474796
161	0x3d0d6578	0.034520596
162	0xbd9ca43a	-0.07648511
163	0x3cbf3d22	0.02334458
164	0x3e1cbf10	0.1530726
165	0xbd198352	-0.037478752
166	0x3e057f10	0.13036752
167	0xbd67d3d2	-0.056598492
168	0x3d45e3db	0.048313003
169	0xbe4c8478	-0.19972408
170	0x3d991bc4	0.07475999
171	0xbd67db56	-0.05660566
172	0x3dc002d4	0.093755394
173	0xbdb6723a	-0.08908506
174	0x3dc869b2	0.09785785
175	0xbdc8bb66	-0.098013684
176	0xbd8389ec	-0.06422791
177	0xbd918d88	-0.07107073
178	0xbcf8f1f4	-0.03038881
179	0x3c36134c	0.011112999
180	0x3e191763	0.14950328
181	0xbd3c09d2	-0.045907803
182	0xbe105a3c	-0.14096922
183	0xbd2b32d7	-0.04179653
184	0xba8ff0fd	-0.0010981854
185	0x3e631713	0.22176771
186	0x3d6a975b	0.05727325
187	0xbcbc8e4c	-0.023017071
188	0xbd6d52b6	-0.057940207
189	0x3dfadf64	0.1224964
190	0xbbf47ecd	-0.007461405
191	0x3d48e8d2	0.04905016
192	0xbca78690	-0.020449907
193	0x3d842a59	0.0645339
194	0x3db03791	0.086043485
195	0x3c190e4c	0.009341788
196	0xbda10d10	-0.078638196
197	0xbd823e43	-0.06359532
198	0x3ac37ddf	0.0014914832
199	0xbdbdc4b1	-0.092660315
200	0x3cfa487e	0.030552145
201	0xbdc692d4	-0.09695974
202	0x3ca1e1b5	0.019760946
203	0xbc047dba	-0.008086616
204	0xbe143ef7	-0.14477144
205	0x3ce30fa8	0.027717426
206	0x3dd11d22	0.10210635
207	0xbde0ab40	-0.10970163
208	0x3d3b2a49	0.045694623
209	0x3e407601	0.18795015
210	0xbcb03712	-0.021510635
211	0xbd627f86	-0.055297397
212	0x3a3c4bd3	0.00071829295
213	0xbc1fb0f9	-0.009746783
214	0x3d510177	0.051026788
215	0x39b7867e	0.00035004684
216	0x3d87a0e8	0.06622487
217	0xbd4610b9	-0.04835579
218	0x3e1f2954	0.15543109
219	0xbddce95c	-0.10786697
220	0xbdb63d85	-0.08898453
221	0x3ce82bbf	0.028341172
222	0x3db5dbe9	0.08879835
223	0x3d826f10	0.0636884
224	0x3e34cb01	0.17655565
225	0x3dc97784	0.09837249
226	0x3d1f5efc	0.038908944
227	0xbda89ae1	-0.08232666
228	0x3ccb169d	0.024791056
229	0x3e13b10c	0.14423007
230	0xbd6788f3	-0.05652709
231	0xbb062570	-0.0020469092
232	0x3d221995	0.03957518
233	0xbd6c862d	-0.057745147
234	0xbd18e8e1	-0.037331466
235	0x3d637588	0.05553201
236	0xbab3510d	-0.0013680771
237	0xbd100380	-0.035159588
238	0x3afbaa67	0.0019200564
239	0xbd1a47ff	-0.037666317
240	0xbc0406cc	-0.008058261
241	0x3cbd7a9d	0.023129756
242	0x3b31e0de	0.0027142088
243	0xbd7f3fdf	-0.06231677
244	0x3d47bdd6	0.048765026
245	0xbb29d02c	-0.0025911434
246	0xbd25a394	-0.040439203
247	0x3dc420c7	0.09576564
248	0x3db6981d	0.08915732
249	0xbb09538a	-0.0020954334
250	0xbc5ca2b2	-0.013466524
251	0xbd41efc7	-0.04734781
252	0x3d1f1697	0.038839903
253	0x3cc59fa7	0.02412398
254	0xbae5d7a4	-0.0017535579
255	0xbccbe93f	-0.024891494
