Chrome/ml-agents-release_20/results-resume/dino/Dino.onnx (onnx, 130817 bytes, 4 tensors)

action_model._discrete_distribution.branches.0.bias f4 [2]
00000000: 931f 85ba 861f 853a
-0.0010156505 0.001015649

action_model._discrete_distribution.branches.0.weight f4 [2, 256]
00000000: 4f52 493c ed1a 82bb 272b cf39 24a0 bfbb
00000010: 7387 293c 5839 d3ba 8a70 2abc 0b6b 2c3c
00000020: 3c0f 5fbb 151d fe3a 5e18 e4b9 c229 843c
00000030: b763 60bc e6d7 30ba 62c1 703c da98 1a3c
00000040: ec8d d13b b5f2 f13b 531a 843b 6c95 be3b
00000050: ca12 663a 8bee a83b 31fe 93bb a6b9 ea3b
00000060: cd53 e7ba 8e97 883b e452 31bb 1302 093c
00000070: 9a8a d4bc fcbe 7dbb c0a9 bebc caf4 8abb
00000080: 9155 be3b 2cf2 923b e084 a43b 1e70 28bb
00000090: 751e 163b 10e5 51bb 4e7c 3cbb b1b0 ef3b
000000a0: 7313 cebb 74d9 33bc 7592 173c 8b2b c73b
000000b0: 3768 33bc 258d aaba ab56 6939 dd8d 823b
000000c0: 97c8 233c 9987 a2bc c2eb 753a 48e9 843a
000000d0: 12de cdbb 9908 2cbb 121c be3b 9a40 0fbc
000000e0: e45c 9bbb 0200 513b 9f53 bbbb f9aa c2b8
000000f0: e293 a8bb 09cc 88ba 5f9f babb 57f3 0f3c
00000100: 1def d23b 9916 08bc 4fb0 b63b d7fa 08bc
00000110: b695 02bc e4e9 a33b d506 10bc f631 113c
00000120: 98e2 b7bb dda3 2fbb 81fe 983b e38a 533c
00000130: 9f8c fdbb 6c1f 07bc 6089 fdba 6509 243c
00000140: 707d 1bbc 872c 52bb 5243 8cbc a63d f23b
00000150: f2a9 91bb 7c3c b83a 6c8c 963b ebd5 ecba
00000160: ee62 683c 1bc6 4b3b 1b38 22bc 7ecf 3c3b
00000170: 6cca 633c 084c 713b b51c d4bb c720 06bc
00000180: 10a3 1dba 3a4e 913c f82b 983b c4ba 0f3c
00000190: f27d e03b 1bea 41b9 9ec7 27bc ba9b a0bb
000001a0: 3c8c 92bb c267 d63b 11a4 b23b 77ab 09bc
000001b0: 36c7 8cbb 8fda 8fbb 1099 03bc 465a 623b
000001c0: 7e10 2fbb 8b06 d6ba a9aa 3cba c3cc a93a
000001d0: b110 6a3a 6fb2 1bbc 56f1 99bc 84a3 5b38
000001e0: 20c2 80b9 41ff d9bb 5f9a f7ba 4b04 9d3b
000001f0: adb4 f33a 811a 88bb a1e5 58bc d453 b43b
00000200: 9911 763b 1f53 03bb 192b beba 80e3 013c
00000210: 24e5 0b3c 7d78 39bc 086b a13b 248d 2dba
00000220: 6c86 263c 3b07 2e3a ba1f 7d3b 9643 92bc
00000230: b25d 7cba 24a3 78bc 2778 163c 8c6b 88b9
00000240: 3db6 7eba 9db9 383b 9cdd 8d3c 42a2 2a3c
00000250: 6fb1 db3b 8753 cebb 1141 4abb 500f 5e3c
00000260: d457 bdbb 147d e9ba a838 e2bb c7c4 863a
00000270: 25c5 9ebb fb7b 40bb b493 e33b df4c 3fbb
00000280: 00e0 f6bb a553 debb 8df7 85bb 5dde 83bc
00000290: 57f3 8eba c9aa c5bb a5f6 183c f389 5a3b
000002a0: 14a6 dabb 46e9 293c b0ec b0bb ede6 89bb
000002b0: d359 8bbb 6d4c 643b 5e79 79bc 80ee 36ba
000002c0: 1e49 c63a de50 eabb 6411 d0ba b2af 3e3c
000002d0: 5fa3 c2ba f63e c4bb 1fad 87bb edae c33b
000002e0: 917e 013c ff5b 8c3a 0a8a 4dbc dd64 0fbc
000002f0: ac73 38bc 1ab2 aebb bf37 87bc 7a1a 4fbb
00000300: c109 83bc 7536 f43b 4815 03bb 0e01 e6ba
00000310: cbc5 8abc 8e9f 4dbb 3ccb 843b 0f19 5a3c
00000320: 441f 093b 6819 e93b c6dc 32bb 0b6e 40bc
00000330: 82bf f0bb ce34 26bc 6bbd 1a3c 2bff 633c
00000340: 03e0 8bbb aded 9139 6f43 113b 7d93 28bb
00000350: 95ee 04bc 5b49 ba3b 92fd babb 8843 a1bb
00000360: 844f 29bc ced3 843a 9165 d13b d8ff d23b
00000370: 132c 12bb 27b2 113c e88f f83a 249e bfbb
00000380: 37eb b93a b2f4 60bc 4192 24bb 5fcb 9fbb
00000390: 4711 5ebb 9948 a63a 02df c03a 3c58 d53c
000003a0: cef6 1bbc 7e85 3cba 2faa af3b 09d3 8cba
000003b0: cf50 5a3b 11c5 72bb e25e ed3b a08c adba
000003c0: 13dd 0fbc 0d63 38bc 0089 cf3a 694e 28bc
000003d0: d891 e1bb b805 743b 126c 5dbb bd8a c53b
000003e0: 189a 573c b13a dabb 07ab 3a3a 688c 09bb
000003f0: 20c8 f43b 774e babb ca43 3c3b 6d48 7dbc
0.01228769 -0.003970495 0.00039514268 -0.0058479477 0.010347235 -0.0016115112 -0.010402808 0.010523568
-0.003403618 0.0019387329 -0.00043505704 0.016133193 -0.013695649 -0.00067460386 0.014694544 0.009435857
0.0063950922 0.0073836693 0.0040314584 0.0058161523 0.00087766035 0.0051553897 -0.004516386 0.0071632443
-0.0017648876 0.0041684574 -0.0027057463 0.008362311 -0.025944997 -0.0038718572 -0.023274302 -0.004240607
0.00580854 0.0044844355 0.0050207227 -0.0025701593 0.0022906337 -0.00320274 -0.0028760615 0.0073147644
-0.0062889396 -0.010977138 0.009251227 0.006078189 -0.01095014 -0.0013012035 0.00022252898 0.0039841966
0.009996555 -0.019840049 0.0009381139 0.0010140324 -0.0062825764 -0.0026250242 0.005801686 -0.00874343
-0.004741298 0.0031890874 -0.0057167555 -9.282487e-05 -0.005144582 -0.0010436784 -0.005695268 0.008786044
0.006437196 -0.008306169 0.005575217 -0.008360586 -0.007970264 0.005002247 -0.008790691 0.008862009
-0.005611729 -0.002680055 0.004669011 0.012911531 -0.0077377106 -0.008247238 -0.0019343309 0.010012005
-0.009490356 -0.0032069997 -0.017121945 0.007392603 -0.004445308 0.0014056112 0.0045943763 -0.0018069124
0.014183743 0.0031093422 -0.009901072 0.0028810198 0.013903242 0.0036819 -0.0064731487 -0.008186526
-0.0006013373 0.017737497 0.0046439134 0.008772556 0.0068509514 -0.00018493125 -0.010240464 -0.0049013766
-0.0044722836 0.0065431306 0.005451687 -0.008402697 -0.0042962087 -0.004390068 -0.008032098 0.003453867
-0.002671271 -0.0016328854 -0.0007197061 0.00129547 0.0008928879 -0.009502991 -0.018791836 5.2365955e-05
-0.00024558697 -0.006652743 -0.0018890611 0.0047917715 0.0018593274 -0.00415355 -0.013238342 0.005503157
0.003754711 -0.0020038558 -0.0014508694 0.007927775 0.008538518 -0.011320231 0.004926089 -0.0006620458
0.010163885 0.00066386507 0.0038623647 -0.017854493 -0.0009626999 -0.0151756145 0.00918392 -0.0002602007
-0.00097164867 0.0028186806 0.017317586 0.010414662 0.0067045013 -0.0062965783 -0.0030861537 0.0135534555
-0.005778292 -0.0017813765 -0.0069037266 0.0010282033 -0.004845279 -0.0029370773 0.006945098 -0.0029190106
-0.007534027 -0.0067848735 -0.0040883482 -0.016097242 -0.0010906261 -0.006032322 0.009336148 0.0033346384
-0.00667263 0.010370558 -0.005399309 -0.0042084367 -0.0042526512 0.0034835592 -0.01522669 -0.00069782883
0.0015127992 -0.0071507534 -0.0015874323 0.011638569 -0.0014849714 -0.005988951 -0.0041405107 0.0059717805
0.007903711 0.0010708569 -0.012545118 -0.008752075 -0.011258047 -0.00533129 -0.016506074 -0.0031601475
-0.015995862 0.007452781 -0.0020001698 -0.0017547922 -0.016940018 -0.003137562 0.0040525477 0.0133116385
0.0020923177 0.0071136244 -0.0027292236 -0.011744986 -0.0073470483 -0.010144426 0.009444575 0.013915817
-0.0042686476 0.00027833637 0.0022165438 -0.0025722675 -0.008113523 0.005685014 -0.0057064975 -0.0049213804
-0.010333899 0.0010133923 0.0063902815 0.0064391904 -0.0022304102 0.0088925725 0.0018963786 -0.0058477093
0.0014184479 -0.013730215 -0.0025111588 -0.0048765386 -0.003388481 0.0012686431 0.0014714899 0.02604305
-0.009519292 -0.0007191523 0.0053608636 -0.0010744046 0.0033312326 -0.003704373 0.007243977 -0.0013240762
-0.008780736 -0.011254084 0.0015833676 -0.010272601 -0.006883841 0.0037234854 -0.0033786339 0.006028502
0.013159297 -0.0066598286 0.0007120822 -0.002098823 0.007470146 -0.0056856233 0.002872693 -0.015459162

network_body._body_endoder.seq_layers.0.bias f4 [256]
00000000: c31b 363b cd59 a839 682d 203a 2b2c 4f3a
00000010: 2e94 fc3a 46f4 653b 7b37 383b 4208 d13a
00000020: 6faa b53a 39ec bd3b e1d3 c73a 2ba1 63bb
00000030: 846a 103b a751 94bb ecea 99b8 389d 06bb
00000040: 0fc0 8e3a 2fd6 10bb 5e10 a0bb 7e22 7139
00000050: 809e d23b 821b d5ba 9e2c 3c3b 8ff6 35bb
00000060: a396 043b 2cbc d3bb 0ea9 7e3a 202b dbb9
00000070: 3abe 173b 54d4 b6bb 6b8f 053b cf3e 4e3a
00000080: 2336 88bb 241e 5a3b 1a65 45bb a5d5 fe3a
00000090: c83f 3eb9 06e2 76bb d55e 013c 7fe8 0e3c
000000a0: 086d bbbb c71b 89b9 9608 943a 513c 82ba
000000b0: 59d0 ff3a 769b 6d3b c000 b539 745b 86bb
000000c0: 3563 40ba f0e6 043b a98d d43a 3b41 20bb
000000d0: fc01 2ebb b013 f93b 98b2 c33a 0abb 003b
000000e0: ae31 dfba 27b5 08b9 0fb8 4abb ca2e c5b9
000000f0: a4d8 2e3a d629 3f3a 7274 033b 63be c6b8
00000100: c5b8 4f3a e132 af3a e47b e0ba f993 8f3a
00000110: 48b8 383b ccad 02bb fed0 22ba d196 d83b
00000120: e615 843a 2532 213b 6ef7 72bb 0343 bab9
00000130: d730 833a 5a84 d83a a982 94b9 a4f0 6bba
00000140: efc0 14bb 6667 c03a 0dca 193b 0e04 963b
00000150: 673b 8c3a 3597 fcba 3e14 09bb 65c6 4fb9
00000160: 8519 f03a 0a6a 963a aeed 763b d132 ce39
00000170: c01c 09bb 5e81 8cba 9875 9ebb 2563 0d3a
00000180: ce37 a3bb f96f bf3a a249 fdb8 0fdd 28bb
00000190: 576a 54ba 6c8f 1d3a 6e0a 843a 9848 003b
000001a0: 4d69 3e3a 09b2 d8ba 3e57 2bbb cc3d d43a
000001b0: bb4e 34bb 4d94 3b3a 34e5 cebb 123a eb3a
000001c0: d717 233b 52a6 6f3a f30a ea3b db40 273b
000001d0: 1675 013a 5274 1e3a 277b 3b3b 6c45 0e3a
000001e0: f367 b03a be12 883a 7583 383b d77f 193a
000001f0: 10d9 4c3a 35f0 4abb 2a1b b8b9 43a8 17bb
00000200: 56dd b0ba 8d12 ac3b cddd 5ebb 3390 aeba
00000210: f289 80bb 5d12 323b 903c a7bb 6a35 933b
00000220: de9a f63a 0b8f 6a3b e4dc 023c 02bf 663a
00000230: 24a8 083a 8c04 023b b981 1abb a655 e2ba
00000240: 50a7 c83a 2af6 32bb ec69 49ba f09a 8e3b
00000250: 4137 153b 8a59 293a c893 863a 6c37 8538
00000260: 428e 133a 3a04 1bba cadb 95bb 85c5 1fbb
00000270: 5ab6 d939 e57c c1ba 432d 933b f5f4 06b9
00000280: 11fa 083a 035c b2bb ae1f c9b9 487e 123b
00000290: 8957 973a d3b1 cd3a 9f46 c73b 5b24 613a
000002a0: 0252 58bb 2cdb 67bb 7e6a 143a 8432 c83b
000002b0: a65e a9bb 0210 a33b 5947 3b3b 696e 6a3a
000002c0: 0446 68bb 7c21 183a 4f21 45bb 853f 8e3b
000002d0: 6638 3239 5e73 e239 1d2c 093a da9c cf39
000002e0: 5205 10bb 42e9 213b 96ae 793b e6a6 8eb8
000002f0: fdf0 0f3b 3949 103a 0108 193b d625 57bb
00000300: c89d 5c3a 093c 083c 6802 883a 652f db3a
00000310: be03 213b f07f 9abb 8b9c 9bba d79f 753a
00000320: b6ac 8cbb aa0f f5ba 9922 2f3a 5920 293a
00000330: 741a 073b 31f7 413b 4ba1 35bb 659b 153b
00000340: 7a09 7a39 4aa4 983b 6bf2 12bb f5b5 533a
00000350: e566 343b 2069 493a 7c10 1cbb 0c3e 273a
00000360: 7671 9d39 4ef3 a6b9 d517 003b 90b4 a8ba
00000370: 6fff 663a aa39 a33a 4b45 b0ba 9786 de39
00000380: 0d93 70ba 7033 1d3a 0330 b639 7166 a63a
00000390: 23c5 103a 849b 643a ef4f a1bb a42b 853b
000003a0: 7a2c b638 e88c 6abb 9fde a1bb 3451 7abb
000003b0: b258 caba 1340 843a e713 b73b 78f3 603a
000003c0: 6ff4 09bb 0c9d 7c3a 5efc d23b c369 f239
000003d0: 8df0 2ebb 57b2 efba cc46 68ba 8791 5939
000003e0: 6252 64ba 9c4a 133b bb46 09bb 4e75 54bb
000003f0: 11a7 48bb e0d0 84bb 0ccf 033a d186 903a
0.0027787543 0.00032110364 0.00061102817 0.0007903005 0.0019270235 0.0035088225 0.002810924 0.0015947896
0.0013859997 0.005795982 0.001524564 -0.0034733515 0.0022036145 -0.0045263353 -7.339366e-05 -0.0020540487
0.0010890978 -0.002210032 -0.0048847636 0.000229964 0.006427586 -0.0016258808 0.0028713117 -0.0027765369
0.0020231388 -0.006461641 0.0009714522 -0.00041803066 0.0023154155 -0.0055795107 0.0020379673 0.00078676356
-0.004156844 0.0033282125 -0.0030120076 0.0019442333 -0.00018143572 -0.0037671342 0.007896145 0.008722424
-0.0057197846 -0.00026151372 0.0011294063 -0.0009936189 0.0019517048 0.0036255992 0.0003452357 -0.0041002575
-0.0007339002 0.002027925 0.0016216534 -0.0024452943 -0.0026551476 0.007601224 0.0014930544 0.0019642734
-0.0017028356 -0.00013037455 -0.0030932461 -0.0003760963 0.0006669855 0.0007292306 0.002005842 -9.476838e-05
0.0007923956 0.0013366604 -0.0017126766 0.0010954133 0.0028186012 -0.0019940017 -0.0006210952 0.0066097756
0.0010077327 0.002459654 -0.003707375 -0.00035526612 0.0010009062 0.0016518936 -0.0002832611 -0.0009000397
-0.0022698005 0.0014679253 0.002346638 0.00457812 0.0010698856 -0.0019271137 -0.0020916606 -0.00019814966
0.0018318152 0.0011475694 0.003767829 0.00039329243 -0.0020921677 -0.0010719707 -0.0048357956 0.0005393497
-0.0049810177 0.0014605514 -0.00012077695 -0.0025766527 -0.0008103004 0.0006010446 0.0010073909 0.001957452
0.0007263616 -0.0016532551 -0.002614453 0.0016192733 -0.0027512747 0.00071555824 -0.0063139442 0.0017946383
0.0024886036 0.000914191 0.0071424185 0.0025520835 0.00049384066 0.0006044555 0.002860734 0.0005427215
0.0013458714 0.0010381562 0.0028154526 0.00058555364 0.0007814327 -0.0030965928 -0.00035115454 -0.0023141063
-0.0013493698 0.005251235 -0.0034006715 -0.0013318121 -0.0039226944 0.002717159 -0.005103655 0.0044924514
0.0018814465 0.0035790827 0.007987235 0.0008802266 0.0005213043 0.0019839136 -0.0023575856 -0.0017267957
0.0015308652 -0.002730737 -0.0007683325 0.004351966 0.002276853 0.0006460181 0.0010267431 6.352257e-05
0.0005628803 -0.00059134106 -0.00457332 -0.0024379205 0.00041525328 -0.0014761953 0.0044914796 -0.0001287049
0.0005225251 -0.0054430976 -0.0003836131 0.0022353102 0.0011546473 0.0015693255 0.0060814167 0.0008588486
-0.0033007865 -0.003537844 0.00056616205 0.0061095376 -0.0051687537 0.0049762735 0.0028576462 0.0008942844
-0.0035442123 0.00058033294 -0.0030079668 0.004341068 0.00016996413 0.00043192034 0.00052327086 0.0003959898
-0.0021975827 0.0024705683 0.0038098446 -6.802175e-05 0.0021963709 0.0005504075 0.0023350718 -0.0032828948
0.0008415845 0.008315095 0.0010376694 0.0016722499 0.002456888 -0.0047149584 -0.0011872215 0.00093698263
-0.0042930497 -0.0018696685 0.00066808757 0.00064516586 0.0020615133 0.00295968 -0.0027714546 0.0022828218
0.00023845388 0.0046582567 -0.0022422324 0.0008076125 0.002752715 0.00076832063 -0.0023813536 0.000637979
0.00030029909 -0.00031843263 0.0019545455 -0.0012871195 0.0008811866 0.0012453098 -0.0013448385 0.00042443417
-0.0009177186 0.00059967395 0.00034749517 0.0012695325 0.000552254 0.00087206834 -0.004922859 0.0040640403
8.686721e-05 -0.0035789553 -0.0049398686 -0.0038195373 -0.001543781 0.0010089896 0.0055870893 0.00085812015
-0.0021050235 0.0009636439 0.006438776 0.00046236636 -0.0026693672 -0.0018287402 -0.0008860647 0.00020748946
-0.0008709786 0.002247489 -0.00209467 -0.0032418552 -0.0030617157 -0.00405322 0.0005028106 0.0011026507

network_body._body_endoder.seq_layers.0.weight f4 [256, 123]
00000000: e47e 44bd 1acf bf3c 88f4 07be b6ca c13c
00000010: caa3 593e 16af 32bd 410e c5bd 79c3 293e
00000020: 9e39 6cbd c282 bfbd ad3d 3e3d 85c9 8d3c
00000030: 3bbb ac3d aad6 073d 19a1 893d 68a7 adbd
00000040: 049a 813d 2faf eb3d 492c 9e3a f76a 3e3d
00000050: 3413 34be ffd5 c3bd 7dce 88bc 7bad 7d3d
00000060: 6d6b 44be 1175 413e 85ec c83a 5fe5 0a3e
00000070: 53cf 0ebe 74f6 e03d 2e02 b9bc 352b 553e
00000080: e94c a6b9 9021 803d 4818 31bc a159 80bd
00000090: a305 45be 8628 843c bb90 c13b 197d 153d
000000a0: 1aeb 14be 3323 bb3d 5e9b 66bc 8019 ddbd
000000b0: 3f54 10bc f64f db3c 5755 953c 58cb 91bd
000000c0: 669c e13c 97ae dabc 429b 6f3b bd52 95bd
000000d0: 2ac1 f63c 5afe 11be 53c1 cb3c 86bc 033d
000000e0: 5759 23be 9984 893c 9a74 19bb 76dd f7bc
000000f0: b9a0 3d3d dcd4 a8bc 3810 083d 9825 67bd
00000100: 29a2 363e 3bf6 00be b75e 59bc 0645 b13d
00000110: 7c7a 00bc 11e6 ca3d ea64 083e ef1e e0bb
00000120: 2b97 ecbd e272 b5bc 59c2 92bd 8e2c 35be
00000130: e76f 29be 69cb 9d3d 1e2c 253e 4518 dd3d
00000140: cb3e 423d 4387 683d 4398 dd3d 1005 4a3d
00000150: 22ef 25be fef1 2bbd 5653 92bb 8833 1abe
00000160: 66ca 53bd f65b 2dbd a35a 3b3e a3cd 04bd
00000170: 8d74 2bbe 1a23 a0bd ae2c 39be 34c5 6e3c
00000180: 1075 2cbd 0a03 29bd 8f62 0d3d c5da 38be
00000190: 6d74 df3c 3acf aa3d 1872 c3bd a4f4 bb3d
000001a0: 7adf f93b 520f 92bd 5e4a 9ebc 634d a13c
000001b0: c309 18be cc04 69bd feea 4f3d 8dd6 fa3c
000001c0: a5fd ad3d 0c24 373e 8749 91bc ff83 ef3d
000001d0: 7370 8e3d cd43 b4bd 350f 60bd c334 62bd
000001e0: b828 32bc 24b2 fa3c 350e 27bc 1329 183e
000001f0: 83bb d73d f47c 55bd 3b73 433e cdde a93d
00000200: ec0b a03c 43b3 6dbd 3ba3 c7bd 207e f23c
00000210: 2e96 d6bc 309b ebbd f996 313c 7442 273e
00000220: d9a9 fb3d 1fae 993c 5f3c 113e 4632 cd3c
00000230: 9bdc 9bbd d81f 253c 4b00 fcbc 8c39 20be
00000240: d29b 97bd 15fb dfbc a69e 3e3d b2bf 513d
00000250: f233 8cbd a8e6 97bd 56ed c3bc dda6 8fbd
00000260: b9e2 3cbe 951d 463e 7238 793d 0013 ab3c
00000270: 5b63 aa3c 4bb4 18bd 4635 9cbd 4439 4bbd
00000280: 1111 5abd 1dc1 2f3c 8ba3 9a3c 2934 b73c
00000290: 4fef e4bc 48c5 883d e8ce 87bc 8958 a13c
000002a0: 3cf8 9b3c bc50 e23d d842 bebc 481d 03bd
000002b0: c48c 9a3c efbf 25bc e7fc 15bd 522e 2dbd
000002c0: b14a 17bd b5bf 82bd b7c1 87bd 6cdf 6b3b
000002d0: c360 ed3d bc88 193d d667 1c3b 0bd3 36bc
000002e0: 050f 01bc 704b a0bd 46f8 0f3d 8140 87bc
000002f0: c94a 1f3e e0c8 babd 7a07 f7bd 9e91 a93d
00000300: 06f9 2b3e 3b9d d03d 09a9 87bd 3958 c93d
00000310: 3d87 823d 08cd d43d a4f1 d5bd 57a2 c9bd
00000320: b7b4 45bc 46e7 cebd c5eb 44bd 4c5e a1bd
00000330: ddad 803c 967b b1bd ed47 27be 6a39 b0bd
00000340: 8b04 593d 8ecc 0cbd 213e 9d3d fb1e 2e3e
00000350: 6d60 e33d d925 5c3e fc4b 253e 6bd6 18bd
00000360: 3258 0cbd a8bd 1a3d 0371 88bd 4356 933d
00000370: 9221 0fbd 9b07 abbd 3449 81bc ebe9 793b
00000380: 9b65 953d 18b5 90bd 09d5 2b3c ab73 b53d
00000390: 8f8c d43d e9e4 6ebe 4935 94bd 9f18 babd
000003a0: 6fbd 3f3c 040e 89be 203e 63bc bf41 b1bb
000003b0: f347 0ebe d730 26bd 7567 09be 0840 f23c
000003c0: 52dd 13be 8d82 d6bb 07d1 c6bd 1788 adbd
000003d0: f6b0 2b3d c804 0b3e 38fe 393c 941d 86bb
000003e0: 694f 8ebd 8f0c 083e b9fb 073e 91b1 9a3c
000003f0: 2880 503e ad54 cb3d c721 13bd 7ec9 963c
-0.047972575 0.023414183 -0.13276875 0.02365623 0.21253887 -0.043624006 -0.09621859 0.16578473
-0.057672136 -0.09351112 0.046445537 0.017308006 0.08434149 0.033163704 0.0672018 -0.08479196
0.06328204 0.11508023 0.0012067641 0.04648873 -0.1758545 -0.09562301 -0.016700024 0.061933022
-0.19181605 0.18892314 0.0015329277 0.1356406 -0.13946275 0.10984507 -0.022584047 0.20817263
-0.0003171929 0.062564015 -0.010809012 -0.06267095 -0.19240431 0.016132604 0.005907146 0.036496256
-0.14542809 0.09137573 -0.014075128 -0.10795879 -0.008809148 0.026771527 0.01822917 -0.07118863
0.027540397 -0.026694579 0.0036561047 -0.07291172 0.030121405 -0.14257184 0.024872458 0.03216221
-0.15952049 0.01678686 -0.0023415447 -0.030256968 0.046295855 -0.020609312 0.033218592 -0.056432337
0.17835297 -0.1259393 -0.013267211 0.08655743 -0.007841703 0.09907163 0.13319746 -0.006839625
-0.115522705 -0.022149507 -0.07165975 -0.17692778 -0.16546594 0.07704813 0.1613011 0.10795645
0.047423165 0.05676962 0.10820057 0.049321234 -0.16204503 -0.04197883 -0.004465501 -0.1505872
-0.051706694 -0.04232403 0.18296294 -0.032422673 -0.1674368 -0.07819195 -0.1808345 0.014573384
-0.042103827 -0.041262664 0.03451782 -0.18052204 0.027277196 0.083403066 -0.09543246 0.09177521
0.0076255174 -0.07131828 -0.01932257 0.019690221 -0.14847474 -0.05688934 0.050761215 0.030619884
0.084956445 0.17884845 -0.017735256 0.11695098 0.06955042 -0.088019945 -0.054702003 -0.0552261
-0.010873966 0.030602522 -0.010196258 0.14859419 0.10533812 -0.052121118 0.19086926 0.08294449
0.019536935 -0.058032285 -0.097479306 0.029601157 -0.026194658 -0.11504209 0.010839217 0.16333944
0.12288255 0.018759785 0.14183186 0.025048386 -0.076104365 0.010078393 -0.030761858 -0.15646952
-0.07402767 -0.027341405 0.046538018 0.051208206 -0.06845845 -0.07417041 -0.023916882 -0.070142485
-0.18445863 0.19347222 0.060844846 0.020883083 0.02079933 -0.037281316 -0.076273486 -0.04961516
-0.053238932 0.010727194 0.018876811 0.02236374 -0.027946142 0.066782534 -0.016578153 0.019695537
0.019039266 0.11050555 -0.023225233 -0.032010347 0.01886595 -0.010116561 -0.03661814 -0.042280503
-0.036936466 -0.063842215 -0.06628745 0.0035991324 0.115907215 0.037483916 0.0023865602 -0.011158715
-0.007877116 -0.078268886 0.03514888 -0.01651025 0.15555872 -0.09120345 -0.12061973 0.082797274
0.16794214 0.10186239 -0.06624038 0.0983128 0.06373451 0.10390669 -0.1044648 -0.09845417
-0.012067012 -0.10102706 -0.04807641 -0.07879314 0.015707904 -0.0866615 -0.16336031 -0.08604701
0.05298285 -0.034374766 0.07677866 0.17004006 0.11102376 0.21498813 0.16142267 -0.03731386
-0.034263797 0.037778527 -0.0666218 0.071941875 -0.034944125 -0.0835106 -0.015781976 0.003813381
0.0729477 -0.07065791 0.010487803 0.088599525 0.10378372 -0.2332951 -0.07236726 -0.09086727
0.011702879 -0.26768506 -0.013869792 -0.005409449 -0.13894634 -0.04057392 -0.13418372 0.029571548
-0.14439896 -0.0065463246 -0.097078376 -0.08473223 0.04191681 0.13576043 0.011352114 -0.0040928815
-0.0694874 0.1328604 0.13279618 0.018883498 0.20361388 0.0992826 -0.035920884 0.018406626
