Chrome/Assets/01_Sprites/Dino-2000095.onnx (onnx, 130817 bytes, 4 tensors)

action_model._discrete_distribution.branches.0.bias f4 [2]
0	0x3c7e0aff	0.015505551
1	0xbc7e0b00	-0.015505552

action_model._discrete_distribution.branches.0.weight f4 [2, 256]
0	0xbd8ca633	-0.068676375
1	0xbd1faaf3	-0.03898139
2	0x3d6ae1a1	0.057344083
3	0x3d1fa4df	0.038975593
4	0x3da7e03e	0.08197068
5	0xbdad6a85	-0.084675826
6	0x3b429608	0.0029691476
7	0x3d551dba	0.052030303
8	0xbdbefc31	-0.093254454
9	0x3d5c551c	0.053792104
10	0xbda30bcb	-0.07961234
11	0xbd58ee18	-0.05296144
12	0x3d2d9095	0.042374212
13	0x3d2bbd8b	0.04192881
14	0x3d6df3b6	0.05809375
15	0xbcc1a68a	-0.023638982
16	0xbcc545bd	-0.024081105
17	0xbdc5c7f0	-0.09657276
18	0x3d77076c	0.060309812
19	0xbcca3d9d	-0.024687583
20	0xbd73cea2	-0.059523232
21	0xbdc73f84	-0.097289115
22	0x3d9f6402	0.07782747
23	0xbd42fe14	-0.04760559
24	0x3dc8d014	0.09805313
25	0xbdf04a13	-0.117328785
26	0x3d99388a	0.07481487
27	0xbde424ed	-0.111398555
28	0x3d1aacea	0.03776256
29	0x3d0539e2	0.032525904
30	0xbd6b0cef	-0.05738538
31	0xbdf99dc6	-0.12188296
32	0xbd2469bf	-0.04013991
33	0x3dae5eb1	0.08514155
34	0xbdb74422	-0.08948542
35	0x3d890833	0.06691017
36	0xbd735e51	-0.05941612
37	0xbd69363a	-0.05693648
38	0xbd982fcd	-0.07430992
39	0xbd198e99	-0.037489507
40	0xbcaf0b25	-0.021367619
41	0x3ced0b43	0.028936034
42	0x3cfa489c	0.030552201
43	0xbd76249e	-0.060093515
44	0xbd3307bf	-0.04370856
45	0xbd970b10	-0.07375157
46	0xbddb1ebb	-0.10699221
47	0xbd01325d	-0.03154217
48	0xbba81c67	-0.005130339
49	0x3dd26957	0.10273998
50	0xbd8051ac	-0.06265578
51	0x3db8b8b5	0.09019605
52	0xbb4f42e7	-0.003162557
53	0x3d233853	0.039848637
54	0xbcdc61ea	-0.026902158
55	0x3da8badf	0.08238768
56	0xbd834071	-0.064087756
57	0x3da947bf	0.082656376
58	0xbd79d13b	-0.060990553
59	0xbc6eca94	-0.014574666
60	0x3d901221	0.07034708
61	0xbd944086	-0.07238869
62	0xbd6d19a4	-0.05788578
63	0xbd0f9d36	-0.035062037
64	0xbd190f09	-0.037367854
65	0x3d9177e8	0.071029484
66	0x3d2cda2d	0.042200256
67	0x3d625c6a	0.055263914
68	0xbd256f7c	-0.040389523
69	0xbd26fcae	-0.040768318
70	0x3d9880da	0.074464515
71	0xbd12fed4	-0.035887554
72	0xbda2ee78	-0.079556406
73	0x3cbff966	0.023434352
74	0xbd8226a3	-0.063550256
75	0x3db1fcd5	0.08690802
76	0x3dde4c74	0.10854426
77	0x3c46676a	0.012109617
78	0xbd76887c	-0.060188755
79	0x3d405835	0.04695912
80	0x3c99fa7d	0.0187962
81	0x3c54f701	0.012998343
82	0xbd9b5411	-0.07584394
83	0x3d124506	0.035710357
84	0xbd48ccc6	-0.049023412
85	0x3dd69929	0.10478432
86	0xbd833f37	-0.06408542
87	0x3dba5ac2	0.09099342
88	0x3c92fb30	0.017942041
89	0xbdc58b81	-0.09645749
90	0xbc4f7897	-0.012663028
91	0xbabc9af9	-0.0014389447
92	0xbd79416f	-0.060853418
93	0x3d556864	0.052101508
94	0x3d3b59b7	0.045739856
95	0xbd01423f	-0.031557318
96	0x3d256b4b	0.040385526
97	0x3d8a010d	0.06738482
98	0x3d52b7bf	0.051444765
99	0xbd25186b	-0.04030649
100	0xbdce8ec4	-0.10085824
101	0x3da4cf06	0.08047299
102	0x3c2b71eb	0.010464172
103	0xbd5c1c4c	-0.053737924
104	0xbd5bca42	-0.053659685
105	0xbdb501b2	-0.08838214
106	0xbd8354cb	-0.06412657
107	0x3d39024d	0.04516821
108	0xbd4c2c9b	-0.049847227
109	0x3db92cc7	0.09041744
110	0xbde4f29c	-0.111790866
111	0x3ddc0a91	0.10744203
112	0x3d884be8	0.06655103
113	0x3dbf348b	0.09336194
114	0xbd5185db	-0.051153045
115	0x3db3dedb	0.08782741
116	0x3bbbc921	0.0057307635
117	0xbd2079c7	-0.039178636
118	0xbd78d05f	-0.060745593
119	0x3d07bf70	0.033141553
120	0x3d2126fb	0.039343815
121	0xbd355ae5	-0.044276137
122	0xbcac3d88	-0.021025434
123	0x3d298af2	0.041392274
124	0xbd09e273	-0.033663224
125	0xbdcb4cf2	-0.099267855
126	0xbd971821	-0.07377649
127	0xbd822089	-0.06353862
128	0xbd8a5115	-0.067537464
129	0xbd4967bc	-0.049171194
130	0x3d0b2fa5	0.033980984
131	0x3d0bdf30	0.034148395
132	0x3d19fd2e	0.037594967
133	0xbdaa1e5e	-0.08306573
134	0x3d473fe8	0.04864493
135	0x3d0e1b99	0.034694288
136	0x3d99835d	0.07495759
137	0xbda18635	-0.07886926
138	0xbc8e8884	-0.01739908
139	0x3d16157c	0.036641583
140	0x3cbd0aaf	0.023076383
141	0xbcd27a6c	-0.02569314
142	0xbb3e5075	-0.0029039655
143	0xbcf9a67c	-0.030474894
144	0xbd29d271	-0.04146046
145	0xbca97f14	-0.020690478
146	0xbd92668b	-0.07148465
147	0x3d97740b	0.0739518
148	0x3d767f11	0.060179774
149	0xbdc6d069	-0.0970772
150	0x3ae33481	0.0017334373
151	0xbc676047	-0.014122075
152	0xbd1073d1	-0.0352667
153	0xbde47816	-0.11155717
154	0xbd10cb50	-0.035350144
155	0xbd70edfe	-0.058820717
156	0x3da2606e	0.07928549
157	0x3cc55842	0.024089936
158	0xbc120072	-0.008911239
159	0x3d37a04b	0.0448306
160	0x3dc18431	0.09449042
161	0xbd551163	-0.052018534
162	0x3db2fd67	0.08739739
163	0xbcd99878	-0.02656196
164	0x3d228f50	0.039687455
165	0xbd8f0dd7	-0.069850616
166	0x3d9170ea	0.07101615
167	0xbb708b0e	-0.0036703977
168	0x3db86d0f	0.09005176
169	0x3dbf05f5	0.09327308
170	0x3d3bd08a	0.045853175
171	0x3db2d20f	0.08731472
172	0x3cb93180	0.022606611
173	0x3d9c5d0c	0.07634935
174	0xbd1d72f5	-0.03843971
175	0xbd5c9198	-0.053849787
176	0xbd1140f0	-0.03546232
177	0xbc925b1c	-0.01786571
178	0xbd1e8ac3	-0.038706552
179	0x3daecb99	0.08534927
180	0x3d91658a	0.07099445
181	0xbd9efe73	-0.07763376
182	0x3d7a8c8c	0.061169192
183	0x3d80eb2e	0.06294857
184	0x3d9d2a2b	0.076740585
185	0x3d90a515	0.07062737
186	0x3c2c87ba	0.010530407
187	0xbd61466d	-0.054998804
188	0xbcf6e35c	-0.03013771
189	0x3c851ee5	0.016250083
190	0xbdaa3934	-0.08311692
191	0x3d189160	0.037248015
192	0x3da8cdfe	0.08242415
193	0x3d4d43f8	0.05011365
194	0x3d445061	0.047928218
195	0xbdaea2b2	-0.085271254
196	0x3de17248	0.110081255
197	0x3d5ce902	0.05393315
198	0xbd09e72a	-0.03366772
199	0x3cddc027	0.027069164
200	0x3db114e9	0.086465664
201	0x3d078cb2	0.033093162
202	0x3da13165	0.078707494
203	0xbc28009d	-0.0102540525
204	0x3c8da47d	0.017290348
205	0xbd7b3288	-0.061327487
206	0x3dc9b38b	0.09848698
207	0x3d9a9894	0.07548633
208	0x3d5b8e55	0.053602535
209	0x3dbc1b6f	0.0918492
210	0xbd2f75e3	-0.042837035
211	0x3cb4f3ab	0.022088846
212	0xbd566e78	-0.052351445
213	0xbdc89bb8	-0.09795326
214	0xbcf4d647	-0.029887332
215	0xbd96338d	-0.07334051
216	0x3d393d04	0.045224205
217	0xbd245baf	-0.0401265
218	0xbddaef2a	-0.10690148
219	0x3daa4692	0.083142415
220	0x3db2fc1e	0.08739494
221	0xbdba95fa	-0.09110637
222	0xbd9f2805	-0.07771305
223	0xbbda4b05	-0.006661775
224	0x3d2a8c3e	0.04163765
225	0x3ccfefc4	0.025382884
226	0x3d68656b	0.056737345
227	0xbd5d0d22	-0.053967603
228	0xbd937d40	-0.07201624
229	0x3db7b551	0.0897013
230	0xbd1d750e	-0.03844171
231	0xbd523847	-0.0513232
232	0x3dad5db7	0.0846514
233	0x3d564149	0.052308355
234	0xbb8ce53b	-0.0042997873
235	0x3dca2610	0.09870541
236	0x3db8a677	0.09016126
237	0x3d6110d3	0.054947685
238	0xbd4cd3a1	-0.050006513
239	0xbd5cd8a9	-0.05391756
240	0xbd25368b	-0.04033522
241	0xbdd38ff0	-0.10330188
242	0x3da92cfa	0.08260532
243	0x3d614184	0.05499412
244	0x3ce0d459	0.027445005
245	0xbd72f3a7	-0.059314396
246	0x3d730c62	0.05933798
247	0xbd81e134	-0.06341782
248	0x3d7c1bbc	0.061549887
249	0x3c3bb30f	0.011456265
250	0x3d407e30	0.04699534
251	0x3dba5f2f	0.09100186
252	0xbc81741a	-0.015802432
253	0xbda4301b	-0.08016988
254	0xbd7ec65f	-0.0622009
255	0xbcfedf54	-0.03111235

network_body._body_endoder.seq_layers.0.bias f4 [256]
0	0xbb24edb9	-0.0025166108
1	0xbb68a174	-0.0035496624
2	0x3d0f85d2	0.03503973
3	0x3cbaff3d	0.022826785
4	0x3d3b7a33	0.045770835
5	0xba45f9df	-0.00075521873
6	0xbc76d42f	-0.015065237
7	0x3d04f08e	0.032455973
8	0x3bb7b448	0.005606208
9	0x3d6c11ff	0.05763435
10	0x3c0f2c0a	0.008738527
11	0x3ba9bc89	0.005179946
12	0x3ce9eaaf	0.028554289
13	0x3cd723ee	0.02626225
14	0x3cfac0c4	0.030609496
15	0xbd3b9b5f	-0.04580247
16	0xbc10d609	-0.008840092
17	0x3c678cfc	0.014132734
18	0x3cefc911	0.02927068
19	0xbc997dcf	-0.018736748
20	0xbb39f282	-0.0028373306
21	0x3c3dc412	0.011582391
22	0x3d7a5e54	0.061125115
23	0xbbf0553f	-0.007334381
24	0x3d6b1eb2	0.05740232
25	0x3b9fc452	0.004875698
26	0x3d10b5fa	0.035329796
27	0x3c98c5c1	0.018648984
28	0x3cb9d1d6	0.022683065
29	0x3c9e072e	0.019290533
30	0x3b830b7f	0.003999173
31	0x3cc2f773	0.023799634
32	0xbb92c96f	-0.004479579
33	0x3d7e65d7	0.06210884
34	0x3a4b54f8	0.0007756497
35	0x3d10fd80	0.035398006
36	0x3bb614a9	0.005556662
37	0xbbe5a8b6	-0.0070086373
38	0x3bfdfaab	0.007750829
39	0xbb117f67	-0.0022201182
40	0xbc5249fa	-0.01283502
41	0x3c9b71f9	0.018975245
42	0x3ca276d3	0.01983205
43	0x3b7f8066	0.0038986444
44	0xbb578917	-0.0032888108
45	0xbbbd51e8	-0.0057775863
46	0x3cc17121	0.023613514
47	0xbb507031	-0.0031805153
48	0xbbe5d3ce	-0.0070137745
49	0x3d593baa	0.053035416
50	0xbb844cab	-0.00403746
51	0x3d314705	0.04328062
52	0xbbb330be	-0.005468457
53	0x3caf845e	0.021425422
54	0xbc017a5f	-0.007902711
55	0x3d34a996	0.044107042
56	0x3ae49719	0.001744005
57	0x3d94c073	0.07263269
58	0x3a8afe62	0.0010604376
59	0xbc3a5b7c	-0.011374351
60	0x3d29b1d1	0.041429345
61	0xbb5e9187	-0.0033961253
62	0xbbc4c9bd	-0.0060054944
63	0x3b95be9e	0.0045698425
64	0xbc720bcd	-0.014773321
65	0x3d10f57a	0.035390355
66	0x3d0b6ca6	0.034039162
67	0x3d3c2b57	0.04593977
68	0x3c95ba37	0.01827727
69	0xbbf98520	-0.0076147467
70	0x3d800e87	0.06252771
71	0xbc0720d7	-0.008247576
72	0x3b497cde	0.0030744593
73	0x3c206c4b	0.009791444
74	0x3b6f3ab9	0.0036503507
75	0x3d31971b	0.043356996
76	0x3d75028c	0.059816882
77	0x3bc09aad	0.005877814
78	0x3c31dd18	0.0108559355
79	0x3cf1f49b	0.029535582
80	0x3c948fe2	0.018135015
81	0xba4ca2b5	-0.00078062277
82	0x3c345c6a	0.011008361
83	0x3ca7c8b0	0.020481437
84	0x3bca4c61	0.006173656
85	0x3d685a63	0.056726824
86	0xba4ec77a	-0.00078880007
87	0x3d3e6931	0.046487037
88	0x3c939058	0.018013164
89	0x3c422bab	0.011851232
90	0xbbefcc75	-0.0073180743
91	0xbca9afb0	-0.020713657
92	0x3bc55bbe	0.0060228994
93	0x3d24dd7e	0.040250294
94	0x3cb3dce6	0.021955919
95	0xbb42e0f2	-0.0029736129
96	0x3cc7af26	0.02437551
97	0x3d063020	0.03276074
98	0x3cf6789e	0.030086812
99	0xbb21b06b	-0.0024671804
100	0x3c0ab6f7	0.008466474
101	0x3d353678	0.0442414
102	0x3bae03db	0.005310518
103	0xbb67f0a1	-0.0035391229
104	0x3c31fb5b	0.0108631505
105	0x3caa2b72	0.02077267
106	0xbba1a84d	-0.004933393
107	0x3cefd605	0.029276857
108	0xb9cf0efd	-0.00039493284
109	0x3d820887	0.06349283
110	0x3ba69711	0.0050839265
111	0x3d35cef1	0.044386808
112	0x3d37d90b	0.044884723
113	0x3d4037ac	0.046928093
114	0x3bbe7550	0.0058123246
115	0x3d531e1b	0.051542383
116	0x3c7069c3	0.014673653
117	0xbbc5a2f4	-0.0060313884
118	0x3af937d1	0.0019013827
119	0x3cbf7499	0.023371028
120	0x3c9f7c7f	0.019468544
121	0x3ba4f858	0.0050344877
122	0xbbfdbcb2	-0.0077434415
123	0x3c9fe9c7	0.019520653
124	0xbb44cd13	-0.003002946
125	0x3c6c9c87	0.014441616
126	0x3c566003	0.013084414
127	0x3ac08d11	0.0014690479
128	0xbbef00b7	-0.0072937864
129	0x3aa643ed	0.0012685038
130	0x3c8cc302	0.01718283
131	0x3c9c7033	0.01909647
132	0x3ca41ded	0.020033801
133	0x3bd6d065	0.0065556043
134	0x3cb2b78b	0.021816036
135	0x3aea0071	0.0017852915
136	0x3d171820	0.03688824
137	0x3c5650af	0.01308076
138	0xbccd5729	-0.025065975
139	0x3cb171a2	0.02166063
140	0x3c8bcdcd	0.017065907
141	0x3a9592de	0.0011411568
142	0xbd27b209	-0.040941272
143	0xbc1a5ced	-0.009421569
144	0xbb46b90d	-0.0030322701
145	0xbc4d2bec	-0.012522679
146	0x3b3b5aef	0.0028588136
147	0x3d3f7835	0.046745498
148	0x3d021289	0.031755958
149	0x3c7723ed	0.015084249
150	0x3c18de90	0.009330407
151	0xbc32a833	-0.01090436
152	0xbb7c28be	-0.0038476433
153	0x3c3daafa	0.0115764085
154	0xb90b388e	-0.00013277141
155	0x3c25b0e1	0.010112972
156	0x3d6781e5	0.05652036
157	0x3c569ea6	0.013099348
158	0xbd10cc35	-0.035350997
159	0x3cd9cf5c	0.026588134
160	0x3d286e64	0.0411209
161	0x3a021395	0.00049620244
162	0x3d211c36	0.039333545
163	0xbc808239	-0.015687095
164	0x3ccd768a	0.025080938
165	0x3bf1b601	0.007376433
166	0x3d22df26	0.039763592
167	0xbc84526e	-0.016152587
168	0x3d51a67c	0.051184162
169	0x3d52fe3d	0.05151199
170	0x3cdd37cd	0.027004147
171	0x3d36f8c0	0.04467082
172	0x3a581a1d	0.0008243637
173	0x3d31a003	0.04336549
174	0xbb420c79	-0.0029609485
175	0xbb26a845	-0.0025429886
176	0xbbccf753	-0.0062550693
177	0xbc2b7ab9	-0.010466271
178	0xbbb252f5	-0.005442018
179	0x3d18c06f	0.037292894
180	0x3d3ef2e5	0.04661836
181	0x3cbd66c1	0.023120286
182	0x3d0b2bda	0.033977367
183	0x3cef0434	0.029176809
184	0x3d4c6d7e	0.049909107
185	0x3d36b450	0.044605553
186	0x3d3e3164	0.04643382
187	0xbba7ed55	-0.0051247277
188	0xbbb32fe1	-0.005468354
189	0x3c2e7d43	0.010649982
190	0x3b853ad3	0.0040658503
191	0x3c8eb2ae	0.017419185
192	0x3d166aaf	0.036722835
193	0x3cdb0ec7	0.026740445
194	0x3cca14b6	0.024668079
195	0x3c01efc3	0.007930699
196	0x3d51068a	0.051031627
197	0x3d330c28	0.043712765
198	0xbc0ac128	-0.008468904
199	0x3cb6406e	0.02224752
200	0x3d882b01	0.06648827
201	0x3cbfdfe9	0.023422198
202	0x3d260e66	0.040541075
203	0xbca48634	-0.020083524
204	0x3c890cab	0.016729673
205	0xbba090fc	-0.004900096
206	0x3d1bfdcf	0.038083848
207	0x3d2c638a	0.042087115
208	0x3d000f8e	0.031264834
209	0x3d16cf0d	0.036818553
210	0xbbce5080	-0.0062962174
211	0x3cb07f80	0.021545172
212	0xbc13f8ec	-0.009031516
213	0xbb4b6607	-0.0031036155
214	0xbc13e365	-0.009026383
215	0xbbe44433	-0.006966138
216	0x3cccd412	0.025003467
217	0xbbb96154	-0.0056573544
218	0x3bb2eeeb	0.00546061
219	0x3d80bb8b	0.06285771
220	0x3d7723db	0.06033693
221	0x3c7ecc5c	0.015551653
222	0x3c0fa020	0.008766204
223	0xbd011009	-0.031509433
224	0x3d079d83	0.0331092
225	0x3c2b77ad	0.010465545
226	0x3d3ad939	0.045617316
227	0xbc152efa	-0.009105438
228	0x3c4a9d3f	0.012366592
229	0x3d248193	0.040162634
230	0xbc027298	-0.007961892
231	0x3bccda58	0.0062516145
232	0x3d320924	0.04346575
233	0x3d086f79	0.033309434
234	0x3c5128e1	0.012766094
235	0x3d6034a2	0.054737695
236	0x3d6988ab	0.057015102
237	0x3d4cd2b3	0.050005626
238	0xbb7042cc	-0.0036660908
239	0x3b32443d	0.0027201318
240	0xbbe07d59	-0.00685088
241	0x3cb7a225	0.022416184
242	0x3d8c3169	0.06845362
243	0x3ccd8728	0.025088862
244	0x3cbfeb31	0.023427578
245	0xba8616f7	-0.0010230233
246	0x3cfd9fe7	0.030960036
247	0x3b9d1b93	0.004794547
248	0x3d109f83	0.035308372
249	0x3c3a9fdc	0.0113906525
250	0x3ce58ec3	0.028022176
251	0x3d39cd6c	0.04536192
252	0xbc55e0b7	-0.0130540645
253	0x3c14ba7d	0.009077665
254	0xbba73394	-0.005102584
255	0xbc1c812d	-0.009552282

network_body._body_endoder.seq_layers.0.weight f4 [256, 123]
0	0x3e0791b7	0.1323918
1	0x3d677bf3	0.05651469
2	0xbd231d67	-0.039822962
3	0xbdf626cb	-0.12019118
4	0xbbf65225	-0.0075171166
5	0x3dbd8bce	0.09255181
6	0xbceaabf3	-0.028646445
7	0xbd87ec2d	-0.06636844
8	0x3d1c1f60	0.03811586
9	0x3d06db6d	0.032924104
10	0xbcc7cc7c	-0.024389498
11	0xbba064da	-0.004894835
12	0xbdc602ae	-0.0966848
13	0xbd2a0192	-0.041505404
14	0x3e423e84	0.1896916
15	0x3e7b1f8a	0.2452375
16	0xbe0952eb	-0.13410537
17	0xbd4f34a5	-0.050587315
18	0xbbb7317f	-0.005590617
19	0x3d47a47a	0.04874084
20	0xbda756af	-0.081708305
21	0xba37698c	-0.00069966237
22	0x3df82643	0.12116673
23	0xbcf0c35f	-0.029390035
24	0x3db194f4	0.08670989
25	0xbc2a5921	-0.010397227
26	0xbd19149e	-0.037373178
27	0xbb2ed038	-0.00266744
28	0x3d1554de	0.03645789
29	0xbbea6c17	-0.0071539986
30	0x3d4328fc	0.047646508
31	0x3cdd5874	0.027019717
32	0xbdd6c947	-0.10487609
33	0xbc601f00	-0.013679266
34	0x3e2902c0	0.16504955
35	0x3d4deb23	0.050273072
36	0x3dc817a9	0.09770138
37	0x3e1210ad	0.14264174
38	0xbcf78bd6	-0.030218046
39	0xbe38e6f6	-0.18056855
40	0x3e260110	0.16211343
41	0x3de89003	0.11355593
42	0x3dd2766e	0.10276495
43	0x3e10884b	0.14114492
44	0x3da2875b	0.07935973
45	0x3de6e729	0.11274559
46	0x3d00eff7	0.03147885
47	0xbe2041a9	-0.15650047
48	0x3cb98268	0.02264519
49	0xbddafa79	-0.10692305
50	0xbd8a41ce	-0.067508325
51	0x3e0ed9ce	0.13950273
52	0xbcc3b514	-0.023890056
53	0xbdcfce38	-0.10146755
54	0xbd7a9a3c	-0.061182246
55	0x3d9ae774	0.075636774
56	0x3dcbed92	0.09957422
57	0x3eb06c63	0.34457693
58	0xbd8b48ec	-0.06801018
59	0xbca5c34b	-0.020234725
60	0xbd553688	-0.05205396
61	0xbc64e5d5	-0.013970812
62	0x3ccccea7	0.025000883
63	0x3e099e37	0.1343926
64	0x3d8bd80d	0.06828318
65	0xbd44ec92	-0.048077174
66	0x3d9ad3a6	0.075599
67	0xbdbb8cf2	-0.091577426
68	0xbd2f5492	-0.042805262
69	0x3d021960	0.03176248
70	0x3d3a38fd	0.045464505
71	0xbbc41f29	-0.00598516
72	0xbdc7fbeb	-0.097648464
73	0x3e6bc433	0.23024063
74	0x3e6ecb67	0.2331978
75	0xbd784543	-0.060612928
76	0x3e02befd	0.12768169
77	0x3dff3c5c	0.124626845
78	0xbc55e9a5	-0.0130561935
79	0xbcb8afd5	-0.02254478
80	0x3c9a516d	0.018837655
81	0x3da98cbd	0.08278797
82	0x3cc7cfab	0.024391016
83	0xbc51d38d	-0.012806785
84	0xbe3984a5	-0.18117006
85	0xbce20ea5	-0.027594874
86	0x3d0d6757	0.03452238
87	0x3e87a44d	0.2649254
88	0x3abd2fee	0.001443384
89	0x3bd07054	0.006361047
90	0x3a3f1e62	0.0007290599
91	0xbbda7c04	-0.006667616
92	0x3d49ca5e	0.049265258
93	0xbe09eb52	-0.13468674
94	0x3d019cb6	0.03164359
95	0xbe162a62	-0.14664605
96	0x3e2afd70	0.16698241
97	0xbd63b423	-0.055591714
98	0x3d394c5c	0.045238838
99	0x3d953ed9	0.07287378
100	0x3db0a5aa	0.08625348
101	0x3d8272b8	0.06369537
102	0xbd11d9e0	-0.035608172
103	0x3da5cd20	0.08095765
104	0xbd3785c1	-0.044805292
105	0xbe01cd08	-0.1267587
106	0xbca73ed1	-0.020415695
107	0xbde18ba2	-0.11012961
108	0xbd8ef8f4	-0.06981078
109	0xbda273bd	-0.079322316
110	0xbaeccd13	-0.0018066488
111	0xbd2a2047	-0.04153469
112	0x3e13dc64	0.14439541
113	0xbe3a4e6a	-0.18193975
114	0x3d7f8ea3	0.06239189
115	0xbdc2bd7a	-0.09508796
116	0xbe971c19	-0.29513624
117	0x3e15f368	0.14643633
118	0xbe6169fc	-0.22013086
119	0x3d85cec9	0.06533582
120	0xbdc607b9	-0.09669442
121	0xbd9af9d9	-0.07567186
122	0xbb41c500	-0.0029566884
123	0x3aa6ed3b	0.0012735495
124	0x3e0311ce	0.1279976
125	0xbb26b760	-0.002543889
126	0x3d493e12	0.04913146
127	0xbcca6126	-0.024704527
128	0x3bac2a51	0.005254068
129	0xbdd09cd5	-0.10186163
130	0x3d905335	0.070471205
131	0x3e39f5b6	0.18160138
132	0x3d5c0bbf	0.05372214
133	0xbcf1317f	-0.029442547
134	0x3c739299	0.014866495
135	0x3c502f2e	0.012706561
136	0xbdc2fd85	-0.09521011
137	0x3e28f038	0.16497886
138	0x3dbae587	0.0912581
139	0x3d52ff77	0.05151316
140	0xbe8085bc	-0.2510203
141	0xbdae9d99	-0.08526153
142	0x3ce4d346	0.027932774
143	0xbdab197f	-0.08354472
144	0x3d726376	0.059176885
145	0xbdb41b43	-0.08794262
146	0xbe33302e	-0.17498848
147	0xbd479e0e	-0.048734717
148	0x3dc43c1f	0.0958178
149	0x3d8ec02c	0.069702476
150	0xbdc7c207	-0.09753805
151	0xbaf079fe	-0.0018346903
152	0x3d5ca9a3	0.053872716
153	0xbbef47ac	-0.007302245
154	0x3dad0aa5	0.08449296
155	0xbd1f0bd5	-0.038829643
156	0x3d356bc9	0.044292245
157	0x3dd8847f	0.105721466
158	0x3e1d5537	0.15364538
159	0xbc399aa3	-0.011328372
160	0x3e57db01	0.21079637
161	0x3d79fc49	0.061031613
162	0x3d8205cd	0.06348763
163	0x3c927052	0.017875824
164	0xbdb05a4d	-0.086109735
165	0xbded8262	-0.11597134
166	0x3dd3fef4	0.10351363
167	0x3d96daa1	0.07365919
168	0xbe11b450	-0.1422894
169	0xbc826646	-0.015917908
170	0x3d23a811	0.039955202
171	0xbdad37ef	-0.08457934
172	0x3d170ed3	0.03687937
173	0xbcd96ee5	-0.026542136
174	0x3d8ae7ee	0.06782518
175	0x3d51c6c7	0.05121496
176	0xbd9c1dda	-0.07622881
177	0xbc8ead45	-0.017416606
178	0xbbad49a1	-0.0052883183
179	0x3d14c56a	0.03632108
180	0x3e890b56	0.2676646
181	0xbe4f1bd5	-0.20225461
182	0xbdf89c7d	-0.12139223
183	0x3e269afe	0.16270062
184	0x3d271f06	0.04080107
185	0xbd616be8	-0.055034548
186	0x3caa942f	0.020822613
187	0xbd9b6e90	-0.075894475
188	0x3d147f3d	0.036254156
189	0x3d962e71	0.07333077
190	0x3bb13840	0.005408317
191	0x3d58a57c	0.052892193
192	0x3e12d8ed	0.14340563
193	0x3e3e90bc	0.186099
194	0xbd7c6b10	-0.06162554
195	0x3e2d542a	0.16926637
196	0xbe003dd8	-0.12523592
197	0x38d28336	0.0001003802
198	0xbe5d2ac0	-0.21598339
199	0xbe15f062	-0.1464248
200	0xbd927b55	-0.0715243
201	0xbcaec6c0	-0.021335006
202	0xbe62688c	-0.22110194
203	0x3df6891e	0.12037872
204	0xbd1dad45	-0.03849532
205	0x3cff7998	0.03118591
206	0xbdb1d5b8	-0.08683342
207	0x3ca8e079	0.02061485
208	0xbdcc4f0d	-0.09976015
209	0x3d8132a7	0.06308489
210	0x3c93783b	0.018001666
211	0x3cbb28b4	0.022846557
212	0x3e02afd4	0.12762386
213	0x3d9bb9c5	0.07603792
214	0xbe26e3f3	-0.16297893
215	0xbe323aee	-0.17405292
216	0x3d650977	0.05591723
217	0x3e12dc44	0.14341837
218	0x3de87d83	0.113520645
219	0xbd12c8ba	-0.03583596
220	0xbd65955a	-0.056050636
221	0xbca59061	-0.020210447
222	0x3d54836f	0.051883157
223	0xbcedd1a0	-0.029030621
224	0xbd1555da	-0.036458828
225	0x3d4ca436	0.04996129
226	0xbe710c3b	-0.23539822
227	0x3d2d554e	0.04231768
228	0xbc91e06c	-0.017807208
229	0xbd5271af	-0.05137795
230	0xbd47a6e5	-0.048743147
231	0xbd02d884	-0.031944767
232	0xbcf3c365	-0.029756257
233	0xbd1241dd	-0.035707343
234	0x3d83e0fe	0.06439398
235	0x3dd7bc08	0.10533911
236	0x3e2ffa6f	0.17185377
237	0xbd3ff14c	-0.046860978
238	0xbdd3e57e	-0.103465065
239	0x3b3cd533	0.00288136
240	0xbd9aea06	-0.07564168
241	0x3ddf5d90	0.109065175
242	0xbd3dc6a6	-0.046332024
243	0xbc7582d1	-0.014984802
244	0x3d6f2443	0.05838419
245	0x3dd64b7d	0.10463617
246	0xbe24b332	-0.16083983
247	0x3d0fb7ea	0.035087503
248	0x3e08e153	0.13367204
249	0xbda52011	-0.08062757
250	0x3e142021	0.14465381
251	0xbcd1327d	-0.02553677
252	0x3cef7202	0.029229168
253	0xbc2b23ca	-0.0104455445
254	0x3dc63557	0.096781425
255	0x3dc0070e	0.093763456
